neuromancer/neuromancer/train_scripts/test_control/best_model.pth (torch, 696623 bytes, 96 tensors)

weight f4 [3, 60]
000000 20 6d 59 3d 84 97 02 be 38 19 00 3d e0 a1 12 3c
       0.053082585 -0.12753111 0.03127405 0.008949727
000010 42 09 cf 3d 24 e3 a5 bc 0c 7c 07 3d c0 05 15 3d
       0.10109188 -0.02024991 0.033077285 0.036382437
000020 f6 77 c4 3d a8 db 09 bc 83 10 01 3e 2a b3 c9 bd
       0.09593193 -0.008414187 0.12603955 -0.09848626
000030 1d 71 01 be e4 dd e5 3d 64 7b c5 bd 06 63 8a bd
       -0.12640806 0.11223963 -0.096426755 -0.067571685
000040 46 a1 0a bd 94 e2 18 bd d0 ec e5 bb 78 a4 82 bc
       -0.03384521 -0.037325457 -0.0070167556 -0.015947565
000050 a2 d0 fe 3d 8e c0 b7 3d 30 31 c2 3c 64 6e 2c 3d
       0.12442137 0.08972274 0.023705095 0.042097464
000060 f1 dc 00 3e d0 3c cb 3c f4 c0 c1 bd 3a 16 01 be
       0.12584282 0.024809271 -0.09460631 -0.12606135
000070 62 29 23 bd e0 cf b1 bd 1c 0a b2 bc 23 2b e5 bd
       -0.039834388 -0.08682227 -0.021733336 -0.11189868
000080 72 69 ce bd b4 21 ab 3d 0e ca ad bd c0 19 11 3b
       -0.10078706 0.08356038 -0.084858045 0.0022140592
000090 d4 db 7e bd 54 36 8d 3d c4 39 4e bd af 32 dc bd
       -0.062221363 0.06895128 -0.05034806 -0.10751855
0000a0 0c 94 9d 3d 60 0d ac bc 6e 15 bc 3d d0 b2 10 3d
       0.07694253 -0.021002471 0.09183775 0.03532678
0000b0 6e f7 89 3d 84 c1 e2 3d 1c 11 8c bd cc c0 96 bc
       0.067366466 0.110720664 -0.06839201 -0.01840248
0000c0 0c b0 7e 3d cc 95 16 3d 84 d6 ae 3d 8c 17 ae 3d
       0.06217961 0.03676395 0.08537009 0.08500585
0000d0 8d 12 f8 bd ec 74 37 3d 48 08 e5 bd 9c c8 f1 bd
       -0.12112913 0.04478924 -0.1118322 -0.11805841
0000e0 26 ea e4 3d ac 95 94 bc 60 80 bf bd 1a 76 d5 bd
       0.11177473 -0.018137775 -0.093506575 -0.10422917
0000f0 50 e0 f3 3c a8 90 a3 bc 82 ec 8f 3d 84 26 8c bd
       0.029770046 -0.019966438 0.07027532 -0.06843284
000100 88 8e f6 3d ea c8 cf bd 70 fc 9c 3d ec fb b4 bc
       0.120389044 -0.10145743 0.07665336 -0.022092782
000110 aa f7 8d bd 0c 8e 93 bd ec d2 0d 3d f0 18 9b bb
       -0.06932004 -0.07204828 0.03462498 -0.0047331974
000120 20 86 d1 3d 00 07 76 3c 4c 4f be bd a8 d9 fe bd
       0.102306604 0.015016317 -0.092924684 -0.124438584
000130 a8 7f 5e bc ec 55 7d 3d 00 9c e6 3b 4a 00 d7 3d
       -0.01358024 0.06184952 0.0070376396 0.10498102
000140 8a b9 71 bd 47 e9 dc bd 48 d9 84 3c 4c b8 d4 3d
       -0.059014834 -0.107866816 0.016216889 0.10386714
000150 00 6e c1 b9 14 0f cd 3d c4 c7 77 bd cc d4 9d bc
       -0.00036893785 0.100126415 -0.060493246 -0.019266509
000160 24 7d b3 bd a4 7e 80 3d 86 e4 d2 bd b0 08 3d 3d
       -0.08764103 0.06274155 -0.10297494 0.046150863
000170 4e 15 f2 3d 64 99 91 bd 78 09 61 bc e8 66 20 bc
       0.1182047 -0.07109335 -0.013735168 -0.00979016
000180 48 66 b6 3c f4 8e c0 3d 04 03 56 3d 1a 33 66 bd
       0.022265568 0.09402266 0.05224897 -0.056201078
000190 5c ae b7 bd c8 bb 3b bc 0a ca c5 bd 2f 7b 00 3e
       -0.08968803 -0.011458345 -0.096576765 0.12546991
0001a0 04 3f 03 be 40 46 9a 3b 8e ed bd bd 4e 2d c6 3d
       -0.12817007 0.0047080815 -0.092738256 0.0967661
0001b0 31 64 ce bd 60 1c f4 bb 66 28 99 3d e0 51 01 bc
       -0.10077704 -0.0074496716 0.074784085 -0.007893056
0001c0 24 b1 8c bd 3a 3c fd 3d de 21 10 bd 16 c5 80 3d
       -0.068697244 0.12365003 -0.03518855 0.06287591
0001d0 9a 90 c8 3d d8 e8 09 3d a8 bb 2a 3d 94 7b d3 3d
       0.097932056 0.033669323 0.04168287 0.10326305
0001e0 20 83 1b 3c 66 17 8a 3d be 02 a9 bd 48 3f 9b bd
       0.009491712 0.06742744 -0.08252476 -0.07580429
0001f0 60 8c 9a 3c 30 18 17 bc 25 74 dc bd 74 48 07 3d
       0.018865764 -0.009222075 -0.1076434 0.03302808
000200 c2 0f a3 3d 2a 68 38 bd ff 58 e8 bd 12 bc 03 be
       0.0796199 -0.045021214 -0.113451 -0.12864712
000210 84 78 e6 bc ac ca e5 bd 08 d2 c1 3d 48 b0 9c 3d
       -0.028133638 -0.11220297 0.094638884 0.076508105
000220 42 c2 d2 bd 72 59 f7 bd 6c 98 74 3d d6 c9 b2 3d
       -0.10290958 -0.12077607 0.059715673 0.087299034
000230 b0 c2 fd 3c fc 88 5e 3d 82 17 80 bd e0 45 b7 bc
       0.030976623 0.054329857 -0.06254484 -0.022372186
000240 7c 0b 0c 3d 00 52 b9 3c c5 1f 01 be 0e 84 31 bd
       0.03419064 0.022622108 -0.12609775 -0.043338828
000250 08 7b 94 3d 54 f6 c8 3d b6 4a 9b 3d ca 21 e2 3d
       0.07250029 0.09812608 0.07582609 0.11041601
000260 64 15 9e bc b0 0b 2d 3d 68 fe 80 3c 60 67 9b bc
       -0.01929731 0.042247474 0.01574631 -0.018970191
000270 f4 3f d6 3d 7c 22 66 3d 08 c4 ea 3c 09 38 fd bd
       0.10461417 0.05618523 0.028657928 -0.123642035
000280 f6 18 a9 3d 20 48 65 3d 98 51 47 3d 42 79 9a 3d
       0.08256714 0.055976987 0.0486618 0.07542659
000290 26 55 b6 3d 4c c8 d2 3d 20 37 ef bc 49 f4 d1 bd
       0.089029595 0.1029211 -0.02920109 -0.10251672
0002a0 a0 c8 45 3d fe 69 5c bd 7a c4 f9 bd d5 21 d9 bd
       0.048287034 -0.05381202 -0.12195678 -0.10602156
0002b0 bc 53 71 bd c5 94 03 3e d8 13 a9 3d 5e 0e a7 bd
       -0.058917746 0.1284972 0.08255738 -0.08157037
0002c0 36 b8 64 bd 9c ed 3c 3d dc 75 e9 3d e6 23 c6 bd
       -0.05583974 0.04612504 0.11399433 -0.09674816

bias f4 [1, 60]
000000 00 00 00 00 00 00 00 00 00 00 00 00 00 00 00 00
       0.0 0.0 0.0 0.0
000010 00 00 00 00 00 00 00 00 00 00 00 00 00 00 00 00
       0.0 0.0 0.0 0.0
000020 00 00 00 00 00 00 00 00 00 00 00 00 00 00 00 00
       0.0 0.0 0.0 0.0
000030 00 00 00 00 00 00 00 00 00 00 00 00 00 00 00 00
       0.0 0.0 0.0 0.0
000040 00 00 00 00 00 00 00 00 00 00 00 00 00 00 00 00
       0.0 0.0 0.0 0.0
000050 00 00 00 00 00 00 00 00 00 00 00 00 00 00 00 00
       0.0 0.0 0.0 0.0
000060 00 00 00 00 00 00 00 00 00 00 00 00 00 00 00 00
       0.0 0.0 0.0 0.0
000070 00 00 00 00 00 00 00 00 00 00 00 00 00 00 00 00
       0.0 0.0 0.0 0.0
000080 00 00 00 00 00 00 00 00 00 00 00 00 00 00 00 00
       0.0 0.0 0.0 0.0
000090 00 00 00 00 00 00 00 00 00 00 00 00 00 00 00 00
       0.0 0.0 0.0 0.0
0000a0 00 00 00 00 00 00 00 00 00 00 00 00 00 00 00 00
       0.0 0.0 0.0 0.0
0000b0 00 00 00 00 00 00 00 00 00 00 00 00 00 00 00 00
       0.0 0.0 0.0 0.0
0000c0 00 00 00 00 00 00 00 00 00 00 00 00 00 00 00 00
       0.0 0.0 0.0 0.0
0000d0 00 00 00 00 00 00 00 00 00 00 00 00 00 00 00 00
       0.0 0.0 0.0 0.0
0000e0 00 00 00 00 00 00 00 00 00 00 00 00 00 00 00 00
       0.0 0.0 0.0 0.0

weight f4 [60, 3]
000000 5c e4 55 be e1 77 f4 be 18 9b ec 3d be 2b c4 3e
       -0.20887893 -0.4774771 0.11553019 0.38314623
000010 07 66 12 3f 0e 79 83 be 37 d1 c8 bd 40 64 85 3e
       0.5718693 -0.25678295 -0.098055296 0.26053047
000020 98 b8 2f 3e 6a 37 2d 3d 4e 26 18 bc e4 bb 52 3e
       0.1716026 0.042289175 -0.009286476 0.20579487
000030 91 af f3 be c8 e5 95 be 25 a7 88 bc 73 97 51 be
       -0.47594884 -0.29276872 -0.016681263 -0.2046793
000040 48 fb a8 bd c2 6d dd 3e de 6b 03 bf 97 51 d9 be
       -0.08251053 0.432478 -0.5133647 -0.4244506
000050 41 16 10 3f 58 d6 65 3d 50 04 8f 3e cf d0 b6 3e
       0.56283957 0.056112617 0.27932978 0.35706183
000060 58 a8 0d bf 44 56 a4 3e 09 32 5e be 52 51 d4 3d
       -0.55335 0.32097065 -0.21698774 0.10367073
000070 92 84 49 be d7 7c d5 be 5d c0 4c 3e fa 9e 8c 3e
       -0.19679478 -0.41696808 0.19995256 0.2746504
000080 bb ba 25 bd e5 1b 0d 3f 8a 70 ac 3e 57 2c d1 be
       -0.040461283 0.5512069 0.3367961 -0.4085414
000090 53 25 a4 be 46 a4 f9 3d 53 ea 86 3a 69 11 07 3e
       -0.32059726 0.12189536 0.0010293223 0.13190235
0000a0 5a 96 88 3e 4d e7 e1 bd b3 54 40 3d 96 b9 b5 3e
       0.2667721 -0.11030445 0.046955775 0.35493153
0000b0 8e 9e 07 3f e9 66 76 3e 3b 2a f1 3e 07 b3 69 3e
       0.5297631 0.24062695 0.47102532 0.228222
0000c0 10 f1 d4 3e ad 86 dd be 44 79 9d bd 11 f1 ee bd
       0.41590166 -0.43266812 -0.07689145 -0.116670735
0000d0 a7 cc 94 3e 4e f6 cd be f9 b1 9d bd da c6 01 bf
       0.29062387 -0.40226978 -0.07699961 -0.5069405
0000e0 60 8b e8 be 40 b4 b4 3e 10 6e cd 3e 0f f6 0f 3f
       -0.45418835 0.3529377 0.40123034 0.5623483
0000f0 fc 0a a1 3c 80 db bd 3e 74 a2 bd be 2f bc 60 be
       0.019658558 0.37081528 -0.37038004 -0.21946786
000100 9e 57 e6 3e 0a c9 0d bf b0 f4 d3 3e 18 40 e4 3c
       0.44988722 -0.55384886 0.4139762 0.027862594
000110 5d e9 0c bf 6f 62 b2 bd 80 de 04 3f ce 3c ae be
       -0.55043584 -0.08710181 0.5190201 -0.34030765
000120 c5 a4 8b 3e 50 31 35 bb b5 50 a0 3e 32 25 f7 be
       0.27274147 -0.00276478 0.31311575 -0.48270565
000130 85 23 cc be 50 59 0a bf 94 95 c2 be c1 77 e3 3e
       -0.3987085 -0.5404253 -0.38004744 0.44427302
000140 ed db b9 3d 40 b9 17 3d c1 34 ea 3d ac cb 6b 3e
       0.09075151 0.037041903 0.11435843 0.23026913
000150 8a 93 d7 3e 26 3d d3 3d c9 d6 ac be 7f 77 13 3f
       0.4210475 0.103143975 -0.33757618 0.5760421
000160 d0 c4 b0 be 4e 91 ee 3e 76 78 ac 3d 72 6b b3 bc
       -0.34525156 0.46595234 0.084214136 -0.02190182
000170 94 71 d2 3e f3 54 a0 be 8e e5 49 3e 28 fc 0d bf
       0.41102278 -0.3131481 0.19716474 -0.55462885
000180 7d e1 12 bf 00 1b 85 3d e3 a2 e5 be 05 1a 37 3d
       -0.5737532 0.064992905 -0.44850835 0.04470255
000190 de 36 64 3e 7e 6a ff bc 68 02 27 bd c0 1c 66 bd
       0.22286555 -0.03117871 -0.04077378 -0.056179762
0001a0 13 b6 c7 3e a4 f0 fe 3e d7 14 04 3e f9 20 cd 3d
       0.390061 0.4979297 0.12898575 0.10016055
0001b0 00 b4 c1 3e 96 65 c7 be d3 df 32 bd cc 3c b4 3e
       0.37832642 -0.3894469 -0.043670487 0.35202634
0001c0 f5 37 ac be a8 91 d8 be 64 25 14 3e d9 3f 58 be
       -0.33636442 -0.42298627 0.14467388 -0.21118106
0001d0 98 29 fc bc 67 ff 05 3f f3 af e1 3e e2 94 b9 be
       -0.030781552 0.5234284 0.4407955 -0.362464
0001e0 b3 a6 99 be 43 a9 f9 be 48 23 5b 3e 6a 65 ad be
       -0.30009994 -0.4876195 0.21400177 -0.33866435
0001f0 59 86 87 3c e4 0b 97 3d 93 dd 9f be 21 d2 8f bd
       0.016543554 0.07375315 -0.31223735 -0.07022501
000200 fd 01 dc 3d 3c 60 a9 be 7a 47 dd be 62 5e c0 be
       0.10742567 -0.33081234 -0.43218595 -0.37572008
000210 8e 6e 45 be c6 dd 9a be 1a 1d fd be 84 f3 0c be
       -0.19280455 -0.30247325 -0.49436265 -0.13764769
000220 1d 46 a7 bb 7c 3c ce 3e ee 3e 07 3f 95 7e 66 bd
       -0.0051047937 0.4028052 0.528304 -0.05627306
000230 53 9a 07 3f d4 77 ff be a4 72 80 be 66 b3 af be
       0.52969855 -0.4989611 -0.25087464 -0.34316558
000240 c1 6c 8b be d3 80 4f bd f5 74 8d be c9 e6 54 3d
       -0.2723141 -0.050659966 -0.27628294 0.051977906
000250 24 f4 14 be 6a 78 ea be 2a d1 9e 3e 66 01 93 3e
       -0.14546257 -0.45794994 0.31018955 0.28712004
000260 5c 09 1e be 9b 5f c7 3e c2 ec 38 be dd 42 db be
       -0.15433258 0.3894013 -0.18059066 -0.4282445
000270 7c b3 01 bf ac 7a e8 3d 54 d3 62 be 3f 5e b8 3e
       -0.50664496 0.11351523 -0.22150928 0.36009404
000280 a9 24 d0 3e b8 50 fa be f3 fe c5 3e 45 97 2b 3e
       0.4065297 -0.4888971 0.38671073 0.16756923
000290 74 7e 99 bd 16 1a bf be f8 7e c5 3e f2 43 61 3e
       -0.07494822 -0.3732459 0.38573432 0.21998575
0002a0 83 e5 be be 91 b5 86 3e 42 4c a0 be 31 3c 4c be
       -0.3728448 0.263104 -0.3130818 -0.19944836
0002b0 f5 4b 38 3e b6 1c 8e 3e e6 c5 ee 3e c0 cd d9 3e
       0.17997725 0.2775628 0.4663536 0.42539787
0002c0 3a 28 9b bc 1d ce eb be cb ac 65 3e 19 d9 24 be
       -0.01894008 -0.4605569 0.22429197 -0.16098441

weight f4 [60, 60]
000000 b8 6d 88 3c 5f 1a 01 3e 1c 8f 99 bd a2 c6 80 bd
       0.01665388 0.12607716 -0.07497999 -0.06287886
000010 76 df 8e 3d 84 b0 a2 bd b0 99 ff bb 20 0d f2 bd
       0.069762155 -0.07943824 -0.0078003034 -0.1181891
000020 44 c8 d1 bc 26 17 71 bd 04 83 38 bd 40 36 de 3c
       -0.02560819 -0.058859967 -0.04504682 0.027125478
000030 bd 09 00 3e 12 be bf bd 90 89 c2 3d 44 7a 5b 3d
       0.12503715 -0.09362425 0.09498894 0.0535834
000040 94 0b e7 bd 90 29 98 3c ab 40 03 3e 54 37 84 bc
       -0.11281505 0.018574506 0.12817638 -0.016139664
000050 a9 eb e6 bd 44 94 17 3d 00 86 d2 3a 26 51 51 bd
       -0.11275417 0.03700663 0.0016061664 -0.05110278
000060 f8 01 7b 3d 70 12 3d 3c 4a e2 a6 bd 4c e9 38 3d
       0.061281174 0.01154004 -0.0814863 0.045144364
000070 20 c9 fb 3c 6c 13 7f 3d 54 59 c0 bd 34 2a 23 3d
       0.030735552 0.06227438 -0.09392038 0.03983517
000080 28 f1 b6 3d 14 11 08 3d 60 66 96 3b 94 a5 ee bd
       0.08932716 0.033219412 0.004589841 -0.11652675
000090 99 08 93 bd 58 3a 75 3d 14 a8 38 3d d0 00 72 bc
       -0.07179374 0.059870094 0.045082167 -0.0147707015
0000a0 96 04 1a bd 9c 22 c8 3d f9 d2 c4 bd 72 34 c6 3d
       -0.03760203 0.09772226 -0.09610552 0.09677972
0000b0 70 80 28 bc 37 48 fc bd c0 8d ea 3d 60 7c f2 3d
       -0.010284528 -0.123184614 0.11452818 0.11840129
0000c0 22 a1 7a bd 04 a0 0d bd 6e 4d e7 bd dc e7 89 bd
       -0.061188824 -0.03457643 -0.112940654 -0.06733677
0000d0 42 c5 ca 3d 00 f7 c6 bd 1c 97 a9 bd 3a 72 18 bd
       0.09900905 -0.0971508 -0.08280775 -0.03721831
0000e0 04 66 cd 3d d0 8d c6 bb 18 0b 0f 3d 76 10 83 3d
       0.100292236 -0.006059386 0.03492269 0.06399624
0000f0 1a 7f a2 3d c4 c3 4e 3d 10 12 d3 3c e8 ef b1 bc
       0.07934399 0.050479665 0.025765449 -0.021720842
000100 08 8b 18 3d 0c 59 61 3d 3c 91 d8 bc c6 b1 22 bd
       0.037241966 0.055016562 -0.02643644 -0.03972032
000110 a0 1b 59 3c c0 1e c0 bc 28 3e 72 3d 06 46 d8 bd
       0.013251215 -0.023452163 0.059141308 -0.10560231
000120 38 97 cb 3d fe d4 c7 bd 06 6e c1 3d dc c9 c4 3d
       0.09940952 -0.09757422 0.094448134 0.09608814
000130 6e ba c5 3d 1c d1 f6 bc 28 c5 ac 3c 70 f7 ec 3c
       0.09654699 -0.030129008 0.021090105 0.028926581
000140 a0 c7 95 3d dd 24 b2 bd 70 c9 26 bc af e3 c6 bd
       0.07313466 -0.08698437 -0.010179862 -0.09711396
000150 7e 1d ed 3d 30 1a e5 3d da 70 f2 3d c0 f1 5f bb
       0.11577891 0.111866355 0.11837931 -0.0034171194
000160 93 b3 97 bd 38 29 00 bd d4 72 9c 3d 38 b0 f8 bd
       -0.07407298 -0.03128931 0.07639089 -0.12142986
000170 f4 3d 96 bd 1a b4 85 3d 5c 6d 09 3d 50 05 bc bb
       -0.07336035 0.06528492 0.03355156 -0.005737938
000180 34 86 de 3d 5a 8d eb bd 46 b5 c3 bd a4 9c a6 bd
       0.10865441 -0.1150157 -0.095560595 -0.081353456
000190 f4 b3 1f bd d4 3f 71 3d fc be 21 bd 71 ed 03 3e
       -0.038989976 0.058898762 -0.039488778 0.12883545
0001a0 7d a8 02 3e fc bb 46 3d 30 4a da bd 00 a4 fd ba
       0.12759586 0.04851912 -0.106586814 -0.0019351244
0001b0 c8 de 70 3d 2a d5 8f 3d 78 cd d5 bd ec f4 b0 3d
       0.05880621 0.0702308 -0.10439581 0.08640465
0001c0 fc c2 d4 bc 00 bd 0e 3d 8e c7 ad 3d d2 01 d1 3d
       -0.025971882 0.034848213 0.08485328 0.10205425
0001d0 20 c2 90 bd 50 f1 c2 bd 80 97 36 bb d0 11 38 3d
       -0.070682764 -0.09518683 -0.0027861297 0.044938862
0001e0 7f d3 d7 bd 31 a5 b5 bd 34 e7 7f 3d 02 e2 08 bd
       -0.105383866 -0.088693984 0.06247635 -0.033418663
0001f0 c0 fe 0b 3d 6c aa a7 3d 02 d5 e1 bd 28 96 2d 3d
       0.034178495 0.08186802 -0.11026956 0.04237953
000200 5e 5f 9e 3d 64 17 28 3d 7c 84 38 3d 98 6c cb 3c
       0.077330336 0.041037932 0.045048222 0.024832055
000210 a7 1b ce bd c0 52 15 3b e2 fd aa bd 84 05 d3 3d
       -0.10063868 0.0022784919 -0.083492056 0.103037864
000220 ea 04 fc 3d 67 ef ac bd 6c 45 6a 3d 16 ed b7 3d
       0.12305625 -0.084441 0.057195112 0.089807674
000230 dc 28 cd 3d b0 f6 5e bc 8e 84 eb 3d 02 c5 f5 3d
       0.10017559 -0.01360862 0.11499892 0.12000467
000240 4c 4c 88 3d 78 1c fe bc 28 cd 67 bd 64 60 eb bc
       0.066551775 -0.031019434 -0.056592137 -0.028732486
000250 60 45 d4 bc fe 62 70 bd a0 e8 e8 3d e4 d4 f6 bd
       -0.025911987 -0.058688156 0.11372495 -0.120523244
000260 2c dc 89 bd 18 e2 00 bd 60 6b ca 3c 8c 63 c1 bd
       -0.067314476 -0.03146562 0.024709404 -0.09442815
000270 9a 8c b7 3d 18 0f fd 3c ac b7 1b 3d a2 36 a3 bd
       0.089623645 0.030890986 0.03801696 -0.07969405
000280 c0 da 1a 3c 1c 93 9e bd 34 d2 df 3d 80 cf f4 3d
       0.009451568 -0.07742903 0.10928765 0.1195364
000290 50 96 71 3d dc 55 03 3d 7c 18 a7 bc 00 b0 0b b8
       0.05898124 0.032064304 -0.020397417 -3.3304095e-05
0002a0 02 d6 30 bd 78 d2 64 3d 92 53 61 bd 4e 64 99 3d
       -0.043172844 0.05586478 -0.05501134 0.07489835
0002b0 3b 6b b0 bd be ae ab bd cc 12 f5 3d 81 1f 03 be
       -0.086142026 -0.08382939 0.11966476 -0.12804987
0002c0 1c 45 be 3d 98 76 02 bd 00 0e bb ba 40 29 85 3b
       0.09290525 -0.03185138 -0.001427114 0.0040637553
0002d0 8f 40 9c bd 02 aa d3 3d 26 a1 7a bd e6 41 fd 3d
       -0.07629501 0.10335161 -0.06118884 0.12366085
0002e0 e0 ab 2f 3c 3e ca b3 bd 08 44 d6 3d bc 89 de 3d
       0.010722131 -0.08778809 0.10462195 0.108661145
0002f0 30 db 63 bc 58 2f 8b 3d 08 97 73 bd 6b 91 f3 bd
       -0.013907239 0.067961395 -0.059470206 -0.11892971
000300 60 90 19 3d fe a9 eb 3d be f3 cc bd bc c7 2a 3d
       0.037491202 0.11507033 -0.10007428 0.041694388
000310 90 6d ba 3d cc 3f cc 3d 48 37 a1 3d 4c 76 7f 3d
       0.09102929 0.09973106 0.07871872 0.062368676
000320 c8 57 69 3d dc fb 18 3d 74 32 0e 3d 16 89 02 be
       0.05696848 0.037349567 0.034716085 -0.12747607
000330 50 7a 56 bd 2c 89 b5 bd c0 46 ea bd 3c 94 50 3d
       -0.05236274 -0.08864054 -0.11439276 0.050922617
000340 50 62 74 bc e2 70 67 bd 6e 32 f1 3d e4 8a e3 3d
       -0.014916018 -0.056504138 0.11777197 0.11110476
000350 59 cb 00 be ba b3 b7 3d f5 71 02 3e a0 54 8b bc
       -0.12577571 0.08969827 0.12738784 -0.017008126
000360 08 01 ad 3d 40 e7 cd 3b ea 08 ae 3d 15 88 8f bd
       0.08447462 0.0062836707 0.08497794 -0.070083775
000370 3c 86 58 3d 8c 5e 15 3d 16 84 64 bd d8 f5 b4 3d
       0.05286239 0.03646712 -0.05579003 0.088359535
000380 c6 15 a3 3d 4a d4 64 bd 00 90 56 b8 96 7f 87 3d
       0.07963137 -0.055866517 -5.1155686e-05 0.06616132
000390 44 32 dc bc 18 6e f1 bc 8d 81 e5 bd 72 95 f6 3d
       -0.026879437 -0.029471442 -0.112063505 0.12040223
0003a0 87 28 fd bd 8e bc 73 bd 00 c2 f8 39 a0 e4 5c bd
       -0.123612456 -0.05950599 0.00047446787 -0.05392897
0003b0 e0 3b 1b 3d 1c 88 06 3d 08 87 28 3d 80 a4 50 3b
       0.037898898 0.032844648 0.0411444 0.003183633
0003c0 60 fa c5 3b 14 8a e3 bd 62 27 fd 3d bc f8 a8 bc
       0.00604181 -0.11110321 0.12361027 -0.020626418
0003d0 e8 d7 36 3d f2 da 8e 3d e4 b0 68 bd 7e 42 94 bd
       0.044639498 0.06975354 -0.05680932 -0.07239245
0003e0 dd f6 d2 bd a0 4d e4 3b 9c 21 4b 3d b0 be 8c bc
       -0.10300992 0.0069672614 0.0495926 -0.01718077
0003f0 7a a2 32 bd bc 25 f5 bd 08 c5 23 3d 68 e9 e8 3c
       -0.04361198 -0.11970088 0.039982826 0.02843161

bias f4 [1, 60]
000000 00 00 00 00 00 00 00 00 00 00 00 00 00 00 00 00
       0.0 0.0 0.0 0.0
000010 00 00 00 00 00 00 00 00 00 00 00 00 00 00 00 00
       0.0 0.0 0.0 0.0
000020 00 00 00 00 00 00 00 00 00 00 00 00 00 00 00 00
       0.0 0.0 0.0 0.0
000030 00 00 00 00 00 00 00 00 00 00 00 00 00 00 00 00
       0.0 0.0 0.0 0.0
000040 00 00 00 00 00 00 00 00 00 00 00 00 00 00 00 00
       0.0 0.0 0.0 0.0
000050 00 00 00 00 00 00 00 00 00 00 00 00 00 00 00 00
       0.0 0.0 0.0 0.0
000060 00 00 00 00 00 00 00 00 00 00 00 00 00 00 00 00
       0.0 0.0 0.0 0.0
000070 00 00 00 00 00 00 00 00 00 00 00 00 00 00 00 00
       0.0 0.0 0.0 0.0
000080 00 00 00 00 00 00 00 00 00 00 00 00 00 00 00 00
       0.0 0.0 0.0 0.0
000090 00 00 00 00 00 00 00 00 00 00 00 00 00 00 00 00
       0.0 0.0 0.0 0.0
0000a0 00 00 00 00 00 00 00 00 00 00 00 00 00 00 00 00
       0.0 0.0 0.0 0.0
0000b0 00 00 00 00 00 00 00 00 00 00 00 00 00 00 00 00
       0.0 0.0 0.0 0.0
0000c0 00 00 00 00 00 00 00 00 00 00 00 00 00 00 00 00
       0.0 0.0 0.0 0.0
0000d0 00 00 00 00 00 00 00 00 00 00 00 00 00 00 00 00
       0.0 0.0 0.0 0.0
0000e0 00 00 00 00 00 00 00 00 00 00 00 00 00 00 00 00
       0.0 0.0 0.0 0.0

weight f4 [60, 60]
000000 76 95 90 bd 06 d5 ce bd 75 4b 84 3d 13 0e 8b 3d
       -0.070597574 -0.10099225 0.06459705 0.06789794
000010 17 76 af 3d 8a 64 68 3c 1a 09 a0 3d 6e 01 a7 3d
       0.08567446 0.014184127 0.07814236 0.081545696
000020 14 98 9a 3c ef 38 82 3b fe 19 e3 3d 32 b3 e5 3d
       0.018871345 0.003974072 0.11088942 0.112158194
000030 23 7b fc bc 6a 35 9c bd df c7 a5 bd 44 ce aa bc
       -0.030820435 -0.076273754 -0.08094763 -0.020850308
000040 3b 4b 91 bc c7 03 d0 3c df 16 3d 3c 5f 3c e0 bc
       -0.017736068 0.025392426 0.011541097 -0.027372537
000050 1e 75 23 bc d4 c0 0d 3d 39 31 d3 bd 4c 3b b4 3d
       -0.009976653 0.034607723 -0.10312123 0.088003725
000060 64 af 8c 3d 3f 17 ea 3d 74 13 fe bc 38 ba 02 3e
       0.068693906 0.11430215 -0.031015135 0.1276635
000070 9f 5f 06 3e 55 0e 81 3d 7c 18 87 3d 32 67 27 3d
       0.13122414 0.06301562 0.06596467 0.0408699
000080 1d 88 9d 3d 12 8f 22 bc 51 c6 a9 bd 0c 5d 2d 3d
       0.07691977 -0.009921806 -0.08289779 0.042325065
000090 46 76 a9 3d 94 71 d7 bc 6b 18 7b 3d 86 1b d4 bd
       0.08274512 -0.026299275 0.061302584 -0.10356812
0000a0 3b 0a 00 be e9 db c0 bd 68 31 3a bd 84 f2 81 3d
       -0.12503903 -0.094169445 -0.045457274 0.06345084
0000b0 0a 9c 6c 3d 4f f8 01 3d 51 20 01 3e d5 b2 3e bd
       0.057765998 0.031730946 0.12609984 -0.046557266
0000c0 6d 6e 10 bd bd 33 fa bd 6d 7b dd 3d ac 24 15 3a
       -0.03526156 -0.122168995 0.10814557 0.00056893635
0000d0 24 0f a8 bd a2 7c 5a bd 43 83 0d 3e 9b 5d 8b 3d
       -0.08206013 -0.053341515 0.13819604 0.06804963
0000e0 4d f7 c0 bb c1 24 af 3d 04 2c 5c 3d 78 ee 85 bc
       -0.0058888556 0.08551932 0.053752914 -0.016349062
0000f0 b7 b4 e5 3b 6d 18 fc 3d 31 58 36 3d d4 30 8a 3d
       0.0070100683 0.12309346 0.0445177 0.067475945
000100 a7 12 c1 bd e4 3b c4 bd ed 8d c4 3c 87 ca b9 bd
       -0.09427386 -0.09581736 0.023993457 -0.09071832
000110 1e 17 24 bc 3a 5a e2 bd 9b 3e e6 bc 54 d2 e0 bd
       -0.010015277 -0.110523656 -0.028106024 -0.10977617
000120 a8 94 86 3c ac 75 cf bd f3 53 1d bd 46 3d fc 3d
       0.016428307 -0.10129866 -0.03841014 0.123163745
000130 0f 13 b7 bd 51 65 97 bd 4f d0 c9 bb bd 1d 9d bd
       -0.08939182 -0.073923714 -0.0061588655 -0.07671688
000140 e4 ce 0d bd eb 56 3b bd d0 dd 72 3d 28 c1 99 bd
       -0.034621134 -0.04573719 0.059293568 -0.07507545
000150 e2 7a e3 3d 91 6e ea 3d cd 77 22 3d 78 79 9f bd
       0.111074224 0.1144687 0.039665032 -0.0778684
000160 7f f0 1a bc 97 98 8c bd 2c 6e ec 3d 81 6d db bc
       -0.009456753 -0.06865042 0.11544451 -0.026785614
000170 67 e2 b1 bd 5a 5f 37 bd ff 0b 05 bd 4a 44 6f bd
       -0.08685761 -0.04476867 -0.032482143 -0.058414735
000180 df fa 02 be a5 1b bb bd 98 ce 11 bc 26 00 86 3d
       -0.12791012 -0.09136132 -0.008899353 0.06542997
000190 a6 9a 02 be 52 e6 16 3c 38 74 b0 bd 09 ac 51 bd
       -0.12754306 0.009210186 -0.08615917 -0.051189456
0001a0 c2 b1 d2 bc 1a 94 a5 bd db bf 67 bd 6d 3c 30 bd
       -0.025719527 -0.08084889 -0.056579452 -0.043026377
0001b0 e8 03 03 3d c0 2f 15 3d 94 15 95 3d 9b eb 29 bd
       0.031986147 0.03642249 0.07279506 -0.041484457
0001c0 ef 29 61 bd 64 9e 97 bd 72 9c fe bd 25 e6 e5 3d
       -0.05497163 -0.074032575 -0.12432183 0.11225537
0001d0 d8 e1 b1 3b c1 df 8c bd a7 45 23 3d 12 ce 09 3d
       0.005428534 -0.06878615 0.039861348 0.03364379
0001e0 62 e0 48 bd 6f 50 ce 3d 0b ad 97 bd 7b c9 9a 3c
       -0.049042113 0.10073935 -0.07406052 0.018894901
0001f0 fb 89 56 bd 9f 21 e4 bd 0f 08 a5 bd 98 a9 37 3d
       -0.052377682 -0.11139225 -0.08058178 0.04483947
000200 c1 93 5e bd a7 02 99 3d c1 56 e0 3d 93 4d 51 bd
       -0.054340128 0.07471209 0.10954047 -0.05109937
000210 c5 5f 96 bd 27 01 3b 3d c0 bb f0 bc 93 cc b0 bd
       -0.07342485 0.045655396 -0.029386401 -0.086327694
000220 8d 28 7d 3d 2b ee f2 3d 1d 0c 6f bd 67 a6 ce 3d
       0.06180625 0.11861833 -0.05836116 0.100903325
000230 1b 63 78 bd c3 0d 06 be 38 fa 83 bd a3 e3 7d bd
       -0.06064139 -0.13091187 -0.0644421 -0.06198467
000240 df 7b e6 3d c5 3c d5 bd a9 7a 04 3c 5c 6c cb 3d
       0.11254095 -0.104119815 0.008085885 0.09932777
000250 83 06 eb bc 58 da ce 3b bd 1a e4 3c 27 46 df bd
       -0.028689628 0.0063126497 0.027844781 -0.109020524
000260 68 9e 3a 3d 20 25 e5 3d 86 a8 d6 3c 96 79 01 bd
       0.045561224 0.11188722 0.026203405 -0.031610094
000270 73 71 62 bc d9 f4 88 bd 2c a1 e9 bd e9 1f f7 3d
       -0.013820994 -0.06687326 -0.11407694 0.12066633
000280 31 7f e5 3d 97 57 8e bd 4f 5c 36 bd 93 97 b4 bd
       0.112059005 -0.069503 -0.044521626 -0.08817973
000290 1b cb 66 3d 4a 24 ad 3d 2f a1 b2 bd 03 06 fb 3c
       0.05634604 0.08454187 -0.087221496 0.030642515
0002a0 41 19 63 3c 15 3d f9 3d de 5f be 3d ef 7c b2 3d
       0.0138610015 0.121698536 0.09295629 0.087152354
0002b0 c7 4d 3c bd 13 6f eb bd a6 a8 98 3d f0 32 bb 3d
       -0.04597261 -0.11495795 0.07454042 0.09140575
0002c0 ce 08 fe 3c de a4 db bd 2c da 36 3c 19 83 10 3a
       0.031010058 -0.10724805 0.011160415 0.0005512699
0002d0 fd 4e 3b bd 65 44 5f 3d ef 93 de 3d 7e f0 a5 bd
       -0.045729626 0.054508585 0.1086806 -0.08102511
0002e0 62 6c 1e 3d fe 6f d1 bd 80 3e 2a 3d 3b e4 71 bc
       0.03867758 -0.10226439 0.04156351 -0.014763887
0002f0 c8 df cd 3d 31 f1 2b 3d e4 36 8e 3d 50 3c 95 3c
       0.100524485 0.041978065 0.06944063 0.018217236
000300 2f d8 9d 3d f5 8b a9 3d 7c 49 76 bd e5 32 35 bc
       0.077072494 0.08278648 -0.060128674 -0.0110594975
000310 ff 8e 84 3d 11 da 5c 3d d4 88 2a bd 8b 0e ae bd
       0.06472587 0.0539189 -0.041634396 -0.084988676
000320 3c 39 83 3d ec 72 e5 bd 84 82 89 bd d0 e5 92 3c
       0.06407401 -0.1120356 -0.06714347 0.017931849
000330 22 cd 91 bd 01 26 d9 bd bc fb 24 3d 5a ce 92 bc
       -0.07119204 -0.10602952 0.040279135 -0.017920662
000340 e8 de e4 39 e7 65 7d 3d 0c 2e ac 3b 80 76 9a 3d
       0.00043653627 0.06186476 0.0052545127 0.07542133
000350 c3 ce a1 bd 47 35 f4 bd 1c 91 b0 bc f0 45 82 bd
       -0.07900765 -0.11924224 -0.021553569 -0.06360996
000360 4a 9d df 3b 27 83 92 3c ba 65 f7 3c 67 37 b1 3d
       0.0068241702 0.017884804 0.030199874 0.08653145
000370 ac 34 bc bd a1 2f ca 3c 2f 4d ab 3d c2 4e c1 bd
       -0.09189734 0.024680914 0.08364331 -0.0943885
000380 8d 3f 38 3d 17 ab b1 bd 07 8e 03 be 56 df cc bd
       0.04498248 -0.08675211 -0.12847148 -0.100035354
000390 54 01 98 bd 50 f2 db 3c bd d4 78 bd 95 65 f8 bc
       -0.07422128 0.026848942 -0.060749758 -0.030321876
0003a0 a8 ef 1d 3c 5f f8 a7 3d 76 22 81 bd 3e 31 0d 3d
       0.009639658 0.0820167 -0.06305401 0.03447079
0003b0 e8 78 b9 3d 39 ec ee bd 64 d1 a1 bd ad c9 ba 3d
       0.09056264 -0.1166615 -0.07901266 0.09120498
0003c0 ee 7c 88 3c 0a ff 5a 3c 40 3f c4 bd 22 f8 50 3d
       0.016661134 0.01336647 -0.095823765 0.051017888
0003d0 86 f2 b1 3d cf d5 b8 bd 98 ac 07 3e dc 2a c8 3d
       0.08688836 -0.09025156 0.13249433 0.097738
0003e0 29 aa b2 3c 6e ce 8b 3d b6 8d 86 bc 46 c0 87 bd
       0.021809654 0.06826483 -0.016424995 -0.0662847
0003f0 b3 8d e7 3d 0d d6 f9 bd 2c 83 30 3d bc 83 af 3d
       0.11306324 -0.1219903 0.043093845 0.08570048

weight f4 [60, 60]
000000 dc e9 05 3d 2c 62 f8 bd 94 a2 9a 3d ae 02 64 bd
       0.03269373 -0.121281 0.075505406 -0.055666618
000010 d2 36 f9 3d 08 0d d8 3d 40 d0 3d bc 98 57 40 bd
       0.12168659 0.105493605 -0.011585295 -0.046958536
000020 fa 8e ff 3d 30 a2 e0 bb dd 9d 02 3e d3 a9 03 3e
       0.124784425 -0.0068552718 0.12755533 0.12857752
000030 a8 b7 91 3d b0 53 3f 3d 30 20 0c 3d 9c 44 c2 3d
       0.07115108 0.04671067 0.034210384 0.094857424
000040 7c c5 6b 3d 30 d5 62 bd 00 21 2d 3a d0 f9 6f bd
       0.057561383 -0.055379093 0.00066043437 -0.05858785
000050 20 dd cc bd 3a de fc 3d 58 74 2d 3d 14 17 8c bc
       -0.10003114 0.12347074 0.042347282 -0.017100848
000060 78 08 a4 3d f8 2a b1 3d 6a e1 97 3d e2 cb 84 3d
       0.08009428 0.08650774 0.07416041 0.064842
000070 e6 b1 98 bd 78 39 81 3d be 05 25 bd 9a ec f1 3d
       -0.074558064 0.063097894 -0.04028868 0.11812706
000080 68 f5 84 3c e8 50 a6 bc 98 86 1a bc 81 d6 d7 bd
       0.0162303 -0.020302251 -0.009431504 -0.1053896
000090 f1 80 c1 bd be 16 78 bd 6d 3a f4 bd be 1f e7 bd
       -0.09448422 -0.060568564 -0.11925206 -0.11285351
0000a0 3d 7a c9 bd d5 ff 9b bd ec 0c 96 3d 00 76 6a 3d
       -0.09837768 -0.076171555 0.073266834 0.05724144
0000b0 e8 e5 80 3d 48 cf 2c bd 86 d0 e4 bd 20 04 c7 3b
       0.06293851 -0.042189866 -0.11172585 0.00607349
0000c0 f6 d7 24 bd c0 bd 36 3c 00 e0 f1 3a 78 a3 4e bc
       -0.04024502 0.011153638 0.0018453598 -0.012612216
0000d0 a0 21 d0 3c 00 96 b7 39 ae 97 ea 3d bc 73 f0 3d
       0.025406659 0.0003501624 0.11454712 0.117408246
0000e0 12 65 a1 3d c0 49 c3 3c b8 da eb 3c ce 21 ee 3d
       0.07880606 0.023838878 0.028790817 0.116275415
0000f0 82 4d 98 bd 5a c9 51 bd 40 a8 83 3d de 1b d3 bd
       -0.074366584 -0.051217414 0.064285755 -0.103080496
000100 ce 53 f5 3d aa c7 9c bd 92 59 fc bd 19 9a 81 bd
       0.11978875 -0.076552704 -0.12321772 -0.0632822
000110 e8 a0 3a 3d c4 77 71 3d 00 2b bc 3b 95 10 e3 bd
       0.04556361 0.058952108 0.0057424307 -0.11087147
000120 50 ca 11 bd 78 13 0d bd 1c 2f 21 3d 70 29 91 bd
       -0.03559333 -0.034442395 0.039351568 -0.07087982
000130 4e ff eb bd 4c 73 ae 3d 48 ed 9a 3c b0 85 bf 3d
       -0.11523305 0.08518085 0.018911973 0.09351671
000140 6c 4a 30 3d 98 db e3 3c 64 da cf 3d b0 f9 da bd
       0.043039724 0.027814671 0.101490766 -0.10692155
000150 78 59 a4 3d 80 05 51 3b 69 ac e4 bd bc e4 c5 bd
       0.08024877 0.0031894147 -0.11165697 -0.09662768
000160 48 26 3a bd 56 b8 ae bd 6e eb 0e bd 02 1b 8b 3d
       -0.045446664 -0.08531253 -0.034892492 0.06792261
000170 80 32 7e bc 7e cf d1 bd 88 7c d3 3d bc 63 e4 bd
       -0.01551497 -0.10244654 0.10326487 -0.11151835
000180 f6 ca d0 3d 94 2c 55 bd b6 4e 2f bd 80 b5 55 3d
       0.10194962 -0.052044466 -0.042799674 0.052175045
000190 82 05 8b bd 56 89 18 bd d8 22 40 3d da a8 e8 bd
       -0.0678816 -0.03724035 0.04690823 -0.11360331
0001a0 98 eb e6 bd 38 94 87 3d d4 f3 48 3d ee b6 8d bd
       -0.11275405 0.06620067 0.049060658 -0.06919657
0001b0 84 8e a1 3d e8 81 92 3d b2 4a ed bd 82 25 9b 3d
       0.07888511 0.07153684 -0.115865126 0.075755134
0001c0 bc 4c fb bc fd b1 d0 bd d8 d5 ea 3c bc 3b be bc
       -0.030676238 -0.101901986 0.028666422 -0.023221843
0001d0 9a 83 35 bd 38 e4 b7 bd 70 07 d0 3d e8 24 dc bc
       -0.04431496 -0.08979076 0.101576686 -0.026873067
0001e0 f8 67 e8 3d 60 a1 03 3d 4c da 23 bd 0c 14 b2 3d
       0.113479555 0.03213632 -0.040003106 0.0869523
0001f0 e6 38 a9 3d b0 33 4d 3c 66 25 c8 bd 3a 64 96 3d
       0.08262806 0.01252453 -0.09772758 0.073433354
000200 07 5e ce bd 00 ae 28 3c a8 79 94 3c 52 ee ce bd
       -0.10076528 0.010295391 0.018124416 -0.1010405
000210 70 75 c6 3c f0 f8 ff bc b8 97 e0 bd 28 49 9e bc
       0.02422592 -0.031246632 -0.10966438 -0.019321993
000220 ee 2d 8d 3d 18 7a b0 bc d0 42 bf 3d 68 2a a1 bc
       0.06893526 -0.021542594 0.09338915 -0.019673541
000230 d5 49 da bd 24 3a 80 3d 28 34 25 bd 9a 85 d4 bd
       -0.106586136 0.062610894 -0.040332943 -0.10377045
000240 ec d9 4f 3d ba 12 af 3d f0 d2 b9 bb 12 a8 f2 3d
       0.050744936 0.08548494 -0.0056708977 0.11848463
000250 04 b8 5c bd 8c 2d 1f bd ac 27 00 bd 20 7d a9 3d
       -0.05388643 -0.038861796 -0.031287834 0.08275819
000260 00 0d 75 3d 70 47 dd 3d f8 b0 03 3d 8e 9e a4 3d
       0.05982685 0.10804641 0.032151192 0.080380544
000270 20 48 18 3d 90 8a 04 3c 94 ea 2d 3d d8 c0 ed 3c
       0.03717816 0.0080896765 0.04246004 0.02902262
000280 75 b6 af bd bf 77 03 3e 32 3d 9d 3d f8 8c 02 3d
       -0.08579723 0.12838648 0.07677688 0.03187272
000290 d9 fc 01 3e b6 8a 91 bd e0 e1 fa 3c 7a 30 8e 3d
       0.1269411 -0.07106535 0.030625284 0.0694284
0002a0 80 b9 5f 3d 2c 85 5d bd 22 21 c9 3d 8a 85 9c bd
       0.054620266 -0.05408208 0.09820773 -0.07642658
0002b0 d2 af f9 bd 30 59 04 bc ec 12 b5 bd 58 81 40 bd
       -0.12191738 -0.008077905 -0.088415 -0.04699835
0002c0 7a 45 c9 3d a6 46 fe 3d 9c 10 33 3d 6c b7 a5 3d
       0.09827705 0.12415819 0.04371701 0.080916256
0002d0 8e c3 d2 bd a0 0d e1 bb a5 0d 01 3e 18 8c e4 3c
       -0.10291205 -0.0068680793 0.12602861 0.027898833
0002e0 f3 1c d7 bd ac 25 f2 bd 18 37 a7 bd 98 61 9c 3d
       -0.105035685 -0.118235916 -0.08164805 0.07635802
0002f0 a4 ee 10 3d 98 2d ad bc 22 99 59 bd 4a 5b 9c 3d
       0.035383835 -0.021139905 -0.053124554 0.076345995
000300 18 ec c2 bc ba 66 05 bd 18 ae ff bd a1 33 cd bd
       -0.023794219 -0.03256867 -0.124843776 -0.10019613
000310 f3 94 fe bd d8 71 a4 3d 8c 83 4e bd 70 1e 31 bd
       -0.124307536 0.080295265 -0.05041842 -0.043241918
000320 b0 91 20 3c 64 8e 99 bc 10 e4 f8 bc 00 d5 fd 3a
       0.00980036 -0.018744655 -0.030382186 0.0019365847
000330 32 39 2a bd 6c b5 d9 bc cc 16 d9 bc 0f 81 98 bd
       -0.041558452 -0.026575767 -0.026500128 -0.07446491
000340 43 b1 02 3e 70 02 85 bd 6a a4 4e bd 98 e8 3f bc
       0.12762932 -0.064946055 -0.050449766 -0.0117131695
000350 56 4f 70 bd f0 6d 5d bc dc 2f a8 bc e8 11 61 bd
       -0.05866941 -0.013514981 -0.020530634 -0.054948717
000360 da c7 6f bd c0 dd 77 bb 4e 9c c0 3d 68 9f 15 3d
       -0.058540203 -0.0037821382 0.09404813 0.036528975
000370 30 37 f1 3c da dd 4b bd 5c a3 7e bd 16 46 00 bd
       0.02944526 -0.04977212 -0.06216751 -0.03131684
000380 60 79 93 3c f0 30 94 3d 76 52 88 bd 36 51 a5 3d
       0.018002212 0.072358966 -0.06656353 0.080721304
000390 78 64 e0 bd 54 97 0d bd 14 84 db 3d 00 7c 07 3b
       -0.10956663 -0.034568146 0.10718551 0.0020673275
0003a0 b4 ea ef bc 2a ab 9e bd 92 d0 cd 3d 58 80 e6 bd
       -0.02928672 -0.07747491 0.10049547 -0.112549484
0003b0 9c 4c d9 3d e8 81 07 bd e8 f1 b1 3c 84 49 a9 bc
       0.10610315 -0.033082873 0.021721795 -0.020664938
0003c0 da f8 8e bd 70 2e 92 bd 00 b0 eb 3c b0 96 03 3d
       -0.069810584 -0.071377635 0.028770447 0.03212613
0003d0 f8 24 bd bc 0e 0c 8a bd ac af ad 3d 8e df ec 3d
       -0.023088917 -0.067405805 0.084807724 0.11566077
0003e0 ea b5 8b bd ca 25 3c bd d4 e2 d7 bd 69 3b 96 bd
       -0.06821807 -0.045934476 -0.10541311 -0.0733555
0003f0 24 dd 4c 3d 78 53 54 3d 84 60 1d bd 54 64 06 3d
       0.050015584 0.051837415 -0.038422123 0.032810524

bias f4 [1, 60]
000000 00 00 00 00 00 00 00 00 00 00 00 00 00 00 00 00
       0.0 0.0 0.0 0.0
000010 00 00 00 00 00 00 00 00 00 00 00 00 00 00 00 00
       0.0 0.0 0.0 0.0
000020 00 00 00 00 00 00 00 00 00 00 00 00 00 00 00 00
       0.0 0.0 0.0 0.0
000030 00 00 00 00 00 00 00 00 00 00 00 00 00 00 00 00
       0.0 0.0 0.0 0.0
000040 00 00 00 00 00 00 00 00 00 00 00 00 00 00 00 00
       0.0 0.0 0.0 0.0
000050 00 00 00 00 00 00 00 00 00 00 00 00 00 00 00 00
       0.0 0.0 0.0 0.0
000060 00 00 00 00 00 00 00 00 00 00 00 00 00 00 00 00
       0.0 0.0 0.0 0.0
000070 00 00 00 00 00 00 00 00 00 00 00 00 00 00 00 00
       0.0 0.0 0.0 0.0
000080 00 00 00 00 00 00 00 00 00 00 00 00 00 00 00 00
       0.0 0.0 0.0 0.0
000090 00 00 00 00 00 00 00 00 00 00 00 00 00 00 00 00
       0.0 0.0 0.0 0.0
0000a0 00 00 00 00 00 00 00 00 00 00 00 00 00 00 00 00
       0.0 0.0 0.0 0.0
0000b0 00 00 00 00 00 00 00 00 00 00 00 00 00 00 00 00
       0.0 0.0 0.0 0.0
0000c0 00 00 00 00 00 00 00 00 00 00 00 00 00 00 00 00
       0.0 0.0 0.0 0.0
0000d0 00 00 00 00 00 00 00 00 00 00 00 00 00 00 00 00
       0.0 0.0 0.0 0.0
0000e0 00 00 00 00 00 00 00 00 00 00 00 00 00 00 00 00
       0.0 0.0 0.0 0.0

weight f4 [60, 60]
000000 50 38 b2 bc 80 70 ce 36 5a ce 01 bd 62 f9 b3 bd
       -0.021755368 6.152375e-06 -0.031690933 -0.087878
000010 1b 13 9f 3c e8 66 cb bd be 9e 0f ba c7 80 eb bd
       0.01941829 -0.09931737 -0.00054786715 -0.11499172
000020 0d 2a a2 bd ab a0 d2 3d bb 91 f4 bd cd bd 83 3d
       -0.07918177 0.10284551 -0.119418584 0.06432686
000030 2c 65 b5 3d 52 14 c1 3d 68 b9 4d bd b9 e1 02 3d
       0.08857188 0.09427704 -0.050225645 0.031953547
000040 db dc 99 bc fe ca fa bd dc 73 9b 3d f4 c0 95 ba
       -0.01878207 -0.12245749 0.07590458 -0.0011425302
000050 a8 29 f8 3c 2c 49 65 3d f5 f3 59 3d 0c af ac bd
       0.0302933 0.055977985 0.05321117 -0.08431825
000060 0c 3a 9b bd af 0b 3d bd 40 20 7e 3c 96 e5 6a 3d
       -0.07579431 -0.04615372 0.015510619 0.057347856
000070 28 ba 04 be cb 9e c5 ba 42 9b f1 3c cd 2d ed 3d
       -0.12961638 -0.0015077231 0.029492978 0.115810014
000080 7c 5c 87 3d 65 76 81 bd b5 d7 ac bd f9 2e 8d 3d
       0.06609437 -0.0632141 -0.0843958 0.06893725
000090 bd 10 90 3c 57 2e a3 bc da 73 26 3d 08 cd e7 3d
       0.017586106 -0.019919557 0.04063783 0.113184035
0000a0 21 88 b5 3d 72 12 6e bd 15 a2 8a 3d f4 b3 e6 3d
       0.08863855 -0.05812306 0.06769196 0.11264792
0000b0 82 dc e7 3d ad f3 6e 3c b1 d6 9b 3d 2f 6c a9 bd
       0.113213554 0.014584464 0.076093085 -0.082725875
0000c0 7c f1 2a 3d ac 30 59 bd 88 74 f8 3c 4c 63 56 3b
       0.041734204 -0.053024933 0.030329004 0.0032712994
0000d0 2a 80 a4 bc 7a bf ee 3c 8b 07 0b be 48 c6 36 bd
       -0.020080645 0.029144038 -0.13577096 -0.04462269
0000e0 85 46 4a bd d2 45 03 bd 0f 7a a8 bd ad 52 b9 3b
       -0.04938366 -0.032049008 -0.08226406 0.0056556077
0000f0 93 12 15 3d b1 23 68 3d da 2b bb bd fc e9 fb bd
       0.036394667 0.056674663 -0.091392234 -0.12300488
000100 6c 80 ee bd 14 2b c7 3d 06 f8 73 bd 67 3f cc 3d
       -0.11645588 0.097250134 -0.059562705 0.099730305
000110 e2 25 90 3d 39 31 f8 bd 36 57 09 3e 5f fb 5a bd
       0.070384756 -0.121187635 0.13412175 -0.053462382
000120 dd 8f 82 3d 63 09 19 bd 17 c7 43 bd d7 54 f4 3c
       0.06375096 -0.037362467 -0.04779729 0.029825611
000130 e6 2f b9 bd d1 fe ff bc da 02 96 3c f5 a1 1f bd
       -0.09042339 -0.031249436 0.018311907 -0.038972814
000140 6c 87 01 3e 37 42 d4 bd 01 1f 52 3c ea 98 8d 3d
       0.12649316 -0.10364192 0.012824775 0.06913932
000150 7d 3b c5 bc 66 e0 0c bd 6d 67 dc bd 73 dd 39 3d
       -0.024076218 -0.03439369 -0.107619144 0.045377206
000160 cf a7 6e bd 21 2c 9d 3c d4 5a 0c bb 50 36 42 3d
       -0.058265503 0.019186081 -0.0021416442 0.047415078
000170 03 cf 66 bc 77 43 20 bd 6d da 77 bd 63 33 84 3d
       -0.014087441 -0.03912684 -0.06051104 0.06455114
000180 70 7b e4 bd a9 4c 0f bb 85 21 03 be 59 4a d5 bd
       -0.11156356 -0.0021865761 -0.12805755 -0.10414571
000190 33 59 d1 bd 0d 56 ac 3d 8d 2a 0c 3c 71 9e 7a bc
       -0.102220915 0.084148504 0.008555067 -0.015296564
0001a0 db a7 d6 3d 95 97 cc bd c2 c3 28 ba 89 79 88 bd
       0.10481235 -0.099898495 -0.00064378616 -0.06663806
0001b0 51 6c fb 3d 84 c8 78 bc 5f 35 61 3d 3e 40 db 3c
       0.12276519 -0.015184525 0.05498254 0.026764031
0001c0 2f ab 3c 3c a7 88 10 bc 35 61 bf bc cd 6d cc 3d
       0.011515423 -0.008821643 -0.023361782 0.0998188
0001d0 c9 f0 28 3b 7b a7 b3 3d 28 4c e8 3c 33 31 b2 bd
       0.0025778285 0.08772179 0.028356627 -0.0870079
0001e0 19 1f fe bd 75 95 c4 bc b6 2e fe bd f8 62 05 bd
       -0.12408275 -0.023997048 -0.12411253 -0.032565087
0001f0 bf 4b 2e bd 5a 3d 42 3d 3c 50 a1 3c f1 6a 40 3d
       -0.042552706 0.04742179 0.019691579 0.046976987
000200 0e 9b 8b 3b fa 08 09 3e be 6f 2c 3d 4a cf 90 bd
       0.0042604273 0.1338233 0.042098753 -0.07070787
000210 a7 41 df 3c 9b b2 90 3d 9f fe f0 3d 39 91 c8 bd
       0.027252985 0.07065316 0.11767315 -0.09793324
000220 b3 12 eb 3c a7 5a c9 bd 76 f3 90 bd b6 b2 d4 3d
       0.02869544 -0.09831744 -0.070776865 0.10385649
000230 ea d9 f3 bd ec 12 42 3d 46 29 ce bd 7a 05 70 bd
       -0.11906798 0.047381327 -0.10066466 -0.058598973
000240 81 9e 8f bd 1a 68 9b 3d a6 8a 85 bd 49 4f 0d be
       -0.07012654 0.07588215 -0.06520586 -0.13799776
000250 a0 3f 70 3d 20 89 ee bd 57 33 8e 3d a7 06 e8 bd
       0.058654428 -0.11647248 0.06943386 -0.11329394
000260 64 1b d1 3d 59 53 7a bd 7e e5 ed 3d fc 55 bb 3d
       0.102103025 -0.061114643 0.11616038 0.091472596
000270 a4 4f 09 be b7 4c b4 bd 90 01 4a 39 ca 4f de bd
       -0.13409287 -0.08803695 0.00019264803 -0.10855062
000280 6f 8d bc 3c 35 3a 5f bd a0 08 57 bd e5 06 e5 3d
       0.02301666 -0.05449887 -0.05249846 0.11182956
000290 23 ba 8a 3b f6 08 14 bc 84 33 fa 3c fc d5 49 bd
       0.004233615 -0.00903534 0.030542143 -0.049276337
0002a0 74 3e 85 3d 6a 22 dd bd d2 2b a8 3d 76 94 b1 3d
       0.065060526 -0.107975796 0.08211483 0.08670895
0002b0 73 07 3e bd 7f fc fc bd 2a a6 cd bd 10 63 35 bd
       -0.046393823 -0.12352847 -0.10041459 -0.044283926
0002c0 f3 2a ed bc 62 26 ec 3d b2 13 fa bd 2d 29 48 3d
       -0.028951144 0.115307584 -0.12210788 0.048867393
0002d0 82 b2 c2 3d 46 95 e0 bd 4d 04 1b 3d 14 55 b5 bd
       0.09506704 -0.10965972 0.0378459 -0.08854118
0002e0 f9 89 95 bd 82 04 b3 bc f6 8d b4 bd 23 42 c0 3c
       -0.07301707 -0.021852735 -0.088161394 0.023469036
0002f0 3f ef a8 3d 7d 68 6a bd 10 e0 6f 3d fb 64 ae bd
       0.082487576 -0.057228554 0.058563292 -0.08515354
000300 3d dd 9c bb d3 e2 64 3d cd 05 c5 3d 88 52 26 3d
       -0.004787116 0.05588038 0.09620247 0.04060605
000310 5d 53 1b bc 31 d4 e0 bd 04 1f b5 bd fc b2 34 3c
       -0.009480325 -0.10977972 -0.088438064 0.011029001
000320 a9 0e e0 bc b7 72 be 3d d3 f9 ad 3d ee f3 5d bd
       -0.02735074 0.09299224 0.08494916 -0.054187708
000330 ee 57 a8 bd 2e 1f e0 3d a9 27 6d 3d ea 5e 84 bd
       -0.08219896 0.10943447 0.05789915 -0.06463416
000340 fa a6 05 be ea ab e5 bd 1f 9f 27 bd 7f 54 0c be
       -0.13051978 -0.11214431 -0.040923234 -0.13704108
000350 b2 c1 da bd c8 04 c0 3d af b5 ca 3d 29 16 b6 3d
       -0.10681476 0.09375912 0.09897935 0.088909455
000360 b6 44 53 3c 08 61 b8 bb 53 69 91 3d a5 c7 e5 bc
       0.0128948 -0.0056268014 0.07100167 -0.0280493
000370 37 3f 34 bd eb 07 fe bc 49 9b d1 3d 76 00 ae 3d
       -0.0440056 -0.031009635 0.102346964 0.08496182
000380 89 02 e0 bd 6b 19 89 bd 4f 9d c4 3d fa 40 08 be
       -0.109379835 -0.06694301 0.09600317 -0.13306037
000390 ba 8a 0b bd 56 91 e6 bd c8 6d 95 bd 0d b3 9b bd
       -0.034067847 -0.112581894 -0.0729633 -0.076025106
0003a0 fe 91 b5 3c 71 bc c9 3d 09 19 b9 3d 5d 31 01 3e
       0.022164341 0.098503955 0.09037978 0.12616487
0003b0 1b 5b a4 bd cf bd d9 bd ad bc b8 bd b6 d3 2c 3d
       -0.080251895 -0.10631906 -0.09020362 0.04219409
0003c0 ca cb e0 3d 17 ea ee bd 5a da bd 3c 54 32 d2 bd
       0.1097637 -0.11665743 0.023175407 -0.102635056
0003d0 41 15 82 bd 3f 9a 41 3d ce 9d b4 bd 5d 32 af 3d
       -0.0635171 0.04726624 -0.08819161 0.08554528
0003e0 07 f6 d2 bd 27 e0 77 3d fa 7d ee 3d b6 ec 94 bd
       -0.10300832 0.060516503 0.11645122 -0.072717115
0003f0 87 73 3a bd 76 fd 86 3d be a4 61 3d 1d 54 91 bd
       -0.04552033 0.065913126 0.05508875 -0.070961215

weight f4 [60, 60]
000000 9d 22 d3 bd 80 c3 8c 3b 1e b6 fb 3d e9 1b 01 3e
       -0.10309336 0.0042957664 0.122905955 0.12608303
000010 f8 45 c3 bd 70 8a 6e 3d 2a 65 35 bd 24 78 c5 3d
       -0.0953483 0.058237493 -0.04428593 0.09642056
000020 16 73 90 3d ce 1f f6 3d 9e 8c 95 bd 6c 4a 32 3d
       0.07053201 0.12017785 -0.07302211 0.043528005
000030 51 51 f6 bd 68 85 44 bd e4 58 db 3d 98 52 9a 3c
       -0.120272286 -0.04797879 0.10710314 0.018838212
000040 52 bf 14 bd 2e 96 c8 3d b0 a2 8a 3c e0 ea 87 bc
       -0.03631527 0.097942695 0.016923279 -0.01659149
000050 ae ff 44 bd 73 51 cd bd e4 5e bf 3d a8 07 e8 bd
       -0.048095398 -0.10025301 0.09344271 -0.11329585
000060 a8 5a d0 3d 04 bc 1d 3d 12 77 83 bd dc bc a2 bd
       0.10173541 0.038509384 -0.06419195 -0.07946178
000070 34 f8 cd 3d ac ec 33 3d d4 5c a5 bd e4 98 da 3d
       0.100571066 0.04392688 -0.08074346 0.10673693
000080 fc 20 8d 3d 30 9f af bd 7d 0a f0 bd 28 e7 23 3d
       0.06891057 -0.085752845 -0.117207505 0.04001537
000090 d5 ef 88 bd 24 4d 63 3d e6 cc 67 bd 5c 7b 74 3d
       -0.06686369 0.05549349 -0.05659189 0.059687957
0000a0 18 da 06 bd b0 92 3e bc fc e2 f0 3d 6e 2d 76 bd
       -0.032922834 -0.011631653 0.11762044 -0.06010192
0000b0 c8 a4 73 bd 1a 5a ae bd 10 72 2f 3c 08 23 af 3d
       -0.05948332 -0.08513279 0.010708347 0.085516036
0000c0 00 5e 4e 3c a6 31 cd 3d b8 cb 12 bd f4 4c 9e 3d
       0.0125956535 0.10019235 -0.035838813 0.077295214
0000d0 53 d5 e4 bd ba 65 6a bd 94 0f c7 bc c8 97 89 3c
       -0.11173501 -0.05722592 -0.02429942 0.016796008
0000e0 92 4d 90 3d f0 92 3a 3c f7 da 00 3e 1c 61 14 bd
       0.07046045 0.011387572 0.12583528 -0.036225423
0000f0 de 8f b5 bd 6e 8c 39 bd ba 8f 3b bd 74 1d b6 3d
       -0.08865331 -0.04529994 -0.045791365 0.088923365
000100 4c 0b c2 3d f9 77 d3 bd 80 97 e6 bc fc 2c 0c 3d
       0.09474811 -0.10325617 -0.028148413 0.034222588
000110 7a 28 7e bd 4a 26 3c bd 84 84 ae bd 38 cb 48 bd
       -0.06205032 -0.045934953 -0.08521369 -0.04902193
000120 5c 54 1b 3d c0 33 3e bb 28 f5 59 bc d0 6d b2 bb
       0.03792225 -0.0029022545 -0.013303079 -0.0054452196
000130 18 4a 18 bd a2 a9 aa 3d b8 3c 49 3d 80 36 a6 bd
       -0.037180036 0.08333136 0.04913017 -0.08115864
000140 a0 b9 f7 3c c0 4b 75 3d 1c 2e c7 bd 3a 16 54 bd
       0.03023988 0.059886694 -0.097255915 -0.05177901
000150 31 63 f3 bd 93 06 ee bd 9a 18 0c bd b8 93 53 bd
       -0.11884154 -0.11622348 -0.03420315 -0.051654547
000160 a0 46 b6 bb 46 7b 41 bd c0 c1 01 be 74 b9 4b 3d
       -0.0055626184 -0.047236703 -0.12671566 0.04973741
000170 06 5f 6c bd 48 c1 ae 3c b4 61 d0 bc a6 79 f9 3d
       -0.05770781 0.021332398 -0.025437213 0.12181406
000180 bc b9 52 3d 50 2b 5f 3d 80 3a 02 3b 42 46 db 3d
       0.05144666 0.054484665 0.0019871294 0.1070676
000190 c8 db 65 3d 08 f2 5c bd 80 53 23 bb 8c 94 73 bd
       0.056117803 -0.053941756 -0.0024921596 -0.059467837
0001a0 82 3d 9f 3d 8d f9 e7 bd e2 f5 e8 bd fd 84 fc bd
       0.077754036 -0.11326895 -0.113750234 -0.12330053
0001b0 7e 1c 93 3d d4 bc 55 bd 80 84 9e 3c c0 f4 aa bc
       0.07183169 -0.052182034 0.01935029 -0.020868659
0001c0 32 b9 9b 3d ca 73 88 bd c4 1f f4 bd 92 26 ff 3d
       0.076036826 -0.0666271 -0.11920121 0.124585286
0001d0 70 31 15 bd 20 9d d3 3b b0 64 9f bd 52 bc 66 bd
       -0.0364241 0.0064579397 -0.077828765 -0.05633194
0001e0 54 26 e5 bc ab e2 03 3e 32 49 c9 bd 6a 00 9b bd
       -0.027972378 0.12879436 -0.09828414 -0.07568438
0001f0 c0 16 80 3c 02 1d 24 bd 22 85 9b bd ac d7 03 be
       0.015635848 -0.040066727 -0.075937524 -0.12875241
000200 69 16 c1 bd 10 dc c5 3c ec 50 89 3d 70 57 e1 bc
       -0.094281025 0.024152786 0.06704888 -0.027507514
000210 3c 1b cb 3d 7c c3 6d 3d 70 9a 93 3c 68 e7 c9 3d
       0.09917304 0.058047757 0.018017977 0.0985859
000220 fe 60 c4 3d 00 ec 73 3b 58 ee 78 3d 88 e2 58 3d
       0.09588812 0.0037219524 0.060774177 0.052950412
000230 18 1b 00 be 86 f8 86 bd 4c 36 a9 3d e8 6f a3 bc
       -0.12510335 -0.06590371 0.082623094 -0.019950822
000240 ac 2b 4d 3d 48 99 24 bd 78 cb 3a bc c8 17 59 bd
       0.050090477 -0.040185243 -0.01140105 -0.053001195
000250 40 0a b1 3d 60 0b 3e 3c cc da c0 bc a0 29 2c 3d
       0.08644533 0.011599392 -0.02354183 0.042031884
000260 b0 49 7d bc a6 e7 a7 3d f8 5a 7b bd 02 12 f4 3d
       -0.015459463 0.0819848 -0.06136605 0.11917497
000270 37 85 b1 bd 52 4d e0 bd 88 8a c2 bd b0 58 99 3c
       -0.08667987 -0.10952248 -0.09499079 0.018719047
000280 a4 e6 ac 3d 90 53 c1 bd ac b8 e8 3d 6c 8b b3 bd
       0.08442429 -0.094397664 0.11363348 -0.08766827
000290 5c 6d f1 bc c8 19 e3 3d 17 d2 03 3e 82 6a 91 bd
       -0.029471092 0.11088902 0.12873112 -0.07100393
0002a0 f4 d4 37 3d 07 44 e9 bd 28 1d 27 bc 00 66 c1 3d
       0.044880822 -0.11389928 -0.0101998225 0.09443283
0002b0 68 2b 80 3d 68 d1 92 bd 10 a6 b3 bc be 18 f1 bd
       0.06258279 -0.07168847 -0.02192977 -0.11772297
0002c0 44 05 df 3d c8 5a 91 3c bc 19 38 3d 4c 55 d0 3d
       0.10889676 0.017743483 0.044946417 0.10172519
0002d0 48 f1 cf bc 0b d0 8c bd b8 9a 28 3d cf 18 a1 bd
       -0.025383607 -0.068756185 0.041163176 -0.0786606
0002e0 44 ca d9 bd 31 88 94 bd 6e d9 8a 3d c0 ca d1 3c
       -0.10634282 -0.07252539 0.06779753 0.025609374
0002f0 3e b3 f1 3d 5f 99 b9 bd 89 41 e9 bd 92 f1 ab 3d
       0.11801766 -0.09062456 -0.11389453 0.08395685
000300 48 ab e6 3d 72 9e ee 3d ce 26 1c bd 9c f7 a8 bd
       0.11263138 0.11651315 -0.038122945 -0.08250353
000310 24 21 4b 3d 76 1d 59 bd 88 2b 3e bc 64 44 df bd
       0.049592152 -0.05300661 -0.011607058 -0.10901716
000320 00 79 52 3b 52 6e bc 3d 66 a2 90 bd a8 6a f1 3d
       0.0032115579 0.092007294 -0.07062225 0.11787921
000330 40 1b 1c 3c a6 36 d0 bd ce 81 c4 3d a6 0a 76 bd
       0.009527981 -0.10166673 0.09595071 -0.06006875
000340 52 b6 54 bd cc 4d e0 bd e0 3a 69 3d 28 6c e1 bc
       -0.051931687 -0.109523386 0.056940913 -0.027517393
000350 6c fe 41 3d 58 9e 6e 3d 7c ae 5b 3d 84 ec 08 bd
       0.047361776 0.058256477 0.0536332 -0.033428684
000360 00 8c 39 3d 30 c3 91 3d 58 15 34 bc fe e8 f0 3d
       0.04529953 0.07117307 -0.010991417 0.1176319
000370 3c 10 aa bc 76 d1 9b bd b8 1f c6 3d c6 29 e2 3d
       -0.020759694 -0.07608311 0.096740186 0.11043124
000380 00 39 40 ba b6 ab f4 bd 34 f5 46 3d 40 59 a8 3d
       -0.00073327124 -0.11946814 0.048573688 0.08220148
000390 e4 dc 48 bd f7 97 c0 bd 82 ea 0e bd d8 73 40 3d
       -0.049038783 -0.09403985 -0.034891613 0.046985477
0003a0 10 b5 c1 bb 90 97 30 bd 5a ce c2 3d dc 23 90 bd
       -0.005911477 -0.04311329 0.09512015 -0.0703809
0003b0 2c c0 a7 3d a4 ae 6a 3d ae d1 51 bd 28 7d 8d bd
       0.08190951 0.057295457 -0.051225357 -0.06908637
0003c0 04 36 d5 bc d1 e3 01 3e 62 1d 52 bd 6b 87 e1 bd
       -0.026026733 0.12684561 -0.051297553 -0.11012157
0003d0 d4 46 bd bd 18 a1 78 3d 50 3a 17 3c 00 99 dd bb
       -0.09242025 0.060700506 0.009230211 -0.006762624
0003e0 3a 24 34 bd db 4c 87 bd 78 53 78 bc e0 86 f8 bd
       -0.04397986 -0.06606456 -0.015156619 -0.121351
0003f0 b0 a7 5a 3c 00 8a 7b ba 29 df 99 bd 0c c6 92 bd
       0.013345644 -0.0009595454 -0.075132675 -0.07166681

bias f4 [1, 60]
000000 00 00 00 00 00 00 00 00 00 00 00 00 00 00 00 00
       0.0 0.0 0.0 0.0
000010 00 00 00 00 00 00 00 00 00 00 00 00 00 00 00 00
       0.0 0.0 0.0 0.0
000020 00 00 00 00 00 00 00 00 00 00 00 00 00 00 00 00
       0.0 0.0 0.0 0.0
000030 00 00 00 00 00 00 00 00 00 00 00 00 00 00 00 00
       0.0 0.0 0.0 0.0
000040 00 00 00 00 00 00 00 00 00 00 00 00 00 00 00 00
       0.0 0.0 0.0 0.0
000050 00 00 00 00 00 00 00 00 00 00 00 00 00 00 00 00
       0.0 0.0 0.0 0.0
000060 00 00 00 00 00 00 00 00 00 00 00 00 00 00 00 00
       0.0 0.0 0.0 0.0
000070 00 00 00 00 00 00 00 00 00 00 00 00 00 00 00 00
       0.0 0.0 0.0 0.0
000080 00 00 00 00 00 00 00 00 00 00 00 00 00 00 00 00
       0.0 0.0 0.0 0.0
000090 00 00 00 00 00 00 00 00 00 00 00 00 00 00 00 00
       0.0 0.0 0.0 0.0
0000a0 00 00 00 00 00 00 00 00 00 00 00 00 00 00 00 00
       0.0 0.0 0.0 0.0
0000b0 00 00 00 00 00 00 00 00 00 00 00 00 00 00 00 00
       0.0 0.0 0.0 0.0
0000c0 00 00 00 00 00 00 00 00 00 00 00 00 00 00 00 00
       0.0 0.0 0.0 0.0
0000d0 00 00 00 00 00 00 00 00 00 00 00 00 00 00 00 00
       0.0 0.0 0.0 0.0
0000e0 00 00 00 00 00 00 00 00 00 00 00 00 00 00 00 00
       0.0 0.0 0.0 0.0
