neuromancer/neuromancer/train_scripts/test_control/best_model_state_dict.pth (torch, 678127 bytes, 177 tensors)

components.0.net.linear.0.weight f4 [3, 60]
0	0x3d596d20	0.053082585
1	0xbe029784	-0.12753111
2	0x3d001938	0.03127405
3	0x3c12a1e0	0.008949727
4	0x3dcf0942	0.10109188
5	0xbca5e324	-0.02024991
6	0x3d077c0c	0.033077285
7	0x3d1505c0	0.036382437
8	0x3dc477f6	0.09593193
9	0xbc09dba8	-0.008414187
10	0x3e011083	0.12603955
11	0xbdc9b32a	-0.09848626
12	0xbe01711d	-0.12640806
13	0x3de5dde4	0.11223963
14	0xbdc57b64	-0.096426755
15	0xbd8a6306	-0.067571685
16	0xbd0aa146	-0.03384521
17	0xbd18e294	-0.037325457
18	0xbbe5ecd0	-0.0070167556
19	0xbc82a478	-0.015947565
20	0x3dfed0a2	0.12442137
21	0x3db7c08e	0.08972274
22	0x3cc23130	0.023705095
23	0x3d2c6e64	0.042097464
24	0x3e00dcf1	0.12584282
25	0x3ccb3cd0	0.024809271
26	0xbdc1c0f4	-0.09460631
27	0xbe01163a	-0.12606135
28	0xbd232962	-0.039834388
29	0xbdb1cfe0	-0.08682227
30	0xbcb20a1c	-0.021733336
31	0xbde52b23	-0.11189868
32	0xbdce6972	-0.10078706
33	0x3dab21b4	0.08356038
34	0xbdadca0e	-0.084858045
35	0x3b1119c0	0.0022140592
36	0xbd7edbd4	-0.062221363
37	0x3d8d3654	0.06895128
38	0xbd4e39c4	-0.05034806
39	0xbddc32af	-0.10751855
40	0x3d9d940c	0.07694253
41	0xbcac0d60	-0.021002471
42	0x3dbc156e	0.09183775
43	0x3d10b2d0	0.03532678
44	0x3d89f76e	0.067366466
45	0x3de2c184	0.110720664
46	0xbd8c111c	-0.06839201
47	0xbc96c0cc	-0.01840248
48	0x3d7eb00c	0.06217961
49	0x3d1695cc	0.03676395
50	0x3daed684	0.08537009
51	0x3dae178c	0.08500585
52	0xbdf8128d	-0.12112913
53	0x3d3774ec	0.04478924
54	0xbde50848	-0.1118322
55	0xbdf1c89c	-0.11805841
56	0x3de4ea26	0.11177473
57	0xbc9495ac	-0.018137775
58	0xbdbf8060	-0.093506575
59	0xbdd5761a	-0.10422917
60	0x3cf3e050	0.029770046
61	0xbca390a8	-0.019966438
62	0x3d8fec82	0.07027532
63	0xbd8c2684	-0.06843284
64	0x3df68e88	0.120389044
65	0xbdcfc8ea	-0.10145743
66	0x3d9cfc70	0.07665336
67	0xbcb4fbec	-0.022092782
68	0xbd8df7aa	-0.06932004
69	0xbd938e0c	-0.07204828
70	0x3d0dd2ec	0.03462498
71	0xbb9b18f0	-0.0047331974
72	0x3dd18620	0.102306604
73	0x3c760700	0.015016317
74	0xbdbe4f4c	-0.092924684
75	0xbdfed9a8	-0.124438584
76	0xbc5e7fa8	-0.01358024
77	0x3d7d55ec	0.06184952
78	0x3be69c00	0.0070376396
79	0x3dd7004a	0.10498102
80	0xbd71b98a	-0.059014834
81	0xbddce947	-0.107866816
82	0x3c84d948	0.016216889
83	0x3dd4b84c	0.10386714
84	0xb9c16e00	-0.00036893785
85	0x3dcd0f14	0.100126415
86	0xbd77c7c4	-0.060493246
87	0xbc9dd4cc	-0.019266509
88	0xbdb37d24	-0.08764103
89	0x3d807ea4	0.06274155
90	0xbdd2e486	-0.10297494
91	0x3d3d08b0	0.046150863
92	0x3df2154e	0.1182047
93	0xbd919964	-0.07109335
94	0xbc610978	-0.013735168
95	0xbc2066e8	-0.00979016
96	0x3cb66648	0.022265568
97	0x3dc08ef4	0.09402266
98	0x3d560304	0.05224897
99	0xbd66331a	-0.056201078
100	0xbdb7ae5c	-0.08968803
101	0xbc3bbbc8	-0.011458345
102	0xbdc5ca0a	-0.096576765
103	0x3e007b2f	0.12546991
104	0xbe033f04	-0.12817007
105	0x3b9a4640	0.0047080815
106	0xbdbded8e	-0.092738256
107	0x3dc62d4e	0.0967661
108	0xbdce6431	-0.10077704
109	0xbbf41c60	-0.0074496716
110	0x3d992866	0.074784085
111	0xbc0151e0	-0.007893056
112	0xbd8cb124	-0.068697244
113	0x3dfd3c3a	0.12365003
114	0xbd1021de	-0.03518855
115	0x3d80c516	0.06287591
116	0x3dc8909a	0.097932056
117	0x3d09e8d8	0.033669323
118	0x3d2abba8	0.04168287
119	0x3dd37b94	0.10326305
120	0x3c1b8320	0.009491712
121	0x3d8a1766	0.06742744
122	0xbda902be	-0.08252476
123	0xbd9b3f48	-0.07580429
124	0x3c9a8c60	0.018865764
125	0xbc171830	-0.009222075
126	0xbddc7425	-0.1076434
127	0x3d074874	0.03302808
128	0x3da30fc2	0.0796199
129	0xbd38682a	-0.045021214
130	0xbde858ff	-0.113451
131	0xbe03bc12	-0.12864712
132	0xbce67884	-0.028133638
133	0xbde5caac	-0.11220297
134	0x3dc1d208	0.094638884
135	0x3d9cb048	0.076508105
136	0xbdd2c242	-0.10290958
137	0xbdf75972	-0.12077607
138	0x3d74986c	0.059715673
139	0x3db2c9d6	0.087299034
140	0x3cfdc2b0	0.030976623
141	0x3d5e88fc	0.054329857
142	0xbd801782	-0.06254484
143	0xbcb745e0	-0.022372186
144	0x3d0c0b7c	0.03419064
145	0x3cb95200	0.022622108
146	0xbe011fc5	-0.12609775
147	0xbd31840e	-0.043338828
148	0x3d947b08	0.07250029
149	0x3dc8f654	0.09812608
150	0x3d9b4ab6	0.07582609
151	0x3de221ca	0.11041601
152	0xbc9e1564	-0.01929731
153	0x3d2d0bb0	0.042247474
154	0x3c80fe68	0.01574631
155	0xbc9b6760	-0.018970191
156	0x3dd63ff4	0.10461417
157	0x3d66227c	0.05618523
158	0x3ceac408	0.028657928
159	0xbdfd3809	-0.123642035
160	0x3da918f6	0.08256714
161	0x3d654820	0.055976987
162	0x3d475198	0.0486618
163	0x3d9a7942	0.07542659
164	0x3db65526	0.089029595
165	0x3dd2c84c	0.1029211
166	0xbcef3720	-0.02920109
167	0xbdd1f449	-0.10251672
168	0x3d45c8a0	0.048287034
169	0xbd5c69fe	-0.05381202
170	0xbdf9c47a	-0.12195678
171	0xbdd921d5	-0.10602156
172	0xbd7153bc	-0.058917746
173	0x3e0394c5	0.1284972
174	0x3da913d8	0.08255738
175	0xbda70e5e	-0.08157037
176	0xbd64b836	-0.05583974
177	0x3d3ced9c	0.04612504
178	0x3de975dc	0.11399433
179	0xbdc623e6	-0.09674816

components.0.net.linear.0.bias f4 [1, 60]
0	0x00000000	0.0
1	0x00000000	0.0
2	0x00000000	0.0
3	0x00000000	0.0
4	0x00000000	0.0
5	0x00000000	0.0
6	0x00000000	0.0
7	0x00000000	0.0
8	0x00000000	0.0
9	0x00000000	0.0
10	0x00000000	0.0
11	0x00000000	0.0
12	0x00000000	0.0
13	0x00000000	0.0
14	0x00000000	0.0
15	0x00000000	0.0
16	0x00000000	0.0
17	0x00000000	0.0
18	0x00000000	0.0
19	0x00000000	0.0
20	0x00000000	0.0
21	0x00000000	0.0
22	0x00000000	0.0
23	0x00000000	0.0
24	0x00000000	0.0
25	0x00000000	0.0
26	0x00000000	0.0
27	0x00000000	0.0
28	0x00000000	0.0
29	0x00000000	0.0
30	0x00000000	0.0
31	0x00000000	0.0
32	0x00000000	0.0
33	0x00000000	0.0
34	0x00000000	0.0
35	0x00000000	0.0
36	0x00000000	0.0
37	0x00000000	0.0
38	0x00000000	0.0
39	0x00000000	0.0
40	0x00000000	0.0
41	0x00000000	0.0
42	0x00000000	0.0
43	0x00000000	0.0
44	0x00000000	0.0
45	0x00000000	0.0
46	0x00000000	0.0
47	0x00000000	0.0
48	0x00000000	0.0
49	0x00000000	0.0
50	0x00000000	0.0
51	0x00000000	0.0
52	0x00000000	0.0
53	0x00000000	0.0
54	0x00000000	0.0
55	0x00000000	0.0
56	0x00000000	0.0
57	0x00000000	0.0
58	0x00000000	0.0
59	0x00000000	0.0

components.0.net.linear.0.linear.weight f4 [60, 3]
0	0xbe4ff5c4	-0.20308596
1	0xbef1ff0a	-0.47264892
2	0x3df741f5	0.12073127
3	0x3ec123bb	0.37722573
4	0x3f111852	0.56677735
5	0xbe85f096	-0.26160115
6	0xbdc2c4aa	-0.09510167
7	0x3e8656ac	0.26238
8	0x3e31a239	0.1734704
9	0x3d3adc43	0.045620214
10	0xbbd4e232	-0.006496691
11	0x3e55f1c8	0.20893013
12	0xbef4ec8e	-0.47836727
13	0xbe96df59	-0.29467276
14	0xbc98ba29	-0.018643456
15	0xbe53d1e9	-0.20685543
16	0xbdaca488	-0.08429819
17	0x3edc843f	0.43069646
18	0xbf01e02f	-0.507327
19	0xbed6e2d8	-0.41969943
20	0x3f117429	0.5681787
21	0x3d690a6f	0.056894716
22	0x3e8fb919	0.28070906
23	0x3eb7b7c9	0.35882404
24	0xbf0c7211	-0.5486155
25	0x3ea6b480	0.32559586
26	0xbe59bfe6	-0.2126461
27	0x3dd43cb6	0.10363142
28	0xbe48d1fd	-0.19611354
29	0xbed536bd	-0.41643324
30	0x3e469019	0.19390906
31	0x3e89f868	0.2694733
32	0xbd3a5ad4	-0.045496777
33	0x3f0baee8	0.5456376
34	0x3ea98782	0.33111197
35	0xbed41557	-0.4142253
36	0xbea19b11	-0.3156362
37	0x3e015909	0.1263162
38	0x3bb32280	0.005466759
39	0x3e00e763	0.12588267
40	0x3e85ab69	0.26107338
41	0xbded7c2c	-0.115959495
42	0x3d2be266	0.041963957
43	0x3eb36665	0.35039058
44	0x3f067704	0.52525353
45	0x3e73ea8f	0.23819946
46	0x3ef093fc	0.46987903
47	0x3e68872e	0.22707817
48	0x3ed324a3	0.4123889
49	0xbedf1a5a	-0.43574792
50	0xbda462e0	-0.080266714
51	0xbde28e0f	-0.11062252
52	0x3e977aa4	0.29585755
53	0xbecb72b0	-0.39735937
54	0xbd916194	-0.0709869
55	0xbf006edb	-0.5016915
56	0xbee5dac8	-0.4489348
57	0x3eb1a7a5	0.34698215
58	0x3ecab5e1	0.39591888
59	0x3f0e9c30	0.55707073
60	0x3c949c6d	0.018140996
61	0x3ebd8913	0.37018642
62	0xbebe032d	-0.37111798
63	0xbe5ae51a	-0.21376458
64	0x3ee91a59	0.45527914
65	0xbf0c6e21	-0.54855543
66	0x3ed61d68	0.4181931
67	0x3d014634	0.03156109
68	0xbf0c0f07	-0.5471043
69	0xbdad3efd	-0.0845928
70	0x3f05f30c	0.52323985
71	0xbeac2146	-0.33619136
72	0x3e8886b0	0.26665258
73	0xbc068041	-0.008209289
74	0x3e9d847b	0.30765137
75	0xbef5444e	-0.47903675
76	0xbeca524b	-0.3951591
77	0xbf097854	-0.5369923
78	0xbec0dec2	-0.3766995
79	0x3ee4f4b5	0.44717947
80	0x3dc0433b	0.09387823
81	0x3cfcc070	0.03085348
82	0x3ddf051f	0.10889649
83	0x3e664b60	0.22489691
84	0x3ed6104f	0.41809317
85	0x3dce00a9	0.1005872
86	0xbeadd8d3	-0.33954486
87	0x3f123715	0.571153
88	0xbeb308e7	-0.3496773
89	0x3eec34a4	0.46133912
90	0x3daeeb7f	0.08541011
91	0xbca4b435	-0.02010546
92	0x3ed36256	0.41285962
93	0xbe9ddab0	-0.30830908
94	0x3e4ec7cf	0.20193408
95	0xbf0cde06	-0.5502628
96	0xbf1179ab	-0.56826276
97	0x3d8db40a	0.06919105
98	0xbee3be69	-0.4448121
99	0x3d1ef761	0.038810138
100	0x3e5e733a	0.21723643
101	0xbd168251	-0.036745373
102	0xbd407ed8	-0.046995968
103	0xbd7c6271	-0.06161732
104	0x3ec4e754	0.3845774
105	0x3efbbc7c	0.4916724
106	0x3dfc4729	0.1231826
107	0x3dc16bdb	0.094444
108	0x3ebecfc7	0.37267897
109	0xbeca229a	-0.39479524
110	0xbd48d873	-0.049034547
111	0x3eb76261	0.35817245
112	0xbea95755	-0.33074442
113	0xbed5c05e	-0.41748327
114	0x3e16eaf3	0.14738064
115	0xbe561db8	-0.20909774
116	0xbce44e72	-0.027869437
117	0x3f0476c8	0.51743746
118	0x3edecb13	0.43514308
119	0xbebc6592	-0.36796242
120	0xbe9a97c5	-0.30193916
121	0xbefabd2c	-0.48972452
122	0x3e58d916	0.21176562
123	0xbeaa62c0	-0.33278465
124	0x3cb04b66	0.021520328
125	0x3da13d50	0.078730226
126	0xbe9cce1b	-0.30625996
127	0xbd851088	-0.06497294
128	0x3de6fbb7	0.112784795
129	0xbea8cd8e	-0.32969326
130	0xbedbb532	-0.4291168
131	0xbebeda99	-0.37276152
132	0xbe403788	-0.18771183
133	0xbe987a5a	-0.29780847
134	0xbefabcf8	-0.48972297
135	0xbe0e69cd	-0.13907547
136	0xbbee48ed	-0.007271877
137	0x3ecd1dde	0.4006185
138	0x3f05be53	0.52243537
139	0xbd7b3c71	-0.06133694
140	0x3f064d82	0.5246202
141	0xbf010f55	-0.5041402
142	0xbe82859f	-0.2549257
143	0xbeb1c6e0	-0.34722042
144	0xbe889369	-0.26674965
145	0xbd3b533c	-0.045733675
146	0xbe8b0265	-0.27150264
147	0x3d6c60c6	0.057709478
148	0xbe0eab58	-0.1393255
149	0xbee76156	-0.4519145
150	0x3e9bff15	0.3046805
151	0x3e903458	0.28164935
152	0xbe23a064	-0.15979153
153	0x3ec7ec8f	0.39047667
154	0xbe369cd1	-0.17833258
155	0xbeda4805	-0.42633072
156	0xbf006f72	-0.5017005
157	0x3def4256	0.116825745
158	0xbe5fc869	-0.21853794
159	0x3eb83928	0.35981107
160	0x3ed057df	0.4069204
161	0xbefa23f0	-0.48855543
162	0x3ec341b9	0.3813608
163	0x3e265e54	0.16246921
164	0xbda3d1c5	-0.07998995
165	0xbebd1106	-0.3692705
166	0x3ec753ab	0.3893102
167	0x3e64cea7	0.22344457
168	0xbec18503	-0.37796792
169	0x3e848cec	0.25888765
170	0xbea257d5	-0.31707636
171	0xbe4c27b5	-0.19937022
172	0x3e395786	0.18099794
173	0x3e8eaef4	0.27867854
174	0x3eebda5a	0.46065027
175	0x3ed71d0c	0.42014349
176	0xbcc56913	-0.024097955
177	0xbeee8806	-0.46588153
178	0x3e612de2	0.21990159
179	0xbe294a00	-0.16532135

components.0.net.linear.1.weight f4 [60, 60]
0	0x3c886db8	0.01665388
1	0x3e011a5f	0.12607716
2	0xbd998f1c	-0.07497999
3	0xbd80c6a2	-0.06287886
4	0x3d8edf76	0.069762155
5	0xbda2b084	-0.07943824
6	0xbbff99b0	-0.0078003034
7	0xbdf20d20	-0.1181891
8	0xbcd1c844	-0.02560819
9	0xbd711726	-0.058859967
10	0xbd388304	-0.04504682
11	0x3cde3640	0.027125478
12	0x3e0009bd	0.12503715
13	0xbdbfbe12	-0.09362425
14	0x3dc28990	0.09498894
15	0x3d5b7a44	0.0535834
16	0xbde70b94	-0.11281505
17	0x3c982990	0.018574506
18	0x3e0340ab	0.12817638
19	0xbc843754	-0.016139664
20	0xbde6eba9	-0.11275417
21	0x3d179444	0.03700663
22	0x3ad28600	0.0016061664
23	0xbd515126	-0.05110278
24	0x3d7b01f8	0.061281174
25	0x3c3d1270	0.01154004
26	0xbda6e24a	-0.0814863
27	0x3d38e94c	0.045144364
28	0x3cfbc920	0.030735552
29	0x3d7f136c	0.06227438
30	0xbdc05954	-0.09392038
31	0x3d232a34	0.03983517
32	0x3db6f128	0.08932716
33	0x3d081114	0.033219412
34	0x3b966660	0.004589841
35	0xbdeea594	-0.11652675
36	0xbd930899	-0.07179374
37	0x3d753a58	0.059870094
38	0x3d38a814	0.045082167
39	0xbc7200d0	-0.0147707015
40	0xbd1a0496	-0.03760203
41	0x3dc8229c	0.09772226
42	0xbdc4d2f9	-0.09610552
43	0x3dc63472	0.09677972
44	0xbc288070	-0.010284528
45	0xbdfc4837	-0.123184614
46	0x3dea8dc0	0.11452818
47	0x3df27c60	0.11840129
48	0xbd7aa122	-0.061188824
49	0xbd0da004	-0.03457643
50	0xbde74d6e	-0.112940654
51	0xbd89e7dc	-0.06733677
52	0x3dcac542	0.09900905
53	0xbdc6f700	-0.0971508
54	0xbda9971c	-0.08280775
55	0xbd18723a	-0.03721831
56	0x3dcd6604	0.100292236
57	0xbbc68dd0	-0.006059386
58	0x3d0f0b18	0.03492269
59	0x3d831076	0.06399624
60	0x3da27f1a	0.07934399
61	0x3d4ec3c4	0.050479665
62	0x3cd31210	0.025765449
63	0xbcb1efe8	-0.021720842
64	0x3d188b08	0.037241966
65	0x3d61590c	0.055016562
66	0xbcd8913c	-0.02643644
67	0xbd22b1c6	-0.03972032
68	0x3c591ba0	0.013251215
69	0xbcc01ec0	-0.023452163
70	0x3d723e28	0.059141308
71	0xbdd84606	-0.10560231
72	0x3dcb9738	0.09940952
73	0xbdc7d4fe	-0.09757422
74	0x3dc16e06	0.094448134
75	0x3dc4c9dc	0.09608814
76	0x3dc5ba6e	0.09654699
77	0xbcf6d11c	-0.030129008
78	0x3cacc528	0.021090105
79	0x3cecf770	0.028926581
80	0x3d95c7a0	0.07313466
81	0xbdb224dd	-0.08698437
82	0xbc26c970	-0.010179862
83	0xbdc6e3af	-0.09711396
84	0x3ded1d7e	0.11577891
85	0x3de51a30	0.111866355
86	0x3df270da	0.11837931
87	0xbb5ff1c0	-0.0034171194
88	0xbd97b393	-0.07407298
89	0xbd002938	-0.03128931
90	0x3d9c72d4	0.07639089
91	0xbdf8b038	-0.12142986
92	0xbd963df4	-0.07336035
93	0x3d85b41a	0.06528492
94	0x3d096d5c	0.03355156
95	0xbbbc0550	-0.005737938
96	0x3dde8634	0.10865441
97	0xbdeb8d5a	-0.1150157
98	0xbdc3b546	-0.095560595
99	0xbda69ca4	-0.081353456
100	0xbd1fb3f4	-0.038989976
101	0x3d713fd4	0.058898762
102	0xbd21befc	-0.039488778
103	0x3e03ed71	0.12883545
104	0x3e02a87d	0.12759586
105	0x3d46bbfc	0.04851912
106	0xbdda4a30	-0.106586814
107	0xbafda400	-0.0019351244
108	0x3d70dec8	0.05880621
109	0x3d8fd52a	0.0702308
110	0xbdd5cd78	-0.10439581
111	0x3db0f4ec	0.08640465
112	0xbcd4c2fc	-0.025971882
113	0x3d0ebd00	0.034848213
114	0x3dadc78e	0.08485328
115	0x3dd101d2	0.10205425
116	0xbd90c220	-0.070682764
117	0xbdc2f150	-0.09518683
118	0xbb369780	-0.0027861297
119	0x3d3811d0	0.044938862
120	0xbdd7d37f	-0.105383866
121	0xbdb5a531	-0.088693984
122	0x3d7fe734	0.06247635
123	0xbd08e202	-0.033418663
124	0x3d0bfec0	0.034178495
125	0x3da7aa6c	0.08186802
126	0xbde1d502	-0.11026956
127	0x3d2d9628	0.04237953
128	0x3d9e5f5e	0.077330336
129	0x3d281764	0.041037932
130	0x3d38847c	0.045048222
131	0x3ccb6c98	0.024832055
132	0xbdce1ba7	-0.10063868
133	0x3b1552c0	0.0022784919
134	0xbdaafde2	-0.083492056
135	0x3dd30584	0.103037864
136	0x3dfc04ea	0.12305625
137	0xbdacef67	-0.084441
138	0x3d6a456c	0.057195112
139	0x3db7ed16	0.089807674
140	0x3dcd28dc	0.10017559
141	0xbc5ef6b0	-0.01360862
142	0x3deb848e	0.11499892
143	0x3df5c502	0.12000467
144	0x3d884c4c	0.066551775
145	0xbcfe1c78	-0.031019434
146	0xbd67cd28	-0.056592137
147	0xbceb6064	-0.028732486
148	0xbcd44560	-0.025911987
149	0xbd7062fe	-0.058688156
150	0x3de8e8a0	0.11372495
151	0xbdf6d4e4	-0.120523244
152	0xbd89dc2c	-0.067314476
153	0xbd00e218	-0.03146562
154	0x3cca6b60	0.024709404
155	0xbdc1638c	-0.09442815
156	0x3db78c9a	0.089623645
157	0x3cfd0f18	0.030890986
158	0x3d1bb7ac	0.03801696
159	0xbda336a2	-0.07969405
160	0x3c1adac0	0.009451568
161	0xbd9e931c	-0.07742903
162	0x3ddfd234	0.10928765
163	0x3df4cf80	0.1195364
164	0x3d719650	0.05898124
165	0x3d0355dc	0.032064304
166	0xbca7187c	-0.020397417
167	0xb80bb000	-3.3304095e-05
168	0xbd30d602	-0.043172844
169	0x3d64d278	0.05586478
170	0xbd615392	-0.05501134
171	0x3d99644e	0.07489835
172	0xbdb06b3b	-0.086142026
173	0xbdabaebe	-0.08382939
174	0x3df512cc	0.11966476
175	0xbe031f81	-0.12804987
176	0x3dbe451c	0.09290525
177	0xbd027698	-0.03185138
178	0xbabb0e00	-0.001427114
179	0x3b852940	0.0040637553
180	0xbd9c408f	-0.07629501
181	0x3dd3aa02	0.10335161
182	0xbd7aa126	-0.06118884
183	0x3dfd41e6	0.12366085
184	0x3c2fabe0	0.010722131
185	0xbdb3ca3e	-0.08778809
186	0x3dd64408	0.10462195
187	0x3dde89bc	0.108661145
188	0xbc63db30	-0.013907239
189	0x3d8b2f58	0.067961395
190	0xbd739708	-0.059470206
191	0xbdf3916b	-0.11892971
192	0x3d199060	0.037491202
193	0x3deba9fe	0.11507033
194	0xbdccf3be	-0.10007428
195	0x3d2ac7bc	0.041694388
196	0x3dba6d90	0.09102929
197	0x3dcc3fcc	0.09973106
198	0x3da13748	0.07871872
199	0x3d7f764c	0.062368676
200	0x3d6957c8	0.05696848
201	0x3d18fbdc	0.037349567
202	0x3d0e3274	0.034716085
203	0xbe028916	-0.12747607
204	0xbd567a50	-0.05236274
205	0xbdb5892c	-0.08864054
206	0xbdea46c0	-0.11439276
207	0x3d50943c	0.050922617
208	0xbc746250	-0.014916018
209	0xbd6770e2	-0.056504138
210	0x3df1326e	0.11777197
211	0x3de38ae4	0.11110476
212	0xbe00cb59	-0.12577571
213	0x3db7b3ba	0.08969827
214	0x3e0271f5	0.12738784
215	0xbc8b54a0	-0.017008126
216	0x3dad0108	0.08447462
217	0x3bcde740	0.0062836707
218	0x3dae08ea	0.08497794
219	0xbd8f8815	-0.070083775
220	0x3d58863c	0.05286239
221	0x3d155e8c	0.03646712
222	0xbd648416	-0.05579003
223	0x3db4f5d8	0.088359535
224	0x3da315c6	0.07963137
225	0xbd64d44a	-0.055866517
226	0xb8569000	-5.1155686e-05
227	0x3d877f96	0.06616132
228	0xbcdc3244	-0.026879437
229	0xbcf16e18	-0.029471442
230	0xbde5818d	-0.112063505
231	0x3df69572	0.12040223
232	0xbdfd2887	-0.123612456
233	0xbd73bc8e	-0.05950599
234	0x39f8c200	0.00047446787
235	0xbd5ce4a0	-0.05392897
236	0x3d1b3be0	0.037898898
237	0x3d06881c	0.032844648
238	0x3d288708	0.0411444
239	0x3b50a480	0.003183633
240	0x3bc5fa60	0.00604181
241	0xbde38a14	-0.11110321
242	0x3dfd2762	0.12361027
243	0xbca8f8bc	-0.020626418
244	0x3d36d7e8	0.044639498
245	0x3d8edaf2	0.06975354
246	0xbd68b0e4	-0.05680932
247	0xbd94427e	-0.07239245
248	0xbdd2f6dd	-0.10300992
249	0x3be44da0	0.0069672614
250	0x3d4b219c	0.0495926
251	0xbc8cbeb0	-0.01718077
252	0xbd32a27a	-0.04361198
253	0xbdf525bc	-0.11970088
254	0x3d23c508	0.039982826
255	0x3ce8e968	0.02843161

components.0.net.linear.1.bias f4 [1, 60]
0	0x00000000	0.0
1	0x00000000	0.0
2	0x00000000	0.0
3	0x00000000	0.0
4	0x00000000	0.0
5	0x00000000	0.0
6	0x00000000	0.0
7	0x00000000	0.0
8	0x00000000	0.0
9	0x00000000	0.0
10	0x00000000	0.0
11	0x00000000	0.0
12	0x00000000	0.0
13	0x00000000	0.0
14	0x00000000	0.0
15	0x00000000	0.0
16	0x00000000	0.0
17	0x00000000	0.0
18	0x00000000	0.0
19	0x00000000	0.0
20	0x00000000	0.0
21	0x00000000	0.0
22	0x00000000	0.0
23	0x00000000	0.0
24	0x00000000	0.0
25	0x00000000	0.0
26	0x00000000	0.0
27	0x00000000	0.0
28	0x00000000	0.0
29	0x00000000	0.0
30	0x00000000	0.0
31	0x00000000	0.0
32	0x00000000	0.0
33	0x00000000	0.0
34	0x00000000	0.0
35	0x00000000	0.0
36	0x00000000	0.0
37	0x00000000	0.0
38	0x00000000	0.0
39	0x00000000	0.0
40	0x00000000	0.0
41	0x00000000	0.0
42	0x00000000	0.0
43	0x00000000	0.0
44	0x00000000	0.0
45	0x00000000	0.0
46	0x00000000	0.0
47	0x00000000	0.0
48	0x00000000	0.0
49	0x00000000	0.0
50	0x00000000	0.0
51	0x00000000	0.0
52	0x00000000	0.0
53	0x00000000	0.0
54	0x00000000	0.0
55	0x00000000	0.0
56	0x00000000	0.0
57	0x00000000	0.0
58	0x00000000	0.0
59	0x00000000	0.0

components.0.net.linear.1.linear.weight f4 [60, 60]
0	0xbd8646a5	-0.06556443
1	0xbdd96954	-0.10615793
2	0x3d760e7a	0.0600724
3	0x3d814c53	0.06313386
4	0x3db9c2b1	0.090703376
5	0x3c4a61e8	0.012352444
6	0x3daadb8d	0.08342657
7	0x3d9d2f84	0.076750785
8	0x3cc4a7da	0.02400582
9	0x3c0cb6db	0.008588518
10	0x3dd8966e	0.10575567
11	0x3ddb064b	0.1069456
12	0xbcd197a8	-0.02558501
13	0xbda6e833	-0.08149757
14	0xbdafacc4	-0.08577874
15	0xbcd352f9	-0.0257964
16	0xbcb73bba	-0.022367347
17	0x3cf84d71	0.030310364
18	0x3c8629ba	0.016377319
19	0xbd0482f6	-0.032351457
20	0xbc7f0174	-0.015564311
21	0x3d21c5ba	0.039495207
22	0xbddcac48	-0.107750475
23	0x3daae7f0	0.0834502
24	0x3d825cb5	0.06365339
25	0x3df4202b	0.11920198
26	0xbcf0f0d8	-0.029411718
27	0x3dfb6467	0.122750096
28	0x3e01129a	0.12604752
29	0x3d6d5955	0.05794652
30	0x3d7a9770	0.06117958
31	0x3d3ba015	0.045806963
32	0x3da7c929	0.08192665
33	0xbc7677ab	-0.0150431795
34	0xbdb35026	-0.087555215
35	0x3d186e7d	0.037214745
36	0x3d9fa4ce	0.07795106
37	0xbcbd7a28	-0.023129538
38	0x3d7876f3	0.060660314
39	0xbddec510	-0.108774304
40	0xbdf5ca3e	-0.12001465
41	0xbdb61ef4	-0.088926226
42	0xbd24b91b	-0.040215593
43	0x3d8bfbda	0.06835146
44	0x3d804c28	0.06264526
45	0x3ce25730	0.027629465
46	0x3df7f28a	0.121068075
47	0xbd2a7735	-0.04161759
48	0xbcf7eb7e	-0.030263659
49	0xbdf08ebd	-0.11745975
50	0x3dd2e543	0.102976345
51	0xba8e4be8	-0.0010856362
52	0xbd9db0f7	-0.07699769
53	0xbd6fd124	-0.05854906
54	0x3e084220	0.13306475
55	0x3d88e544	0.06684354
56	0xba6d1e58	-0.0009045354
57	0x3da7deb0	0.08196771
58	0x3d474271	0.048647348
59	0xbc38e580	-0.011285186
60	0x3bd2cd14	0.0064331386
61	0x3dff4ac7	0.124654345
62	0x3d30580e	0.043052725
63	0x3d8ad358	0.06778592
64	0xbdc2e403	-0.09516146
65	0xbdcd2736	-0.100172445
66	0x3cb2141e	0.021738108
67	0xbdb9c065	-0.090698995
68	0xbc43667f	-0.011926292
69	0xbddfe57b	-0.10932442
70	0xbcdc19a9	-0.026867704
71	0xbddc0984	-0.107440025
72	0x3c6477e9	0.013944604
73	0xbdccd751	-0.10002006
74	0xbd1de129	-0.038544808
75	0x3dfdb30d	0.12387667
76	0xbdaf2da5	-0.08553628
77	0xbd98ad12	-0.074548855
78	0xbbbd70ca	-0.005781268
79	0xbd9b9be6	-0.07598095
80	0xbd03450c	-0.03204827
81	0xbd3ed0a2	-0.046585687
82	0x3d811af4	0.06303969
83	0xbd9fedf7	-0.0780906
84	0x3de5e6d7	0.1122567
85	0x3dea8809	0.11451728
86	0x3d11d815	0.035606463
87	0xbd9fadb7	-0.07796805
88	0xbbd8d46c	-0.0066171195
89	0xbd88ce97	-0.06680029
90	0x3ded0c05	0.11574558
91	0xbcdfe16c	-0.02732917
92	0xbdb356ca	-0.08756788
93	0xbd35d3f9	-0.044391606
94	0xbd0a78ff	-0.033806797
95	0xbd685452	-0.05672104
96	0xbdfe3070	-0.124115825
97	0xbdb3ed9a	-0.08785553
98	0xbba38c67	-0.0049911025
99	0x3d8a3c27	0.067497544
100	0xbe03819b	-0.1284241
101	0x3be22954	0.0069018994
102	0xbdb4c46f	-0.08826529
103	0xbd51fc1a	-0.051265813
104	0xbcd2030e	-0.025636222
105	0xbdab6c16	-0.08370225
106	0xbd62140d	-0.055194903
107	0xbd31bc96	-0.04339274
108	0x3d0025a3	0.031285893
109	0x3d190484	0.037357822
110	0x3d98ab6c	0.07454571
111	0xbd199b75	-0.03750177
112	0xbd668930	-0.056283176
113	0xbd92adaa	-0.0716203
114	0xbdfad01e	-0.122467265
115	0x3dddf712	0.108381405
116	0x3b854e9b	0.0040682084
117	0xbd9328af	-0.07185494
118	0x3d294b6c	0.041331694
119	0x3d0297ba	0.03188298
120	0xbd3602da	-0.044436313
121	0x3dc480ae	0.09594856
122	0xbda0bf24	-0.07848957
123	0x3c6bb9e0	0.014387578
124	0xbd43a5ae	-0.047765426
125	0xbdebb645	-0.115093745
126	0xbd9c06a2	-0.076184526
127	0x3d253262	0.040331252
128	0xbd4b92c7	-0.049700525
129	0x3da20ba9	0.0791238
130	0x3dd688c9	0.104753084
131	0xbd64a053	-0.05581696
132	0xbd8ce0b3	-0.068787955
133	0x3d26ffd7	0.04077133
134	0xbd0b261c	-0.03397189
135	0xbdba41f8	-0.09094614
136	0x3d7982c3	0.06091572
137	0x3dfc43f0	0.123176455
138	0xbd5c7f3a	-0.05383227
139	0x3dc51b94	0.09624401
140	0xbd8562b1	-0.065129645
141	0xbe019af7	-0.1265677
142	0xbd86a2a5	-0.06573991
143	0xbd88e494	-0.06684223
144	0x3ddcd94a	0.10783632
145	0xbdcbe88b	-0.099564634
146	0x3bbc4500	0.00574553
147	0x3dc1d19a	0.094638065
148	0xbd07aec9	-0.033125672
149	0x3ad8d90c	0.0016544177
150	0x3cbf44b0	0.023348182
151	0xbdd5f382	-0.10446836
152	0x3d4da91f	0.050210115
153	0x3ddb42f9	0.107061334
154	0x3cb0ce78	0.021582827
155	0xbd14bcd4	-0.036312893
156	0xbc7c3da9	-0.01539556
157	0xbd80f607	-0.06296926
158	0xbde42ebd	-0.11141727
159	0x3ded6043	0.11590626
160	0x3deeceda	0.116605476
161	0xbd84bb61	-0.06481052
162	0xbd22fbcf	-0.039790925
163	0xbdab4433	-0.08362617
164	0x3d798047	0.06091335
165	0x3da44bc3	0.08022263
166	0xbdbc3925	-0.09190587
167	0x3d1052ed	0.035235334
168	0x3c97c5c0	0.018526912
169	0x3e01374e	0.12618753
170	0x3db4ad7a	0.088221505
171	0x3db6fb3b	0.08934637
172	0xbd29461a	-0.04132662
173	0xbdf4fa42	-0.119617954
174	0x3d8f20fe	0.06988715
175	0x3db4dde6	0.08831386
176	0x3d1197cd	0.03554516
177	0xbde39c9c	-0.11113855
178	0x3bd2c9d9	0.0064327535
179	0x3ba7ef4d	0.0051249624
180	0xbd4d9dad	-0.0501992
181	0x3d7245ee	0.05914872
182	0x3de75df2	0.112972155
183	0xbd9d0d8c	-0.076685995
184	0x3d0c2109	0.034211192
185	0xbdc962c0	-0.09833288
186	0x3d176e55	0.036970455
187	0xbc2a36ff	-0.010389089
188	0x3dc47730	0.09593046
189	0x3d1a6b8c	0.03770022
190	0x3d97a867	0.07405167
191	0x3cbc2f9d	0.022971923
192	0x3d941399	0.072303005
193	0x3db32059	0.08746404
194	0xbd643a66	-0.055719756
195	0xbbd887ef	-0.0066080014
196	0x3d88ec10	0.0668565
197	0x3d4ac9d0	0.04950887
198	0xbd3c77b7	-0.046012606
199	0xbda4ded1	-0.08050311
200	0x3d8d68f5	0.069047846
201	0xbdee571a	-0.11637707
202	0xbd809d4a	-0.062800005
203	0x3cb71dee	0.022353139
204	0xbd887f45	-0.066649
205	0xbde22c8d	-0.11043654
206	0x3d325edc	0.043547496
207	0xbc5c3565	-0.013440465
208	0x3bab9924	0.0052367616
209	0x3d88206c	0.06646809
210	0x3c1dc9cd	0.009630633
211	0x3d9168c5	0.07100061
212	0xbdaafbe0	-0.083488226
213	0xbdead11f	-0.11465668
214	0xbc8c613c	-0.017136209
215	0xbd71ba38	-0.059015483
216	0x3c248219	0.010040783
217	0x3c633385	0.013867264
218	0x3cdb613a	0.02677976
219	0x3dbadc48	0.091240466
220	0xbdc54b5c	-0.09633514
221	0x3ca3500e	0.019935634
222	0x3da1aa79	0.07893843
223	0xbdca5658	-0.0987975
224	0x3d263b43	0.04058386
225	0xbda8f433	-0.08249702
226	0xbdfdd13d	-0.12393425
227	0xbdd5f3e1	-0.10446907
228	0xbda135fe	-0.07871626
229	0x3cb87089	0.022514598
230	0xbd65c9cd	-0.056100655
231	0xbd084233	-0.033266257
232	0x3ba7840f	0.005112178
233	0x3db1b419	0.08676929
234	0xbd6f5658	-0.058431953
235	0x3d1c3ad6	0.038142048
236	0x3db05d5d	0.08611558
237	0xbde6af72	-0.11263932
238	0xbd986f31	-0.07443083
239	0x3db187e7	0.086684994
240	0x3c6edf74	0.014579643
241	0x3c8111f6	0.015755635
242	0xbdc4120f	-0.09573757
243	0x3d58fc7d	0.052975167
244	0x3dad707a	0.08468719
245	0xbdc064ea	-0.09394248
246	0x3e04b957	0.12961327
247	0x3dcb7bdd	0.099357344
248	0x3c9bf79b	0.019038966
249	0x3d8a2a45	0.067463435
250	0xbc6730f3	-0.0141107915
251	0xbd81c1aa	-0.063357666
252	0x3de157e3	0.11003091
253	0xbdf54dd4	-0.11977735
254	0x3d36a6de	0.04459273
255	0x3db3a204	0.087711364

components.0.net.linear.2.weight f4 [60, 60]
0	0x3d05e9dc	0.03269373
1	0xbdf8622c	-0.121281
2	0x3d9aa294	0.075505406
3	0xbd6402ae	-0.055666618
4	0x3df936d2	0.12168659
5	0x3dd80d08	0.105493605
6	0xbc3dd040	-0.011585295
7	0xbd405798	-0.046958536
8	0x3dff8efa	0.124784425
9	0xbbe0a230	-0.0068552718
10	0x3e029ddd	0.12755533
11	0x3e03a9d3	0.12857752
12	0x3d91b7a8	0.07115108
13	0x3d3f53b0	0.04671067
14	0x3d0c2030	0.034210384
15	0x3dc2449c	0.094857424
16	0x3d6bc57c	0.057561383
17	0xbd62d530	-0.055379093
18	0x3a2d2100	0.00066043437
19	0xbd6ff9d0	-0.05858785
20	0xbdccdd20	-0.10003114
21	0x3dfcde3a	0.12347074
22	0x3d2d7458	0.042347282
23	0xbc8c1714	-0.017100848
24	0x3da40878	0.08009428
25	0x3db12af8	0.08650774
26	0x3d97e16a	0.07416041
27	0x3d84cbe2	0.064842
28	0xbd98b1e6	-0.074558064
29	0x3d813978	0.063097894
30	0xbd2505be	-0.04028868
31	0x3df1ec9a	0.11812706
32	0x3c84f568	0.0162303
33	0xbca650e8	-0.020302251
34	0xbc1a8698	-0.009431504
35	0xbdd7d681	-0.1053896
36	0xbdc180f1	-0.09448422
37	0xbd7816be	-0.060568564
38	0xbdf43a6d	-0.11925206
39	0xbde71fbe	-0.11285351
40	0xbdc97a3d	-0.09837768
41	0xbd9bffd5	-0.076171555
42	0x3d960cec	0.073266834
43	0x3d6a7600	0.05724144
44	0x3d80e5e8	0.06293851
45	0xbd2ccf48	-0.042189866
46	0xbde4d086	-0.11172585
47	0x3bc70420	0.00607349
48	0xbd24d7f6	-0.04024502
49	0x3c36bdc0	0.011153638
50	0x3af1e000	0.0018453598
51	0xbc4ea378	-0.012612216
52	0x3cd021a0	0.025406659
53	0x39b79600	0.0003501624
54	0x3dea97ae	0.11454712
55	0x3df073bc	0.117408246
56	0x3da16512	0.07880606
57	0x3cc349c0	0.023838878
58	0x3cebdab8	0.028790817
59	0x3dee21ce	0.116275415
60	0xbd984d82	-0.074366584
61	0xbd51c95a	-0.051217414
62	0x3d83a840	0.064285755
63	0xbdd31bde	-0.103080496
64	0x3df553ce	0.11978875
65	0xbd9cc7aa	-0.076552704
66	0xbdfc5992	-0.12321772
67	0xbd819a19	-0.0632822
68	0x3d3aa0e8	0.04556361
69	0x3d7177c4	0.058952108
70	0x3bbc2b00	0.0057424307
71	0xbde31095	-0.11087147
72	0xbd11ca50	-0.03559333
73	0xbd0d1378	-0.034442395
74	0x3d212f1c	0.039351568
75	0xbd912970	-0.07087982
76	0xbdebff4e	-0.11523305
77	0x3dae734c	0.08518085
78	0x3c9aed48	0.018911973
79	0x3dbf85b0	0.09351671
80	0x3d304a6c	0.043039724
81	0x3ce3db98	0.027814671
82	0x3dcfda64	0.101490766
83	0xbddaf9b0	-0.10692155
84	0x3da45978	0.08024877
85	0x3b510580	0.0031894147
86	0xbde4ac69	-0.11165697
87	0xbdc5e4bc	-0.09662768
88	0xbd3a2648	-0.045446664
89	0xbdaeb856	-0.08531253
90	0xbd0eeb6e	-0.034892492
91	0x3d8b1b02	0.06792261
92	0xbc7e3280	-0.01551497
93	0xbdd1cf7e	-0.10244654
94	0x3dd37c88	0.10326487
95	0xbde463bc	-0.11151835
96	0x3dd0caf6	0.10194962
97	0xbd552c94	-0.052044466
98	0xbd2f4eb6	-0.042799674
99	0x3d55b580	0.052175045
100	0xbd8b0582	-0.0678816
101	0xbd188956	-0.03724035
102	0x3d4022d8	0.04690823
103	0xbde8a8da	-0.11360331
104	0xbde6eb98	-0.11275405
105	0x3d879438	0.06620067
106	0x3d48f3d4	0.049060658
107	0xbd8db6ee	-0.06919657
108	0x3da18e84	0.07888511
109	0x3d9281e8	0.07153684
110	0xbded4ab2	-0.115865126
111	0x3d9b2582	0.075755134
112	0xbcfb4cbc	-0.030676238
113	0xbdd0b1fd	-0.101901986
114	0x3cead5d8	0.028666422
115	0xbcbe3bbc	-0.023221843
116	0xbd35839a	-0.04431496
117	0xbdb7e438	-0.08979076
118	0x3dd00770	0.101576686
119	0xbcdc24e8	-0.026873067
120	0x3de867f8	0.113479555
121	0x3d03a160	0.03213632
122	0xbd23da4c	-0.040003106
123	0x3db2140c	0.0869523
124	0x3da938e6	0.08262806
125	0x3c4d33b0	0.01252453
126	0xbdc82566	-0.09772758
127	0x3d96643a	0.073433354
128	0xbdce5e07	-0.10076528
129	0x3c28ae00	0.010295391
130	0x3c9479a8	0.018124416
131	0xbdceee52	-0.1010405
132	0x3cc67570	0.02422592
133	0xbcfff8f0	-0.031246632
134	0xbde097b8	-0.10966438
135	0xbc9e4928	-0.019321993
136	0x3d8d2dee	0.06893526
137	0xbcb07a18	-0.021542594
138	0x3dbf42d0	0.09338915
139	0xbca12a68	-0.019673541
140	0xbdda49d5	-0.106586136
141	0x3d803a24	0.062610894
142	0xbd253428	-0.040332943
143	0xbdd4859a	-0.10377045
144	0x3d4fd9ec	0.050744936
145	0x3daf12ba	0.08548494
146	0xbbb9d2f0	-0.0056708977
147	0x3df2a812	0.11848463
148	0xbd5cb804	-0.05388643
149	0xbd1f2d8c	-0.038861796
150	0xbd0027ac	-0.031287834
151	0x3da97d20	0.08275819
152	0x3d750d00	0.05982685
153	0x3ddd4770	0.10804641
154	0x3d03b0f8	0.032151192
155	0x3da49e8e	0.080380544
156	0x3d184820	0.03717816
157	0x3c048a90	0.0080896765
158	0x3d2dea94	0.04246004
159	0x3cedc0d8	0.02902262
160	0xbdafb675	-0.08579723
161	0x3e0377bf	0.12838648
162	0x3d9d3d32	0.07677688
163	0x3d028cf8	0.03187272
164	0x3e01fcd9	0.1269411
165	0xbd918ab6	-0.07106535
166	0x3cfae1e0	0.030625284
167	0x3d8e307a	0.0694284
168	0x3d5fb980	0.054620266
169	0xbd5d852c	-0.05408208
170	0x3dc92122	0.09820773
171	0xbd9c858a	-0.07642658
172	0xbdf9afd2	-0.12191738
173	0xbc045930	-0.008077905
174	0xbdb512ec	-0.088415
175	0xbd408158	-0.04699835
176	0x3dc9457a	0.09827705
177	0x3dfe46a6	0.12415819
178	0x3d33109c	0.04371701
179	0x3da5b76c	0.080916256
180	0xbdd2c38e	-0.10291205
181	0xbbe10da0	-0.0068680793
182	0x3e010da5	0.12602861
183	0x3ce48c18	0.027898833
184	0xbdd71cf3	-0.105035685
185	0xbdf225ac	-0.118235916
186	0xbda73718	-0.08164805
187	0x3d9c6198	0.07635802
188	0x3d10eea4	0.035383835
189	0xbcad2d98	-0.021139905
190	0xbd599922	-0.053124554
191	0x3d9c5b4a	0.076345995
192	0xbcc2ec18	-0.023794219
193	0xbd0566ba	-0.03256867
194	0xbdffae18	-0.124843776
195	0xbdcd33a1	-0.10019613
196	0xbdfe94f3	-0.124307536
197	0x3da471d8	0.080295265
198	0xbd4e838c	-0.05041842
199	0xbd311e70	-0.043241918
200	0x3c2091b0	0.00980036
201	0xbc998e64	-0.018744655
202	0xbcf8e410	-0.030382186
203	0x3afdd500	0.0019365847
204	0xbd2a3932	-0.041558452
205	0xbcd9b56c	-0.026575767
206	0xbcd916cc	-0.026500128
207	0xbd98810f	-0.07446491
208	0x3e02b143	0.12762932
209	0xbd850270	-0.064946055
210	0xbd4ea46a	-0.050449766
211	0xbc3fe898	-0.0117131695
212	0xbd704f56	-0.05866941
213	0xbc5d6df0	-0.013514981
214	0xbca82fdc	-0.020530634
215	0xbd6111e8	-0.054948717
216	0xbd6fc7da	-0.058540203
217	0xbb77ddc0	-0.0037821382
218	0x3dc09c4e	0.09404813
219	0x3d159f68	0.036528975
220	0x3cf13730	0.02944526
221	0xbd4bddda	-0.04977212
222	0xbd7ea35c	-0.06216751
223	0xbd004616	-0.03131684
224	0x3c937960	0.018002212
225	0x3d9430f0	0.072358966
226	0xbd885276	-0.06656353
227	0x3da55136	0.080721304
228	0xbde06478	-0.10956663
229	0xbd0d9754	-0.034568146
230	0x3ddb8414	0.10718551
231	0x3b077c00	0.0020673275
232	0xbcefeab4	-0.02928672
233	0xbd9eab2a	-0.07747491
234	0x3dcdd092	0.10049547
235	0xbde68058	-0.112549484
236	0x3dd94c9c	0.10610315
237	0xbd0781e8	-0.033082873
238	0x3cb1f1e8	0.021721795
239	0xbca94984	-0.020664938
240	0xbd8ef8da	-0.069810584
241	0xbd922e70	-0.071377635
242	0x3cebb000	0.028770447
243	0x3d0396b0	0.03212613
244	0xbcbd24f8	-0.023088917
245	0xbd8a0c0e	-0.067405805
246	0x3dadafac	0.084807724
247	0x3decdf8e	0.11566077
248	0xbd8bb5ea	-0.06821807
249	0xbd3c25ca	-0.045934476
250	0xbdd7e2d4	-0.10541311
251	0xbd963b69	-0.0733555
252	0x3d4cdd24	0.050015584
253	0x3d545378	0.051837415
254	0xbd1d6084	-0.038422123
255	0x3d066454	0.032810524

components.0.net.linear.2.bias f4 [1, 60]
0	0x00000000	0.0
1	0x00000000	0.0
2	0x00000000	0.0
3	0x00000000	0.0
4	0x00000000	0.0
5	0x00000000	0.0
6	0x00000000	0.0
7	0x00000000	0.0
8	0x00000000	0.0
9	0x00000000	0.0
10	0x00000000	0.0
11	0x00000000	0.0
12	0x00000000	0.0
13	0x00000000	0.0
14	0x00000000	0.0
15	0x00000000	0.0
16	0x00000000	0.0
17	0x00000000	0.0
18	0x00000000	0.0
19	0x00000000	0.0
20	0x00000000	0.0
21	0x00000000	0.0
22	0x00000000	0.0
23	0x00000000	0.0
24	0x00000000	0.0
25	0x00000000	0.0
26	0x00000000	0.0
27	0x00000000	0.0
28	0x00000000	0.0
29	0x00000000	0.0
30	0x00000000	0.0
31	0x00000000	0.0
32	0x00000000	0.0
33	0x00000000	0.0
34	0x00000000	0.0
35	0x00000000	0.0
36	0x00000000	0.0
37	0x00000000	0.0
38	0x00000000	0.0
39	0x00000000	0.0
40	0x00000000	0.0
41	0x00000000	0.0
42	0x00000000	0.0
43	0x00000000	0.0
44	0x00000000	0.0
45	0x00000000	0.0
46	0x00000000	0.0
47	0x00000000	0.0
48	0x00000000	0.0
49	0x00000000	0.0
50	0x00000000	0.0
51	0x00000000	0.0
52	0x00000000	0.0
53	0x00000000	0.0
54	0x00000000	0.0
55	0x00000000	0.0
56	0x00000000	0.0
57	0x00000000	0.0
58	0x00000000	0.0
59	0x00000000	0.0

components.0.net.linear.2.linear.weight f4 [60, 60]
0	0xbc80198e	-0.015637185
1	0x3b442630	0.0029929988
2	0xbcd44ec5	-0.025916466
3	0xbdc08ac2	-0.09401466
4	0x3ca7b16e	0.020470347
5	0xbdd5ec28	-0.10445434
6	0x3ba8567c	0.005137263
7	0xbddf26b0	-0.10896051
8	0xbd967446	-0.07346396
9	0x3dcf2fed	0.10116563
10	0xbde7c4ee	-0.11316858
11	0x3d6ef7ec	0.058341905
12	0x3da9b8ed	0.08287225
13	0x3dba5200	0.090976715
14	0xbd63527b	-0.05549858
15	0x3cd4b112	0.02596334
16	0xbcc3b87a	-0.023891676
17	0xbe0248d7	-0.12723099
18	0x3d8f6fd8	0.070037544
19	0xbbe74a96	-0.007058452
20	0x3d13ee17	0.036115732
21	0x3d4e0bc3	0.050304186
22	0x3d6eee5d	0.05833279
23	0xbda1d453	-0.07901826
24	0xbd8f87bb	-0.070083104
25	0xbd55039c	-0.052005395
26	0x3cb1f9ad	0.0217255
27	0x3d8118cb	0.06303557
28	0xbdfe45e9	-0.12415678
29	0x3b8afb9e	0.004241421
30	0x3d114694	0.0354677
31	0x3df8ab41	0.12142039
32	0x3d776617	0.060400095
33	0xbd696afc	-0.056986794
34	0xbdb45646	-0.08805518
35	0x3d822a2d	0.06355701
36	0x3cb92094	0.022598542
37	0xbcbf5175	-0.023354271
38	0x3d0e22eb	0.03470127
39	0x3ddb6027	0.10711699
40	0x3dc16931	0.09443892
41	0xbd5ba74f	-0.053626355
42	0x3d9590e3	0.073030256
43	0x3df342b4	0.11877957
44	0x3df22bc2	0.118247524
45	0x3c118991	0.008882896
46	0x3d8f7983	0.070055984
47	0xbd9d75c2	-0.07688476
48	0x3d42ca24	0.047556058
49	0xbd3fdd8b	-0.04684214
50	0x3d1085a8	0.035283715
51	0x3c0ec9ee	0.008715136
52	0xbcd00d8f	-0.02539709
53	0x3d0f2b72	0.034953542
54	0xbe05035b	-0.12989561
55	0xbd4da277	-0.050203767
56	0xbd323823	-0.043510567
57	0xbcd750f4	-0.026283719
58	0xbda90a8b	-0.08253964
59	0x39655fd4	0.0002187484
60	0x3cfa3db7	0.030547006
61	0x3d5d470b	0.05402283
62	0xbdc47627	-0.09592848
63	0xbdef7dcb	-0.11693915
64	0xbdf1fc76	-0.11815731
65	0x3dcf255b	0.10114547
66	0xbd838c31	-0.06423224
67	0x3dc03a28	0.093860924
68	0x3d86a07d	0.065735795
69	0xbdf3ed8e	-0.11910544
70	0x3e03599c	0.12827152
71	0xbd45f7a1	-0.04833186
72	0x3d8c220e	0.06842433
73	0xbd186773	-0.037208032
74	0xbd340afe	-0.043955795
75	0x3d10528c	0.035234973
76	0xbdb1a4bd	-0.086739995
77	0xbcd70a44	-0.026250012
78	0x3cbfedda	0.023428846
79	0xbd0a4689	-0.033758674
80	0x3df90541	0.12159205
81	0xbdcadac6	-0.09905009
82	0x3c1a61f3	0.009422767
83	0x3d84f618	0.06492251
84	0xbceb2f5e	-0.02870911
85	0xbcf042cd	-0.029328728
86	0xbde8eee9	-0.113736935
87	0x3d26fd6b	0.040769022
88	0xbd8014b7	-0.06253951
89	0x3c6ef52c	0.014584821
90	0xbbf6d07b	-0.007532177
91	0x3d310c41	0.043224577
92	0xbc1a9900	-0.009435892
93	0xbd39349b	-0.045216184
94	0xbd6ceff5	-0.05784603
95	0x3d8cdf19	0.0687849
96	0xbdebbb18	-0.11510295
97	0x38eb7030	0.0001122657
98	0xbdfbd366	-0.122961804
99	0xbdc9876d	-0.098402835
100	0xbdd9295e	-0.10603593
101	0x3da6907e	0.081330284
102	0x3b8d694c	0.004315531
103	0xbcad8d53	-0.021185553
104	0x3dcfdcfb	0.101495706
105	0xbdc28f8b	-0.09500035
106	0x3ba554f6	0.0050455285
107	0xbd92b09e	-0.07162593
108	0x3df177c7	0.11790424
109	0xbcad9582	-0.021189455
110	0x3d4f2b54	0.05057843
111	0x3cba547e	0.022745367
112	0x3c7a75cd	0.015286875
113	0xbc608d9f	-0.01370564
114	0xbce9a98e	-0.028523233
115	0x3dd580eb	0.1042498
116	0xbb21a61e	-0.0024665664
117	0x3daae488	0.0834437
118	0x3cf66407	0.030076994
119	0xbdaa2b98	-0.08309096
120	0xbdf20376	-0.11817066
121	0xbca8ddc7	-0.020613564
122	0xbdf3752a	-0.11887582
123	0xbd1c555f	-0.038167354
124	0xbd228540	-0.03967786
125	0x3d301b3e	0.04299473
126	0x3cc9b0cf	0.024620442
127	0x3d5897d5	0.052879173
128	0x3c1880a7	0.009308017
129	0x3e05e8d4	0.13077098
130	0x3d3c08bd	0.04590677
131	0xbd9ca772	-0.07649125
132	0x3cb56a42	0.022145394
133	0x3d93d74d	0.072188
134	0x3de7ad10	0.11312306
135	0xbdd4409b	-0.10363885
136	0x3cc76709	0.024341123
137	0xbdd27dcd	-0.10277901
138	0xbd9c698e	-0.076373205
139	0x3dc97315	0.09836403
140	0xbde92bc7	-0.11385303
141	0x3d2d7348	0.04234627
142	0xbdc59eb9	-0.096494146
143	0xbd5deda1	-0.0541817
144	0xbd852d00	-0.06502724
145	0x3d90ac6a	0.070641354
146	0xbd75e939	-0.06003687
147	0xbe083ade	-0.13303706
148	0x3d81ce42	0.06338169
149	0xbde43359	-0.11142606
150	0x3d99eb28	0.075155556
151	0xbdddde2e	-0.10833393
152	0x3dc6acf9	0.09700961
153	0xbd673f05	-0.056456584
154	0x3de88e75	0.113552965
155	0x3db1ec8a	0.08687694
156	0xbe04e174	-0.12976629
157	0xbdbb31bb	-0.09140345
158	0xbbb3f80f	-0.0054922174
159	0xbdea79a9	-0.11448986
160	0x3cc7f68d	0.024409557
161	0xbd4f5b9d	-0.05062448
162	0xbd4414c7	-0.047871377
163	0x3def1b64	0.11675146
164	0x3c0e31a8	0.008678831
165	0xbc66d088	-0.014087804
166	0x3cca8205	0.024720201
167	0xbd340db3	-0.043958377
168	0x3d904246	0.07043891
169	0xbdd32ef9	-0.10311694
170	0x3db0c099	0.08630485
171	0x3dbb18d4	0.09135595
172	0xbd502d0b	-0.050824206
173	0xbdf24b90	-0.11830819
174	0xbdc2d4fc	-0.0951328
175	0xbd49405f	-0.049133655
176	0xbcc067d2	-0.023487005
177	0x3df700f7	0.12060731
178	0xbdfbc8a8	-0.122941315
179	0x3d356d74	0.044293836
180	0x3dce0966	0.10060386
181	0xbddadb4d	-0.106863596
182	0x3d2941e8	0.04132262
183	0xbdbd7242	-0.092503086
184	0xbd908275	-0.07056133
185	0xbccd1040	-0.025032163
186	0xbdacf5d5	-0.08445326
187	0x3ceaa62a	0.028643686
188	0x3db067d0	0.08613551
189	0xbd7531e7	-0.059862044
190	0x3d70fb3e	0.058833353
191	0xbdb6b9fe	-0.08922194
192	0xbc0b52ae	-0.008503599
193	0x3d6cdac9	0.057825837
194	0x3dbeca86	0.09315972
195	0x3d131d92	0.035916872
196	0xbc4cd321	-0.012501509
197	0xbde839b2	-0.113391295
198	0xbdbda93b	-0.09260794
199	0x3bdce014	0.0067405794
200	0xbcc01afc	-0.023450367
201	0x3db6f6eb	0.089338146
202	0x3db3c850	0.08778441
203	0xbd4ff3fa	-0.050769784
204	0xbda11109	-0.07864577
205	0x3dd67f87	0.10473543
206	0x3d75d6a2	0.060019143
207	0xbd79c72c	-0.06098096
208	0xbe021fe1	-0.12707473
209	0xbdde2bf8	-0.1084823
210	0xbd14d11b	-0.03633223
211	0xbe0901e0	-0.13379622
212	0xbde25498	-0.11051291
213	0x3dc1e692	0.09467806
214	0x3dc9bdb3	0.098506354
215	0x3daf138a	0.08548649
216	0x3c80fedc	0.015746526
217	0xbc049073	-0.00809108
218	0x3d88ebde	0.06685613
219	0xbd07fc38	-0.03319952
220	0xbd37913f	-0.04481625
221	0xbce793a3	-0.02826864
222	0x3dd8bf36	0.105833456
223	0x3db2caba	0.08730073
224	0xbddbcb1f	-0.10732102
225	0xbd910f27	-0.07082968
226	0x3dba6221	0.09100748
227	0xbe04306c	-0.12909096
228	0xbcf76ccb	-0.030203244
229	0xbde25530	-0.110514045
230	0xbd8e6fbb	-0.06954905
231	0xbd9528fa	-0.07283206
232	0x3c9c5928	0.019085482
233	0x3dd1b7ac	0.10240111
234	0x3dc1762c	0.094463676
235	0x3dfb1cb8	0.12261337
236	0xbd9c0c51	-0.07619537
237	0xbdd43aa4	-0.10362747
238	0xbdba43d6	-0.0909497
239	0x3d1fcbd2	0.039012738
240	0x3dd4b2f5	0.10385696
241	0xbdf5ceef	-0.1200236
242	0x3c9186f2	0.017764542
243	0xbdc5f681	-0.096661575
244	0xbd87e96b	-0.06636318
245	0x3d544370	0.051822126
246	0xbdbf5921	-0.09343172
247	0x3da2e726	0.07954244
248	0xbdddc937	-0.10829394
249	0x3d822ba8	0.06355983
250	0x3de326f1	0.11091412
251	0xbd88f703	-0.06687739
252	0xbd24e43a	-0.040256716
253	0x3d85fa58	0.0654189
254	0x3d752147	0.05984619
255	0xbd85c019	-0.0653078

components.0.net.linear.3.weight f4 [60, 60]
0	0xbdd3229d	-0.10309336
1	0x3b8cc380	0.0042957664
2	0x3dfbb61e	0.122905955
3	0x3e011be9	0.12608303
4	0xbdc345f8	-0.0953483
5	0x3d6e8a70	0.058237493
6	0xbd35652a	-0.04428593
7	0x3dc57824	0.09642056
8	0x3d907316	0.07053201
9	0x3df61fce	0.12017785
10	0xbd958c9e	-0.07302211
11	0x3d324a6c	0.043528005
12	0xbdf65151	-0.120272286
13	0xbd448568	-0.04797879
14	0x3ddb58e4	0.10710314
15	0x3c9a5298	0.018838212
16	0xbd14bf52	-0.03631527
17	0x3dc8962e	0.097942695
18	0x3c8aa2b0	0.016923279
19	0xbc87eae0	-0.01659149
20	0xbd44ffae	-0.048095398
21	0xbdcd5173	-0.10025301
22	0x3dbf5ee4	0.09344271
23	0xbde807a8	-0.11329585
24	0x3dd05aa8	0.10173541
25	0x3d1dbc04	0.038509384
26	0xbd837712	-0.06419195
27	0xbda2bcdc	-0.07946178
28	0x3dcdf834	0.100571066
29	0x3d33ecac	0.04392688
30	0xbda55cd4	-0.08074346
31	0x3dda98e4	0.10673693
32	0x3d8d20fc	0.06891057
33	0xbdaf9f30	-0.085752845
34	0xbdf00a7d	-0.117207505
35	0x3d23e728	0.04001537
36	0xbd88efd5	-0.06686369
37	0x3d634d24	0.05549349
38	0xbd67cce6	-0.05659189
39	0x3d747b5c	0.059687957
40	0xbd06da18	-0.032922834
41	0xbc3e92b0	-0.011631653
42	0x3df0e2fc	0.11762044
43	0xbd762d6e	-0.06010192
44	0xbd73a4c8	-0.05948332
45	0xbdae5a1a	-0.08513279
46	0x3c2f7210	0.010708347
47	0x3daf2308	0.085516036
48	0x3c4e5e00	0.0125956535
49	0x3dcd31a6	0.10019235
50	0xbd12cbb8	-0.035838813
51	0x3d9e4cf4	0.077295214
52	0xbde4d553	-0.11173501
53	0xbd6a65ba	-0.05722592
54	0xbcc70f94	-0.02429942
55	0x3c8997c8	0.016796008
56	0x3d904d92	0.07046045
57	0x3c3a92f0	0.011387572
58	0x3e00daf7	0.12583528
59	0xbd14611c	-0.036225423
60	0xbdb58fde	-0.08865331
61	0xbd398c6e	-0.04529994
62	0xbd3b8fba	-0.045791365
63	0x3db61d74	0.088923365
64	0x3dc20b4c	0.09474811
65	0xbdd377f9	-0.10325617
66	0xbce69780	-0.028148413
67	0x3d0c2cfc	0.034222588
68	0xbd7e287a	-0.06205032
69	0xbd3c264a	-0.045934953
70	0xbdae8484	-0.08521369
71	0xbd48cb38	-0.04902193
72	0x3d1b545c	0.03792225
73	0xbb3e33c0	-0.0029022545
74	0xbc59f528	-0.013303079
75	0xbbb26dd0	-0.0054452196
76	0xbd184a18	-0.037180036
77	0x3daaa9a2	0.08333136
78	0x3d493cb8	0.04913017
79	0xbda63680	-0.08115864
80	0x3cf7b9a0	0.03023988
81	0x3d754bc0	0.059886694
82	0xbdc72e1c	-0.097255915
83	0xbd54163a	-0.05177901
84	0xbdf36331	-0.11884154
85	0xbdee0693	-0.11622348
86	0xbd0c189a	-0.03420315
87	0xbd5393b8	-0.051654547
88	0xbbb646a0	-0.0055626184
89	0xbd417b46	-0.047236703
90	0xbe01c1c0	-0.12671566
91	0x3d4bb974	0.04973741
92	0xbd6c5f06	-0.05770781
93	0x3caec148	0.021332398
94	0xbcd061b4	-0.025437213
95	0x3df979a6	0.12181406
96	0x3d52b9bc	0.05144666
97	0x3d5f2b50	0.054484665
98	0x3b023a80	0.0019871294
99	0x3ddb4642	0.1070676
100	0x3d65dbc8	0.056117803
101	0xbd5cf208	-0.053941756
102	0xbb235380	-0.0024921596
103	0xbd73948c	-0.059467837
104	0x3d9f3d82	0.077754036
105	0xbde7f98d	-0.11326895
106	0xbde8f5e2	-0.113750234
107	0xbdfc84fd	-0.12330053
108	0x3d931c7e	0.07183169
109	0xbd55bcd4	-0.052182034
110	0x3c9e8480	0.01935029
111	0xbcaaf4c0	-0.020868659
112	0x3d9bb932	0.076036826
113	0xbd8873ca	-0.0666271
114	0xbdf41fc4	-0.11920121
115	0x3dff2692	0.124585286
116	0xbd153170	-0.0364241
117	0x3bd39d20	0.0064579397
118	0xbd9f64b0	-0.077828765
119	0xbd66bc52	-0.05633194
120	0xbce52654	-0.027972378
121	0x3e03e2ab	0.12879436
122	0xbdc94932	-0.09828414
123	0xbd9b006a	-0.07568438
124	0x3c8016c0	0.015635848
125	0xbd241d02	-0.040066727
126	0xbd9b8522	-0.075937524
127	0xbe03d7ac	-0.12875241
128	0xbdc11669	-0.094281025
129	0x3cc5dc10	0.024152786
130	0x3d8950ec	0.06704888
131	0xbce15770	-0.027507514
132	0x3dcb1b3c	0.09917304
133	0x3d6dc37c	0.058047757
134	0x3c939a70	0.018017977
135	0x3dc9e768	0.0985859
136	0x3dc460fe	0.09588812
137	0x3b73ec00	0.0037219524
138	0x3d78ee58	0.060774177
139	0x3d58e288	0.052950412
140	0xbe001b18	-0.12510335
141	0xbd86f886	-0.06590371
142	0x3da9364c	0.082623094
143	0xbca36fe8	-0.019950822
144	0x3d4d2bac	0.050090477
145	0xbd249948	-0.040185243
146	0xbc3acb78	-0.01140105
147	0xbd5917c8	-0.053001195
148	0x3db10a40	0.08644533
149	0x3c3e0b60	0.011599392
150	0xbcc0dacc	-0.02354183
151	0x3d2c29a0	0.042031884
152	0xbc7d49b0	-0.015459463
153	0x3da7e7a6	0.0819848
154	0xbd7b5af8	-0.06136605
155	0x3df41202	0.11917497
156	0xbdb18537	-0.08667987
157	0xbde04d52	-0.10952248
158	0xbdc28a88	-0.09499079
159	0x3c9958b0	0.018719047
160	0x3dace6a4	0.08442429
161	0xbdc15390	-0.094397664
162	0x3de8b8ac	0.11363348
163	0xbdb38b6c	-0.08766827
164	0xbcf16d5c	-0.029471092
165	0x3de319c8	0.11088902
166	0x3e03d217	0.12873112
167	0xbd916a82	-0.07100393
168	0x3d37d4f4	0.044880822
169	0xbde94407	-0.11389928
170	0xbc271d28	-0.0101998225
171	0x3dc16600	0.09443283
172	0x3d802b68	0.06258279
173	0xbd92d168	-0.07168847
174	0xbcb3a610	-0.02192977
175	0xbdf118be	-0.11772297
176	0x3ddf0544	0.10889676
177	0x3c915ac8	0.017743483
178	0x3d3819bc	0.044946417
179	0x3dd0554c	0.10172519
180	0xbccff148	-0.025383607
181	0xbd8cd00b	-0.068756185
182	0x3d289ab8	0.041163176
183	0xbda118cf	-0.0786606
184	0xbdd9ca44	-0.10634282
185	0xbd948831	-0.07252539
186	0x3d8ad96e	0.06779753
187	0x3cd1cac0	0.025609374
188	0x3df1b33e	0.11801766
189	0xbdb9995f	-0.09062456
190	0xbde94189	-0.11389453
191	0x3dabf192	0.08395685
192	0x3de6ab48	0.11263138
193	0x3dee9e72	0.11651315
194	0xbd1c26ce	-0.038122945
195	0xbda8f79c	-0.08250353
196	0x3d4b2124	0.049592152
197	0xbd591d76	-0.05300661
198	0xbc3e2b88	-0.011607058
199	0xbddf4464	-0.10901716
200	0x3b527900	0.0032115579
201	0x3dbc6e52	0.092007294
202	0xbd90a266	-0.07062225
203	0x3df16aa8	0.11787921
204	0x3c1c1b40	0.009527981
205	0xbdd036a6	-0.10166673
206	0x3dc481ce	0.09595071
207	0xbd760aa6	-0.06006875
208	0xbd54b652	-0.051931687
209	0xbde04dcc	-0.109523386
210	0x3d693ae0	0.056940913
211	0xbce16c28	-0.027517393
212	0x3d41fe6c	0.047361776
213	0x3d6e9e58	0.058256477
214	0x3d5bae7c	0.0536332
215	0xbd08ec84	-0.033428684
216	0x3d398c00	0.04529953
217	0x3d91c330	0.07117307
218	0xbc341558	-0.010991417
219	0x3df0e8fe	0.1176319
220	0xbcaa103c	-0.020759694
221	0xbd9bd176	-0.07608311
222	0x3dc61fb8	0.096740186
223	0x3de229c6	0.11043124
224	0xba403900	-0.00073327124
225	0xbdf4abb6	-0.11946814
226	0x3d46f534	0.048573688
227	0x3da85940	0.08220148
228	0xbd48dce4	-0.049038783
229	0xbdc097f7	-0.09403985
230	0xbd0eea82	-0.034891613
231	0x3d4073d8	0.046985477
232	0xbbc1b510	-0.005911477
233	0xbd309790	-0.04311329
234	0x3dc2ce5a	0.09512015
235	0xbd9023dc	-0.0703809
236	0x3da7c02c	0.08190951
237	0x3d6aaea4	0.057295457
238	0xbd51d1ae	-0.051225357
239	0xbd8d7d28	-0.06908637
240	0xbcd53604	-0.026026733
241	0x3e01e3d1	0.12684561
242	0xbd521d62	-0.051297553
243	0xbde1876b	-0.11012157
244	0xbdbd46d4	-0.09242025
245	0x3d78a118	0.060700506
246	0x3c173a50	0.009230211
247	0xbbdd9900	-0.006762624
248	0xbd34243a	-0.04397986
249	0xbd874cdb	-0.06606456
250	0xbc785378	-0.015156619
251	0xbdf886e0	-0.121351
252	0x3c5aa7b0	0.013345644
253	0xba7b8a00	-0.0009595454
254	0xbd99df29	-0.075132675
255	0xbd92c60c	-0.07166681

components.0.net.linear.3.bias f4 [1, 60]
0	0x00000000	0.0
1	0x00000000	0.0
2	0x00000000	0.0
3	0x00000000	0.0
4	0x00000000	0.0
5	0x00000000	0.0
6	0x00000000	0.0
7	0x00000000	0.0
8	0x00000000	0.0
9	0x00000000	0.0
10	0x00000000	0.0
11	0x00000000	0.0
12	0x00000000	0.0
13	0x00000000	0.0
14	0x00000000	0.0
15	0x00000000	0.0
16	0x00000000	0.0
17	0x00000000	0.0
18	0x00000000	0.0
19	0x00000000	0.0
20	0x00000000	0.0
21	0x00000000	0.0
22	0x00000000	0.0
23	0x00000000	0.0
24	0x00000000	0.0
25	0x00000000	0.0
26	0x00000000	0.0
27	0x00000000	0.0
28	0x00000000	0.0
29	0x00000000	0.0
30	0x00000000	0.0
31	0x00000000	0.0
32	0x00000000	0.0
33	0x00000000	0.0
34	0x00000000	0.0
35	0x00000000	0.0
36	0x00000000	0.0
37	0x00000000	0.0
38	0x00000000	0.0
39	0x00000000	0.0
40	0x00000000	0.0
41	0x00000000	0.0
42	0x00000000	0.0
43	0x00000000	0.0
44	0x00000000	0.0
45	0x00000000	0.0
46	0x00000000	0.0
47	0x00000000	0.0
48	0x00000000	0.0
49	0x00000000	0.0
50	0x00000000	0.0
51	0x00000000	0.0
52	0x00000000	0.0
53	0x00000000	0.0
54	0x00000000	0.0
55	0x00000000	0.0
56	0x00000000	0.0
57	0x00000000	0.0
58	0x00000000	0.0
59	0x00000000	0.0
