neuromancer/neuromancer/train_scripts/test_control/best_model_stat_dict.pth (torch, 81663 bytes, 42 tensors)

components.0.net.linear.0.weight f4 [3, 30]
-0.0998347 -0.08699328 -0.09723236 0.0016169746 -0.09008882 -0.056328844 -0.17319156 -0.04090967
0.04944442 0.0002646568 0.021290116 -0.16209452 -0.16793026 -0.057067316 0.063814454 0.18053687
-0.16818689 0.0630175 0.031516597 0.030180689 -0.08408997 -0.17585471 -0.058842868 -0.16696677
-0.008801949 0.07566063 0.17337498 -0.04296925 0.14773828 -0.13243237 -0.1689645 -0.04055617
0.09844071 -0.14003396 0.016380819 0.00014556124 -0.100288555 -0.14887998 0.07074246 0.15900517
0.17714612 -0.17903812 0.105394 -0.097932 0.0788048 0.16256276 0.07807565 -0.10206611
-0.114021 -0.02529294 0.030551601 -0.06431169 0.1418925 0.13292168 0.1390549 -0.14035311
-0.0058429297 0.05442308 -0.10250549 -0.08595719 0.04984136 -0.08614722 -0.038316797 0.17292261
0.09316855 -0.023694465 -0.11169041 0.10580258 -0.14169233 -0.08971036 0.10774191 0.08047277
-0.01648357 0.08321021 -0.16040722 -0.17447715 -0.1310306 0.1255537 0.04447601 0.021920895
0.12700473 -0.044740643 0.18193021 0.068474896 -0.0054642702 0.07407006 -0.13742232 0.18239182
-0.06057652 -0.040361814
00000000: 2376 ccbd 8829 b2bd c221 c7bd aaf0 d33a
00000010: 7d80 b8bd 13b9 66bd 2159 31be e690 27bd
00000020: 3b86 4a3d a2c1 8a39 9c68 ae3c 1bfc 25be
00000030: e9f5 2bbe 6bbf 69bd 27b1 823d a8de 383e
00000040: 2f39 2cbe 520f 813d 8c17 013d 7e3d f73c
00000050: 5d37 acbd 4213 34be 3805 71bd 56f9 2abe
00000060: 0d36 10bc f6f3 9a3d 3689 313e 8600 30bd
00000070: b448 173e 5a9c 07be 0805 2dbe 3a1e 26bd
00000080: 489b c93d 1065 0fbe 1131 863c cca1 1839
00000090: 1664 cdbd fe73 18be 6ce1 903d 40d2 223e
000000a0: cb65 353e c555 37be cfd8 d73d 9390 c8bd
000000b0: 6964 a13d da76 263e 20e6 9f3d 0908 d1bd
000000c0: d883 e9bd 2433 cfbc 5a47 fa3c d9b5 83bd
000000d0: 444c 113e 9f1c 083e 6864 0e3e bab8 0fbe
000000e0: 0c76 bfbb bcea 5e3d 66ee d1bd 530a b0bd
000000f0: 7426 4c3d f46d b0bd 13f2 1cbd a012 313e
00000100: 27cf be3d e51a c2bc f1bd e4bd 06af d83d
00000110: cb17 11be 11ba b7bd caa7 dc3d e8ce a43d
00000120: 8d08 87bc 1d6a aa3d ca41 24be 23aa 32be
00000130: e32c 06be 2691 003e 7a2c 363d 7393 b33c
00000140: 870d 023e f741 37bd ea4b 3a3e 913c 8c3d
00000150: 9f0d b3bb 0bb2 973d 70b8 0cbe ecc4 3a3e
00000160: 161f 78bd 6e52 25bd

components.0.net.linear.0.bias f4 [1, 30]
0.0 0.0 0.0 0.0 0.0 0.0 0.0 0.0
0.0 0.0 0.0 0.0 0.0 0.0 0.0 0.0
0.0 0.0 0.0 0.0 0.0 0.0 0.0 0.0
0.0 0.0 0.0 0.0 0.0 0.0
00000000: 0000 0000 0000 0000 0000 0000 0000 0000
00000010: 0000 0000 0000 0000 0000 0000 0000 0000
00000020: 0000 0000 0000 0000 0000 0000 0000 0000
00000030: 0000 0000 0000 0000 0000 0000 0000 0000
00000040: 0000 0000 0000 0000 0000 0000 0000 0000
00000050: 0000 0000 0000 0000 0000 0000 0000 0000
00000060: 0000 0000 0000 0000 0000 0000 0000 0000
00000070: 0000 0000 0000 0000

components.0.net.linear.0.linear.weight f4 [30, 3]
0.4952218 0.040069968 0.15312497 -0.32695448 -0.3827999 0.35641888 -0.31533167 -0.0550828
-0.7431774 -0.32289553 0.5120107 0.35901368 -0.4244296 0.51227313 0.3105278 -0.09466387
0.24371967 0.38193664 0.6051755 0.05687884 -0.24292515 -0.5825788 -0.8469845 -0.3943835
-0.60746473 0.5779424 -0.049831156 -0.32221928 -0.3581505 -0.24208896 0.18397345 -0.6914777
-0.5928512 -0.24454494 0.24928506 -0.33939046 0.21181919 0.48490384 0.36183855 -0.25059694
-0.307268 -0.7590784 0.012346551 -0.16939697 -0.874102 -0.0012248356 -0.91445017 -0.23295365
-0.25801793 0.2659646 0.40083194 0.48272768 -0.29713598 -0.2538479 0.19892061 0.3246705
-0.28532958 -0.33193687 0.14777973 -0.3586873 0.6445872 -0.12245519 -0.08581081 0.24993603
0.30574846 -0.19453451 -0.25840193 -0.17795987 -0.6239741 0.03608374 0.20980622 0.40430745
0.4707369 0.36348864 0.3905506 -0.6500488 0.4676509 -0.21352118 -0.33979058 0.36098757
0.5005505 -0.00294512 -0.48111597 -0.9791506 0.5024448 0.034949344 0.25985187 -0.3702693
-0.87919533 0.17091599
00000000: b68d fd3e 6820 243d cbcc 1c3e 9466 a7be
00000010: 59fe c3be 897c b63e 2773 a1be 819e 61bd
00000020: e040 3ebf 9052 a5be 2213 033f a4d0 b73e
00000030: d64e d9be 5524 033f 80fd 9e3e 22df c1bd
00000040: a691 793e 338d c33e c8ec 1a3f c9f9 683d
00000050: 5fc1 78be e223 15bf fad3 58bf a2ec c9be
00000060: cf82 1bbf 08f4 133f c11b 4cbd edf9 a4be
00000070: 815f b7be 2be6 77be 8963 3c3e af04 31bf
00000080: 19c5 17bf fd69 7abe 9544 7f3e 96c4 adbe
00000090: 21e7 583e 5145 f83e e742 b93e 3e4e 80be
000000a0: 3b52 9dbe f652 42bf 3049 4a3c 6676 2dbe
000000b0: 26c5 5fbf aa8a a0ba 6819 6abf 678b 6ebe
000000c0: ed1a 84be 832c 883e d839 cd3e 1528 f73e
000000d0: 3522 98be 5af8 81be d8b1 4b3e 363b a63e
000000e0: b816 92be a1f3 a9be 9253 173e dda5 b7be
000000f0: ab03 253f c9c9 fabd 94bd afbd 3bef 7f3e
00000100: 108b 9c3e 0e34 47be 424d 84be 1d3b 36be
00000110: c4bc 1fbf 8bcc 133d 71d7 563e 6301 cf3e
00000120: 6d04 f13e 2f1b ba3e 40f6 c73e 9969 26bf
00000130: f06f ef3e 4ca5 5abe 08f9 adbe 5dd3 b83e
00000140: 1424 003f ea02 41bb d554 f6be 9da9 7abf
00000150: 39a0 003f 0b27 0f3d 4e0b 853e f093 bdbe
00000160: f212 61bf 9a04 2f3e

components.0.net.linear.1.weight f4 [30, 30]
0.05698361 0.029488055 -0.09712813 0.17799307 0.033700496 -0.05448221 -0.096965805 -0.14913768
-0.1300093 0.065863214 -0.073150285 -0.12727435 0.05422319 -0.08922827 0.029486772 -0.057586424
-0.068122245 0.111639746 -0.0903039 -0.13517226 -0.10891112 -0.124535166 0.14310344 -0.14206105
0.13109043 -0.07830296 -0.05607394 -0.09318568 -0.0051240036 0.039240222 0.15870647 -0.031644356
0.0073260744 -0.13802563 -0.06104942 0.14268845 0.12138044 -0.12690328 -0.076790236 0.15437463
0.018296903 0.04578865 -0.054344922 0.11983599 -0.12019614 -0.09942687 0.016674249 -0.09262498
-0.00978464 0.033752274 0.062394492 0.0028269307 -0.109594025 0.019510755 0.054299388 0.10201753
0.015482335 0.094002694 -0.059545252 -0.11495416 0.04901694 -0.14598449 0.041172393 -0.06664939
0.015238485 -0.005301994 -0.14983746 -0.1696283 -0.09288078 -0.0695261 0.082062036 0.18063572
0.18035778 0.036833912 -0.14804505 -0.17504665 -0.1474134 -0.11620855 -0.02890322 0.14115256
-0.051189084 0.11452979 0.071662374 0.012336315 -0.053253908 -0.02624921 0.05434403 0.08065433
-0.010313083 0.053672638 0.028295249 0.017655307 0.05512309 0.079909116 -0.17235722 0.13877426
0.109728664 -0.08267386 -0.16831948 -0.096787944 -0.087809965 0.004861088 -0.111907035 -0.0025733085
0.14019553 -0.020652631 0.1448986 0.055020493 -0.115184665 0.0732789 0.06547687 -0.02123109
-0.0973762 -0.13624851 -0.029488033 -0.14487252 -0.12435622 -0.17801645 -0.045699503 -0.017071603
-0.1226659 -0.14251906 -0.09863497 0.031260494 -0.14851178 0.11889012 -0.15522978 -0.04975661
-0.091917045 0.09015009 -0.12637153 -0.090976834 -0.17975438 -0.16734077 0.1653519 0.017674437
-0.13063833 -0.16246977 0.17380068 -0.16534056 -0.15363936 0.13993177 0.026374768 0.09512479
0.114377305 -0.011331337 0.052258834 -0.118356824 0.048199005 0.06316191 0.15964982 -0.0140442
-0.022730688 0.07334251 0.0906875 -0.054837342 0.023761151 0.052432712 -0.11389085 0.021408819
0.0138088595 -0.026397316 -0.08256095 0.0037381249 -0.07521983 -0.018447101 -0.07009437 0.06944043
-0.14684454 0.10880328 -0.01260021 0.0052569197 -0.14182498 -0.16691591 -0.089469336 -0.12953039
0.13153456 0.1357773 -0.13200957 -0.04637344 -0.17666572 -0.1705617 0.032209013 -0.03945134
0.15994592 0.03416597 -0.048948772 -0.11523163 -0.02981017 0.14198685 0.15041305 -0.13683648
-0.05127867 -0.04110024 -0.08557982 0.13395843 -0.017739775 -0.119540535 0.01392604 0.009521876
-0.064964816 -0.077738315 -0.11732991 0.015041495 -0.17360513 -0.13348316 -0.10877701 -0.12840593
-0.023733184 -0.0036294544 -0.02721908 -0.15557197 0.106038116 -0.074452266 0.07371904 0.07778431
-0.11039607 -0.15736362 0.076591566 -0.046663105 -0.1420142 -0.020429742 -0.14130858 -0.15973349
-0.048215244 -0.023061967 -0.027945036 0.03136366 -0.12568958 0.124932714 -0.11216807 -0.016174382
0.055783622 -0.13639699 0.013686521 -0.0054205456 -0.12692592 -0.15367414 0.1677845 -0.09354155
-0.03572723 -0.020641096 0.17515165 -0.17137922 -0.09992128 0.08100548 -0.106646456 -0.17970407
0.15256564 -0.06493672 -0.03368822 -0.034598935 -0.13181712 -0.09199365 -0.027708085 0.116550714
00000000: a567 693d ef90 f13c 1deb c6bd d143 363e
00000010: 8809 0a3d bd28 5fbd 0296 c6bd 8cb7 18be
00000020: 2821 05be 4be3 863d d1cf 95bd 3554 02be
00000030: 2319 5e3d 50bd b6bd 3e8e f13c bedf 6bbd
00000040: ad83 8bbd 61a3 e43d 40f1 b8bd 996a 0abe
00000050: cb0c dfbd 4b0c ffbd b589 123e 7478 11be
00000060: 923c 063e 4d5d a0bd caad 65bd 22d8 bebd
00000070: 42e7 a7bb 5bba 203d f383 223e 839d 01bd
00000080: 910f f03b 9756 0dbe f50e 7abd ec1c 123e
00000090: 4f96 f83d eff2 01be 3344 9dbd 6214 1e3e
000000a0: 63e3 953c e18c 3b3d c898 5ebd 926c f53d
000000b0: 6529 f6bd 51a0 cbbd 6f98 883c 2ab2 bdbd
000000c0: c14f 20bc d33f 0a3d 5e91 7f3d 0744 393b
000000d0: d572 e0bd 05d5 9f3c 0969 5e3d 91ee d03d
000000e0: 9fa9 7d3c 7c84 c03d b9e5 73bd 166d ebbd
000000f0: fdc5 483d f57c 15be 62a4 283d 7a7f 88bd
00000100: d7aa 793c 59bc adbb fe6e 19be 0bb3 2dbe
00000110: 4738 bebd b363 8ebd 2410 a83d 92f8 383e
00000120: b6af 383e 28df 163d 1f99 17be 6e3f 33be
00000130: 8af3 16be c0fe edbd 72c6 ecbc 4c8a 103e
00000140: a5ab 51bd 988e ea3d b9c3 923d 411e 4a3c
00000150: c520 5abd 9508 d7bc d897 5e3d 192e a53d
00000160: 35f8 28bc d7d7 5b3d 70cb e73c dda1 903c
00000170: c0c8 613d 64a7 a33d 697e 30be d71a 0e3e
00000180: 6cb9 e03d ea50 a9bd f15b 2cbe c238 c6bd
00000190: b6d5 b3bd c349 9f3b 842f e5bd f4a4 28bb
000001a0: 6b8f 0f3e b52f a9bc 4c60 143e 2b5d 613d
000001b0: f0e5 ebbd 3f13 963d bd18 863d d3ec adbc
000001c0: 2c6d c7bd bb84 0bbe e390 f1bc 7659 14be
000001d0: 79ae febd f249 36be 672f 3bbd bfd9 8bbc
000001e0: 4238 fbbd 84f0 11be 2201 cabd 010b 003d
000001f0: 7913 18be aa7c f33d 8ef4 1ebe 96cd 4bbd
00000200: 013f bcbd 9ca0 b83d 8a67 01be 1052 babd
00000210: 8811 38be 615b 2bbe 0252 293e fbc9 903c
00000220: 0ec6 05be 7a5e 26be cef8 313e 094f 29be
00000230: a353 1dbe 464a 0f3e e60f d83c c9d0 c23d
00000240: a63e ea3d 12a7 39bc 5c0d 563d 1065 f2bd
00000250: 526c 453d 085b 813d 3e7b 233e a519 66bc
00000260: b535 babc 9934 963d 5eba b93d 1f9d 60bd
00000270: bfa6 c23c afc3 563d 9b3f e9bd 8c61 af3c
00000280: 8e3e 623c 2f3f d8bc b715 a9bd 54fb 743b
00000290: db0c 9abd 601e 97bc a38d 8fbd c936 8e3d
000002a0: 6a5e 16be 41d4 de3d 1c71 4ebc 3d42 ac3b
000002b0: 913a 11be 01ec 2abe b33b b7bd 9da3 04be
000002c0: ffb0 063e 3409 0b3e 842d 07be 14f2 3dbd
000002d0: dce7 34be baa7 2ebe 99ed 033d ba97 21bd
000002e0: ddc8 233e 9ef1 0b3d 827e 48bd 90fe ebbd
000002f0: 7534 f4bc 0065 113e e105 1a3e dd1e 0cbe
00000300: 9509 52bd ba58 28bd 7944 afbd 662c 093e
00000310: 0153 91bc abd1 f4bd 0c2a 643c a501 1c3c
00000320: 460c 85bd 4435 9fbd aa4a f0bd 9a70 763c
00000330: 8bc5 31be cfaf 08be 7bc6 debd d87c 03be
00000340: 186c c2bc 24dc 6dbb 8cfa debc 424e 1fbe
00000350: 832a d93d 6e7a 98bd 02fa 963d 614d 9f3d
00000360: 5617 e2bd ee23 21be 0adc 9c3d d021 3fbd
00000370: 2c6c 11be 465c a7bc 32b3 10be 2d91 23be
00000380: 597d 45bd 73ec bcbc fdec e4bc 2e77 003d
00000390: c5b4 00be b9dc ff3d 60b8 e5bd 2380 84bc
000003a0: 5e7d 643d a7ab 0bbe 6e3d 603c d59e b1bb
000003b0: def8 01be c15c 1dbe b3cf 2b3e b692 bfbd
000003c0: b756 12bd 8417 a9bc f45a 333e 097e 2fbe
000003d0: 87a3 ccbd 33e6 a53d 7569 dabd 5804 38be
000003e0: 2b3a 1c3e 8bfd 84bd a9fc 09bd 9db7 0dbd
000003f0: 11fb 06be 2b67 bcbd 11fc e2bc 24b2 ee3d

components.0.net.linear.1.bias f4 [1, 30]
0.0 0.0 0.0 0.0 0.0 0.0 0.0 0.0
0.0 0.0 0.0 0.0 0.0 0.0 0.0 0.0
0.0 0.0 0.0 0.0 0.0 0.0 0.0 0.0
0.0 0.0 0.0 0.0 0.0 0.0
00000000: 0000 0000 0000 0000 0000 0000 0000 0000
00000010: 0000 0000 0000 0000 0000 0000 0000 0000
00000020: 0000 0000 0000 0000 0000 0000 0000 0000
00000030: 0000 0000 0000 0000 0000 0000 0000 0000
00000040: 0000 0000 0000 0000 0000 0000 0000 0000
00000050: 0000 0000 0000 0000 0000 0000 0000 0000
00000060: 0000 0000 0000 0000 0000 0000 0000 0000
00000070: 0000 0000 0000 0000

components.0.net.linear.1.linear.weight f4 [30, 30]
-0.05576567 -0.08908854 0.054152988 -0.19628552 -0.14346702 0.044747368 0.07473022 0.29804
-0.07309861 0.07907477 0.07135959 0.079207055 -0.20227847 0.2345334 0.06444791 0.059594203
-0.17833725 0.09348976 0.0076090377 -0.03897553 -0.095111854 -0.1104786 0.18112864 0.02566339
0.0057443962 -0.20483261 -0.21327648 0.07152354 -0.01648637 0.2291318 0.00994978 -0.11392409
0.075068876 0.018611006 0.22774887 0.09621622 -0.15889664 -0.0013654977 0.16639526 0.002350725
-0.18396857 -0.011973399 0.15855339 0.012852704 0.061001856 0.059750754 -0.115218975 -0.1773312
0.06955913 -0.12545459 -0.0141276205 0.09508264 0.052366212 0.06035372 -0.12204524 0.06762232
-0.1263864 0.04960066 0.1244268 0.10427427 0.1670342 -0.114469565 0.03910412 -0.14185742
-0.25872084 -0.17314743 0.12031486 0.23142166 0.048734516 0.123656645 0.15218504 0.19230314
-0.012338246 0.20508881 0.21082468 -0.03146872 -0.30085322 0.27031034 0.17739128 0.052991193
0.25658625 -0.093269676 0.063281156 -0.06317826 0.059664134 0.19694023 -0.08711079 0.044748046
0.009904785 0.0015871391 -0.07317382 0.08086695 -0.16826089 0.07715718 0.11819735 -0.044753086
0.16810535 -0.17017959 -0.015501046 -0.042301364 -0.06365135 0.1153235 -0.019769955 0.0656885
-0.12767297 -0.18225263 -0.1370529 -0.07236132 -0.096150875 -0.1166582 0.1685755 0.16872872
-0.13797335 -0.07608875 -0.11731689 -0.06544819 -0.054577142 -0.25085658 -0.12258659 -0.2436162
-0.08341561 -0.095648564 0.09802499 -0.19678241 0.019043412 -0.063128404 -0.1213016 0.11372378
-0.25596902 0.103430375 -0.07052933 0.069692254 -0.14906637 0.1203152 0.11416735 0.2105099
0.03768741 0.11939088 0.06357646 0.008613485 -0.15498269 0.034434207 0.060615234 -0.014590645
-0.04316143 -0.22879796 0.00044010265 0.12869392 -0.074674204 0.018402508 -0.05625154 0.035077818
-0.18725687 0.03381777 0.03788801 0.06881739 0.17747457 -0.020891242 0.1074604 -0.2129133
-0.26331493 0.14276637 0.17786962 0.066356204 -0.24086455 -0.06620979 0.15331137 0.031073406
-0.028608395 -0.15129122 0.129621 0.22979039 -0.13941275 0.0022173466 0.15262184 0.02931176
0.041561194 -0.20204332 -0.1379588 -0.011827584 -0.19370149 0.19800125 -0.10453308 0.059860125
0.08526718 0.037566986 -0.13967375 -0.023223912 -0.21547253 0.039337765 0.21450798 0.016843472
-0.11960318 0.080438204 0.18244797 -0.07892583 -0.04357434 0.16890556 -0.17235194 0.03644436
-0.096620135 -0.07941873 -0.01825219 -0.16169621 -0.20192902 -0.1599071 -0.1245851 -0.04941058
0.114906505 0.14448518 0.16027558 -0.17067511 -0.05179214 -0.14210469 0.23014803 0.16652991
0.0947815 -0.15824953 0.09310637 0.050598245 -0.15425228 0.0791055 0.054660365 0.108293615
0.03016892 -0.25468814 -0.03173789 -0.103821196 -0.09065654 0.1206567 0.10017417 0.21865296
0.058526613 0.08541095 -0.09470755 0.09731644 0.17074233 -0.009864117 0.012340446 -0.1472192
0.020374073 -0.14844903 0.043131243 -0.054642804 0.07973999 -0.10110787 0.10636813 -0.077276245
-0.12241208 -0.2238481 0.020811636 0.039204314 0.08534565 0.09078159 -0.07217482 -0.2347854
00000000: 8b6a 64bd 0d74 b6bd 86cf 5d3d 12ff 48be
00000010: 05e9 12be 0449 373d 280c 993d b398 983e
00000020: b9b4 95bd f4f1 a13d fa24 923d 4f37 a23d
00000030: 1622 4fbe 8629 703e 44fd 833d 0d19 743d
00000040: 0a9e 36be 8f77 bf3d 3c55 f93b cea4 1fbd
00000050: 01ca c2bd 9b42 e2bd c979 393e 083c d23c
00000060: 7d3b bc3b a4bf 51be 2665 5abe ef7a 923d
00000070: 6c0e 87bc 87a1 6a3e 6704 233c 0951 e9bd
00000080: b6bd 993d 1c76 983c 0037 693e 020d c53d
00000090: cdb5 22be 80fa b2ba 8563 2a3e 9f0e 1a3b
000000a0: 4262 3cbe 132c 44bc d25b 223e 2694 523c
000000b0: 15dd 793d 35bd 743d edf7 ebbd 4f96 35be
000000c0: 0475 8e3d 2b77 00be 8977 67bc b0ba c23d
000000d0: f47d 563d 7635 773d dbf2 f9bd 927d 8a3d
000000e0: 706b 01be 102a 4b3d 7ad3 fe3d c08d d53d
000000f0: 030b 2b3e 056f eabd a42b 203d 1243 11be
00000100: 0f77 84be 8f4d 31be a367 f63d cdf9 6c3e
00000110: d89d 473d b23f fd3d 65d6 1b3e 1deb 443e
00000120: 5b26 4abc cd02 523e 6de2 573e 58e5 00bd
00000130: 6f09 9abe 1e66 8a3e 0fa6 353e 4b0d 593d
00000140: 465f 833e 2c04 bfbd 8d99 813d 9b63 81bd
00000150: 6162 743d b3aa 493e 2467 b2bd ba49 373d
00000160: ae47 223c 8d07 d03a 28dc 95bd 929d a53d
00000170: 954c 2cbe 9504 9e3d 7411 f23d 034f 37bd
00000180: cf23 2c3e 8f43 2ebe 19f8 7dbc 3244 2dbd
00000190: a45b 82bd ba2e ec3d 9af4 a1bc b187 863d
000001a0: b4bc 02be 6fa0 3abe 9857 0cbe 2c32 94bd
000001b0: c0ea c4bd 7fea eebd 0e9f 2c3e 39c7 2c3e
000001c0: e348 0dbe 6bd4 9bbd d643 f0bd b309 86bd
000001d0: 488c 5fbd 4670 80be ae0e fbbd 8676 79be
000001e0: ced5 aabd 65e3 c3bd 53c1 c83d 5481 49be
000001f0: ee00 9c3c 7749 81bd f96c f8bd 03e8 e83d
00000200: 5f0e 83be 4ed3 d33d ae71 90bd d0ba 8e3d
00000210: dba4 18be d167 f63d 92d0 e93d e88f 573e
00000220: 1d5e 1a3d 3583 f43d 6034 823d 931f 0d3c
00000230: c8b3 1ebe e20a 0d3d ae47 783d 9a0d 6fbc
00000240: 0aca 30bd 034a 6abe 94bd e639 57c8 033e
00000250: caee 98bd dbc0 963c 0468 66bd c2ad 0f3d
00000260: 44c0 3fbe 8184 0a3d 7530 1b3d 22f0 8c3d
00000270: e5bb 353e 1c24 abbc 3314 dc3d f205 5abe
00000280: 37d1 86be 5931 123e 7423 363e c3e5 873d
00000290: 32a5 76be 0099 87bd a8fd 1c3e a88d fe3c
000002a0: 275c eabc 16ec 1abe 5ebb 043e 2c4e 6b3e
000002b0: 37c2 0ebe e750 113b e648 1c3e 371f f03c
000002c0: 123c 2a3d 72e4 4ebe 1245 0dbe 7cc8 41bc
000002d0: af59 46be d7c0 4a3e 7015 d6bd e42f 753d
000002e0: 8fa0 ae3d d7df 193d a306 0fbe 1340 bebc
000002f0: d5a4 5cbe a320 213d fba7 5b3e 52fb 893c
00000300: 83f2 f4bd c9bc a43d a4d3 3a3e dea3 a1bd
00000310: 027b 32bd 94f5 2c3e 077d 30be ae46 153d
00000320: c7e0 c5bd 4aa6 a2bd 9e85 95bc b193 25be
00000330: 7bc6 4ebe b0be 23be 7926 ffbd c062 4abd
00000340: 1a54 eb3d ecf3 133e 481f 243e 75c5 2ebe
00000350: ff23 54bd e483 11be edab 6b3e d186 2a3e
00000360: ce1c c23d 2a0c 22be 8dae be3d 1b40 4f3d
00000370: 4ff4 1dbe 1002 a23d 8ce3 5f3d 0bc9 dd3d
00000380: d024 f73c 7c66 82be 97ff 01bd 35a0 d4bd
00000390: 23aa b9bd dc1a f73d 1e28 cd3d 90e6 5f3e
000003a0: 9ab9 6f3d f0eb ae3d 08f6 c1bd d74d c73d
000003b0: 14d7 2e3e 1b9d 21bc 952f 4a3c a1c0 16be
000003c0: 87e7 a63c 0603 18be 63aa 303d 22d1 5fbd
000003d0: b84e a33d a511 cfbd 89d7 d93d 0243 9ebd
000003e0: 2fb3 fabd 7038 65be 2a7d aa3c b494 203d
000003f0: b3c9 ae3d b3eb b93d 64d0 93bd 956b 70be

components.0.net.linear.2.weight f4 [30, 30]
0.067978464 0.039438475 -0.1266501 0.063252345 0.0042533567 -0.061915345 -0.002820706 0.17107956
0.048295643 0.15150781 -0.16847244 -0.15352222 0.13482918 -0.048337102 -0.026270343 -0.060521696
-0.17344886 -0.17291245 -0.1728068 -0.044049077 0.09840919 0.15731934 -0.15569304 -0.14178847
0.13136858 -0.16851865 -0.08723699 -0.04612317 -0.026709486 -0.008622631 0.04141132 -0.18023017
0.016262768 -0.12521558 0.1661922 -0.003684867 0.08133804 -0.100107 0.1669913 -0.01787047
0.15857103 -0.09284141 -0.075850226 0.068578236 -0.010116811 -0.094165996 -0.023283878 -0.16099891
0.15250131 0.020319853 -0.010444693 0.103098705 0.06366121 0.13987991 0.1166445 -0.0112144835
-0.07070241 -0.073663734 0.16768245 0.013866971 -0.10114843 -0.06539495 0.14939946 -0.08165726
0.04443063 0.009045364 0.051463164 0.17072122 -0.15125854 -0.16156977 -0.06426433 -0.026264552
0.07043135 -0.0071232943 -0.000911673 -0.17709582 -0.14834268 0.13579123 0.002209427 0.07754278
-0.105405614 -0.10112623 0.037570577 -0.0642838 -0.12870386 0.15564002 0.123732574 0.12987807
-0.077494204 -0.13589185 -0.14104655 0.062387224 0.16002676 0.14946406 -0.02985309 -0.04429667
0.14903194 0.12030699 -0.10591349 0.099395275 -0.08253753 -0.09735946 0.023360597 0.07542982
0.13884658 0.062155955 0.072085 -0.007724365 0.109369546 0.074467786 -0.0966973 0.039697494
-0.069707684 -0.0067067426 0.0225621 0.10206565 -0.046265945 -0.07089768 -0.16304399 -0.052694734
0.15337956 0.018138567 0.023139186 0.044328097 -0.0108027635 0.12149427 0.17282793 0.109936364
0.1768633 -0.16926843 0.059977736 -0.04275104 -0.09467291 -0.16419277 0.08678699 -0.13634567
-0.04939179 0.027082529 0.14977746 0.06609152 -0.10871144 0.13401726 -0.028086832 0.03525853
-0.10904602 -0.16438434 0.1411982 0.033800546 0.05729863 0.019571412 0.0114079695 0.015168185
-0.102864 -0.07569306 0.09470384 0.16274914 -0.020108953 -0.04066532 0.08636961 -0.062317077
0.18160333 -0.027250117 -0.12415862 -0.12378398 -0.119373076 -0.029239526 0.0208074 0.0022687572
0.057418704 -0.01932791 -0.047825832 -0.018468603 -0.11656715 -0.14424892 -0.023863925 0.15247922
0.11652342 0.076467834 0.091284215 0.14294519 0.056700714 0.1011806 0.019954447 0.104855776
0.16797225 -0.0852594 0.09976745 -0.07930839 -0.09461487 -0.117768504 0.0674174 -0.13194181
-0.08028277 0.15140373 0.08568988 0.11573727 -0.0014410083 -0.030397072 0.014944925 0.05955435
0.17710248 0.115880474 0.052627698 0.12617403 -0.090838544 -0.07368254 0.06678492 0.1285933
-0.05444961 0.012510213 0.0390379 -0.009533913 0.15526699 -0.099656075 -0.047544982 -0.0017172438
0.021804586 0.08220155 -0.12913086 -0.0687071 0.03696648 -0.16422418 -0.092538506 -0.044842392
-0.13381957 -0.12249524 0.15298447 0.010294496 -0.047293082 0.055153146 0.11916764 -0.10580267
0.10606123 0.034592774 0.03558058 0.16962713 0.024740035 -0.055091858 -0.12749098 0.08421051
0.08685825 0.07110207 -0.12749708 0.09352571 0.17157179 0.027549574 0.16578439 0.1281047
0.09494045 0.13446891 0.11421869 -0.064670585 -0.07223505 0.13392417 0.11100628 -0.16298261
00000000: 4b38 8b3d 3d8a 213d 90b0 01be 728a 813d
00000010: be5f 8b3b f29a 7dbd 98db 38bb 7b2f 2f3e
00000020: a7d1 453d dd24 1b3e 0a84 2cbe ee34 1dbe
00000030: a910 0a3e 20fd 45bd e734 d7bc 99e5 77bd
00000040: 949c 31be f60f 31be 44f4 30be ce6c 34bd
00000050: c28a c93d 5218 213e ff6d 1fbe ff30 11be
00000060: 7c85 063e 2790 2cbe 4fa9 b2bd a6eb 3cbd
00000070: dacd dabc f045 0dbc eb9e 293d 428e 38be
00000080: 7f39 853c 8338 00be 4a2e 2a3e cf7d 71bb
00000090: 8f94 a63d e604 cdbd c4ff 2a3e 1865 92bc
000000a0: 7260 223e a323 bebd 5d57 9bbd bf72 8c3d
000000b0: fbc0 25bc 1ada c0bd d5bd bebc e6dc 24be
000000c0: 4e29 1c3e d275 a63c 3820 2bbc 6a25 d33d
000000d0: cf60 823d ae3c 0f3e 50e3 ee3d f4bc 37bc
000000e0: 6dcc 90bd 03dd 96bd f3b4 2b3e 4b32 633c
000000f0: e826 cfbd caed 85bd 2cfc 183e ec3b a7bd
00000100: e4fc 353d 0233 143c 0acb 523d 8bd1 2e3e
00000110: 85e3 1abe 8c72 25be 049d 83bd c228 d7bc
00000120: 503e 903d 866a e9bb 57fd 6eba 9b58 35be
00000130: 25e7 17be db0c 0b3e 09cc 103b c0ce 9e3d
00000140: e6de d7bd 451b cfbd 9be3 193d 3aa7 83bd
00000150: f2ca 03be 1960 1f3e 8167 fd3d c2fe 043e
00000160: 48b5 9ebd 3c27 0bbe 826e 10be bf89 7f3d
00000170: 0ede 233e 1b0d 193e 788e f4bc 6d70 35bd
00000180: d49b 183e 8363 f63d 2ce9 d8bd c08f cb3d
00000190: 7009 a9bd 6664 c7bd b95e bf3c f37a 9a3d
000001a0: cc2d 0e3e 3e97 7e3d 4da1 933d ac1c fdbb
000001b0: 24fd df3d 9182 983d 3c09 c6bd d799 223d
000001c0: e7c2 8ebd 3cc4 dbbb 27d4 b83c cc07 d13d
000001d0: 5c81 3dbd ce32 91bd 01f5 26be 6fd6 57bd
000001e0: 880f 1d3e 5597 943c 648e bd3c 6191 353d
000001f0: 13fe 30bc fdd1 f83d cef9 303e 5126 e13d
00000200: a71b 353e b454 2dbe 37ab 753d b71b 2fbd
00000210: dfe3 c1bd 2622 28be 61bd b13d 339e 0bbe
00000220: 0c4f 4abd 2edc dd3c 435f 193e fe5a 873d
00000230: 1aa4 debd d23b 093e 5b16 e6bc 406b 103d
00000240: 8553 dfbd 5e54 28be 4396 103e 7172 0a3d
00000250: f8b1 6a3d 3a54 a03c 7ee8 3a3c fb83 783c
00000260: 5caa d2bd f704 9bbd 16f4 c13d b6a7 263e
00000270: 88bb a4bc ae90 26bd 8de2 b03d 3140 7fbd
00000280: 39f6 393e a33b dfbc e046 febd 7582 fdbd
00000290: df79 f4bd bb87 efbc 4874 aa3c 6eaf 143b
000002a0: e02f 6b3d 9155 9ebc 05e5 43bd 784b 97bc
000002b0: c2ba eebd fdb5 13be 477e c3bc 8323 1c3e
000002c0: d5a3 ee3d 2b9b 9c3d 38f3 ba3d 3960 123e
000002d0: 023f 683d c637 cf3d 8277 a33c a0be d63d
000002e0: eb00 2c3e 7b9c aebd e052 cc3d 706c a2bd
000002f0: 71c5 c1bd 9d30 f1bd 2212 8a3d c11b 07be
00000300: 4b6b a4bd 9409 1b3e 2d7e af3d a907 ed3d
00000310: 37e0 bcba 4803 f9bc 8fdb 743c 43ef 733d
00000320: 5a5a 353e be52 ed3d 2490 573d c433 013e
00000330: 8f09 babd dfe6 96bd 88c6 883d f6ad 033e
00000340: 8e06 5fbd a3f7 4c3c 34e6 1f3d 2134 1cbc
00000350: 4ffe 1e3e 7c18 ccbd 87be 42bd 2415 e1ba
00000360: 889f b23c 4959 a83d e13a 04be 4fb6 8cbd
00000370: 2a6a 173d 622a 28be d484 bdbd a8ac 37bd
00000380: ff07 09be c9de fabd f6a7 1c3e 3faa 283c
00000390: 64b6 41bd 44e8 613d 2a0e f43d 12af d8bd
000003a0: a136 d93d 27b1 0d3d f1bc 113d bcb2 2d3e
000003b0: 9dab ca3c 00a8 61bd ff8c 02be 8f76 ac3d
000003c0: bde2 b13d f69d 913d 988e 02be 688a bf3d
000003d0: 84b0 2f3e a5af e13c 62c3 293e e12d 033e
000003e0: 2370 c23d 38b2 093e 7deb e93d 0372 84bd
000003f0: f8ef 93bd 6b23 093e 4357 e33d eae4 26be

components.0.net.linear.2.bias f4 [1, 30]
0.0 0.0 0.0 0.0 0.0 0.0 0.0 0.0
0.0 0.0 0.0 0.0 0.0 0.0 0.0 0.0
0.0 0.0 0.0 0.0 0.0 0.0 0.0 0.0
0.0 0.0 0.0 0.0 0.0 0.0
00000000: 0000 0000 0000 0000 0000 0000 0000 0000
00000010: 0000 0000 0000 0000 0000 0000 0000 0000
00000020: 0000 0000 0000 0000 0000 0000 0000 0000
00000030: 0000 0000 0000 0000 0000 0000 0000 0000
00000040: 0000 0000 0000 0000 0000 0000 0000 0000
00000050: 0000 0000 0000 0000 0000 0000 0000 0000
00000060: 0000 0000 0000 0000 0000 0000 0000 0000
00000070: 0000 0000 0000 0000

components.0.net.linear.2.linear.weight f4 [30, 30]
-0.100386426 -0.018615361 -0.27773663 -0.06642592 0.12091709 0.11261114 0.10410777 0.019953933
-0.01541001 0.28122133 -0.07260029 0.11257451 -0.05306476 0.020458665 -0.03699422 0.046099454
0.01641329 0.0929627 0.077026434 0.06858052 -0.02243147 -0.06645434 -0.11358971 -0.046879422
-0.20688477 0.16247821 0.047597297 -0.011271 -0.02474775 -0.17239109 -0.1847961 0.108300745
-0.05088231 0.18389326 -0.23191574 0.023306202 0.07710943 0.010144942 0.14650482 -0.020724706
0.066327184 -0.25762343 -0.045341138 0.08296282 0.12790236 -0.07287728 0.08220788 0.08963913
-0.0102787735 -0.1039618 -0.042236328 0.016531292 0.28503346 0.26970434 0.06098177 -0.18003073
0.06171455 0.05031991 -0.012194856 -0.23091717 0.06527586 -0.011269506 0.15142839 -0.15291993
-0.16019554 0.11251355 0.058312126 0.09462253 -0.138545 -0.035113063 0.03347595 -0.075297356
-0.0057325056 0.07965693 -0.09026406 -0.1249456 0.10679882 0.08441393 0.005428106 -0.10915975
-0.09756597 -0.14104342 -0.2089292 -0.12215798 0.09498884 0.0643545 -0.13688958 -0.15387948
0.16700728 -0.23667155 -0.37683782 -0.0593352 -0.1470334 0.10948241 -0.060452037 0.31282797
-0.0074366448 0.013720034 -0.04348953 0.06893238 -0.2803853 -0.15995282 -0.28478098 0.35116956
0.19651791 -0.071987785 0.0025458448 0.37351462 0.1749024 -0.046560977 -0.23982786 0.17160363
0.31411538 0.114061385 0.22709304 -0.12346123 -0.30523574 0.23782487 0.2034114 -0.3756552
-0.06395942 -0.25173235 0.21198614 0.0050888644 -0.067659274 -0.17463544 -0.092497975 0.09816323
0.18411234 0.015901007 0.053306345 -0.09203668 -0.03863504 -0.06952501 -0.15422927 -0.06511552
0.1291472 0.11652269 -0.14802451 -0.053855624 -0.043036398 -0.06730593 -0.1104676 -0.13887128
-0.21898052 0.14051355 0.14822486 -0.27790442 0.004018385 -0.06892636 -0.19374885 0.13958585
-0.034414373 0.0322975 -0.13596532 -0.048617963 -0.052802045 -0.011423372 0.047922518 0.09739873
0.05258124 -0.053922616 0.12365836 0.17659335 0.024394939 0.08983816 -0.35334024 0.23663297
0.1599177 -0.0033472674 -0.071709774 -0.23027876 0.1970318 0.019343112 -0.025569258 -0.33068174
0.09041603 0.45452428 -0.08352041 -0.14458586 0.06527543 0.09882141 -0.05468688 0.09235883
0.10578685 -0.18489823 0.14991748 -0.10325859 -0.120170735 0.20160972 -0.06582556 -0.11134908
-0.019743932 -0.033847615 -0.08822282 0.037400033 -0.11161981 -0.01730034 -0.20239042 -0.0009793208
0.07394579 0.14840107 -0.13295244 -0.042581398 0.044631485 0.11354402 0.17255175 0.21766439
0.02166792 0.04646331 0.13166122 -0.12714648 -0.025820404 -0.10713614 -0.17323512 0.055950306
-0.14191078 0.003326455 -0.056504417 0.09095539 -0.045627464 -0.07896575 -0.18187281 -0.022896646
-0.06675199 -0.056241423 -0.08151268 0.16483867 -0.07198806 -0.07386016 -0.026799362 -0.081677526
-0.007619666 -0.07602975 0.15320273 0.1502614 0.033999056 -0.005204327 0.054613438 0.23947819
0.19342713 -0.042204577 0.029206986 -0.061278097 0.17883356 -0.01131023 0.05791989 -0.17061739
-0.10794858 0.20351186 0.05278175 -0.10538008 -0.0076499796 -0.06104763 0.044532023 0.09635131
00000000: 6697 cdbd 3e7f 98bc 7f33 8ebe 500a 88bd
00000010: 61a3 f73d aba0 e63d 7436 d53d 6e76 a33c
00000020: 447a 7cbc 3efc 8f3e 76af 94bd 778d e63d
00000030: 6f5a 59bd ee98 a73c 4087 17bd c8d2 3c3d
00000040: 2a75 863c 3a63 be3d 09c0 9d3d f273 8c3d
00000050: 34c2 b7bc 3719 88bd b9a1 e8bd a304 40bd
00000060: 9ad9 53be b060 263e 62f5 423d 00aa 38bc
00000070: cbbb cabc 4a87 30be 303b 3dbe c8cc dd3d
00000080: f869 50bd 844e 3c3e 527b 6dbe a6ec be3c
00000090: 8deb 9d3d f936 263c 5c05 163e dcc6 a9bc
000000a0: 8cd6 873d 38e7 83be a1b7 39bd 69e8 a93d
000000b0: d6f8 023e af40 95bd 9b5c a83d b894 b73d
000000c0: 4d68 28bc ede9 d4bd 0000 2dbd a26c 873c
000000d0: e8ef 913e b016 8a3e 05c8 793d fa59 38be
000000e0: 65c8 7c3d 401c 4e3d efcc 47bc 8d75 6cbe
000000f0: 5aaf 853d bca3 38bc 0b10 1b3e 0b97 1cbe
00000100: 4d0a 24be 816d e63d b2d8 6e3d 75c9 c13d
00000110: bede 0dbe b7d2 0fbd 141e 093d 8035 9abd
00000120: bed7 bbbb 2c23 a33d 5ddc b8bd 7be3 ffbd
00000130: 57b9 da3d 36e1 ac3d 41de b13b 268f dfbd
00000140: abd0 c7bd b06d 10be 89f1 55be f72d fabd
00000150: 8289 c23d 4bcc 833d c82c 0cbe 9592 1dbe
00000160: f503 2b3e 075a 72be e3f0 c0be 7709 73bd
00000170: ec8f 16be 5038 e03d 8e9c 77bd fd2a a03e
00000180: 19af f3bb fec9 603c 1422 32bd 6b2c 8d3d
00000190: a98e 8fbe acca 23be d0ce 91be 7fcc b33e
000001a0: fe3b 493e 556e 93bd 30d8 263b 4f3d bf3e
000001b0: 9d19 333e b9b6 3ebd 6f95 75be ddb8 2f3e
000001c0: bbd3 a03e 0499 e93d 148b 683e 3ed9 fcbd
000001d0: dc47 9cbe 5d88 733e 144b 503e e155 c0be
000001e0: 28fd 82bd 10e3 80be e512 593e 7dc0 a63b
000001f0: f290 8abd a2d3 32be 946f bdbd ce09 c93d
00000200: f287 3c3e d442 823c c157 5a3d ba7d bcbd
00000210: c73f 1ebd 2163 8ebd 47ee 1dbe 495b 85bd
00000220: 2a3f 043e 73a3 ee3d bd93 17be b797 5cbd
00000230: ef46 30bd b1d7 89bd d63c e2bd 4634 0ebe
00000240: 6e3c 60be c9e2 0f3e 42c8 173e 7d49 8ebe
00000250: a8ac 833b 4329 8dbd 1966 46be 98ef 0e3e
00000260: 16f6 0cbd 624a 043d 7e3a 0bbe a123 47bd
00000270: f546 58bd 1829 3bbc 674a 443d fc78 c73d
00000280: 6d5f 573d f6dd 5cbd 9840 fd3d e3d4 343e
00000290: e5d7 c73c 12fd b73d 03e9 b4be ea4f 723e
000002a0: 77c1 233e d45d 5bbb 93dc 92bd 32ce 6bbe
000002b0: b4c2 493e 7275 9e3c 9f76 d1bc 1e4f a9be
000002c0: 0a2c b93d 68b7 e83e c00c abbd 510e 14be
000002d0: 20af 853d e162 ca3d 5aff 5fbd a026 bd3d
000002e0: c7a6 d83d f655 3dbe f883 193e 3d79 d3bd
000002f0: 131c f6bd c772 4e3e 8dcf 86bd fd0a e4bd
00000300: 07be a1bc cca3 0abd 2aae b4bd c730 193d
00000310: ed98 e4bd 71b9 8dbc 6f3f 4fbe 8e5c 80ba
00000320: e470 973d 73f6 173e af24 08be d569 2ebd
00000330: 81cf 363d c489 e83d 68b1 303e 6ae3 5e3e
00000340: ec80 b13c 5050 3e3d 33d2 063e b032 02be
00000350: 5085 d3bc 316a dbbd 8c64 31be 262c 653d
00000360: 0f51 11be a700 5a3b 2d71 67bd d246 ba3d
00000370: dde3 3abd ccb8 a1bd de3c 3abe bf91 bbbc
00000380: 44b5 88bd 685d 66bd 1ff0 a6bd 78cb 283e
00000390: 7a6e 93bd ff43 97bd 568a dbbc 8c46 a7bd
000003a0: 64ae f9bb 7cb5 9bbd 2de1 1c3e 20de 193e
000003b0: 9842 0b3d 0f89 aabb 57b2 5f3d c539 753e
000003c0: c311 463e b5de 2cbd 7d43 ef3c befe 7abd
000003d0: 2520 373e 8b4e 39bc 683d 6d3d 53b6 2ebe
000003e0: 2514 ddbd 6a65 503e ad31 583d 83d1 d7bd
000003f0: aeac fabb 140d 7abd 3667 363d d653 c53d

components.1.net.linear.0.weight f4 [94, 10]
-0.10944238 -0.1617194 -0.12952279 -0.25366226 -0.26298192 0.07621947 -0.29273647 -0.24992849
0.18982235 -0.19272783 0.28634635 -0.15108854 -0.30852497 0.07965675 0.15287936 -0.19884053
0.14795864 0.12308094 0.101738244 -0.20109957 0.0768857 -0.1910143 -0.30299246 0.03100884
-0.073236704 0.29965612 0.030869484 0.13473302 -0.31157973 -0.11531243 0.2115716 0.004681587
0.19960251 -0.18484688 0.21133575 -0.034772396 -0.0016212463 -0.08506283 0.20522413 -0.14194137
-0.29338333 -0.23073521 0.084935695 -0.20130664 0.08657858 0.061728597 0.286697 0.11287752
-0.29112694 -0.14679138 0.15157238 -0.012735903 0.059624583 -0.054387003 -0.025800526 0.19479278
-0.27180505 -0.16014147 -0.070904255 -0.2830678 -0.07260072 0.29475978 0.09888375 -0.09388231
0.15545389 0.047231674 0.085087866 0.23976073 -0.046667278 0.13507748 -0.022723854 0.15325823
0.017742068 0.28774783 0.1515607 -0.17660783 0.20717141 0.11682564 -0.19434243 -0.12971799
0.04445675 0.09131345 -0.1361462 0.02206102 -0.018043816 -0.17528428 0.03684917 -0.19524439
-0.29403672 0.23540857 -0.07924494 -0.027948767 -0.2069131 0.054811 0.26185253 -0.22648308
0.08544907 0.024059802 -0.3108104 0.015881449 -0.037643164 -0.2785927 0.17123061 0.07162011
-0.20652169 0.09413487 -0.025767267 0.18859556 -0.17401467 0.082633466 -0.06031075 0.23384699
0.23922506 0.15754199 0.27598324 0.14211905 -0.055268496 -0.22564265 0.070641994 0.033082396
0.06728366 0.123393446 0.1704996 -0.30382615 -0.12773171 0.24259058 0.28774074 -0.3065093
0.21102116 0.28774765 -0.23363477 -0.21676502 -0.028547466 0.2835314 0.20397416 0.15936506
0.07839391 -0.22039872 -0.21939918 0.023692816 0.18256432 0.24479821 -0.28100318 -0.13913755
-0.015488654 0.20699194 -0.049921185 0.1377337 0.17188787 -0.25524613 0.29268613 -0.10312247
0.2786366 0.013758004 -0.1833982 0.13876155 0.04304993 0.033028215 0.1209099 0.12920868
0.28730854 0.01353088 -0.17097469 0.13659999 0.29993626 0.13291615 0.17325959 0.26825282
0.08463007 -0.10028888 0.06020224 0.20496759 0.08563644 -0.17630023 0.097636074 -0.2537747
-0.15072039 0.091471136 0.15771136 -0.11053203 0.26293537 0.15335146 0.023072809 -0.03697464
0.25158212 0.0057296753 0.015651613 0.1654433 0.23094419 -0.30838725 0.21388623 -0.2951085
0.03262818 0.13005927 -0.0015368164 -0.2774034 0.23572096 -0.13581043 -0.16624123 -0.012315959
0.042690635 -0.08652873 -0.010100484 0.19621214 0.18891689 0.1920006 -0.049082607 -0.18637912
0.12929991 0.23254237 0.019649923 0.23137441 0.19323394 0.05114299 -0.28717735 0.3076038
0.24373356 -0.2526418 -0.22905795 0.08285192 0.26175413 -0.055499166 0.15825328 -0.022156328
0.06389868 0.12803233 -0.064484835 0.20456144 0.14124739 0.08664337 -0.28712353 0.16422811
0.20295158 -0.15731783 -0.2557837 0.28642812 0.26188508 -0.27946812 -0.18477227 -0.13617267
-0.20859689 -0.0013367832 0.21378455 -0.30244252 -0.18355487 -0.003924012 0.032966495 0.022675633
-0.23189864 -0.19635333 0.2793444 0.3093044 -0.2503105 -0.03013283 0.098698616 0.3139362
00000000: 5423 e0bd c599 25be 9fa1 04be 05e0 81be
00000010: 91a5 86be f418 9c3d 8ee1 95be 41ed 7fbe
00000020: ca60 423e 725a 45be fd9b 923e f4b6 1abe
00000030: fcf6 9dbe 1423 a33d 688c 1c3e da9c 4bbe
00000040: 7882 173e dc11 fc3d 245c d03d 0ced 4dbe
00000050: 4076 9d3d 4199 43be d421 9bbe 4006 fe3c
00000060: 20fd 95bd 876c 993e 00e2 fc3c 74f7 093e
00000070: 6187 9fbe ec28 ecbd 3aa6 583e 0068 993b
00000080: 9a64 4c3e 8048 3dbe 6668 583e 806d 0ebd
00000090: 0080 d4ba 6c35 aebd 4626 523e 1459 11be
000000a0: 5736 96be da45 6cbe c4f2 ad3d 5423 4ebe
000000b0: 1c50 b13d 20d7 7c3d f3c9 923e 542c e73d
000000c0: 970e 95be 7b50 16be ca35 1b3e 40aa 50bc
000000d0: e838 743d e8c4 5ebd a05b d3bc c277 473e
000000e0: 082a 8bbe 20fc 23be 4036 91bd 43ee 90be
000000f0: b0af 94bd c1ea 963e 9083 ca3d 5e45 c0bd
00000100: 4e2f 1f3e 0076 413d 8c42 ae3d d683 753e
00000110: 3026 3fbd c051 0a3e 6027 babc baef 1c3e
00000120: d057 913c af53 933e ba32 1b3e afd8 34be
00000130: be24 543e 4842 ef3d b401 47be cbd4 04be
00000140: 4818 363d 8c02 bb3d e969 0bbe 50b9 b43c
00000150: a0d0 93bc b97d 33be 28ef 163d 25ee 47be
00000160: fb8b 96be f20e 713e 2c4b a2bd d0f4 e4bc
00000170: 07e1 53be 8081 603d 8911 863e 2eeb 67be
00000180: ecff ae3d 1019 c53c 8a22 9fbe d019 823c
00000190: b82f 1abd b4a3 8ebe 1457 2f3e 90ad 923d
000001a0: 6c7a 53be c8c9 c03d e015 d3bc 321f 413e
000001b0: e730 32be bc3b a93d 6808 77bd 9675 6f3e
000001c0: 6af7 743e b052 213e ad4d 8d3e a887 113e
000001d0: 3861 62bd de0e 67be c0ac 903d 6881 073d
000001e0: 04cc 893d b4b5 fc3d 7297 2e3e 1a8f 9bbe
000001f0: 1acc 02be aa69 783e c152 933e c9ee 9cbe
00000200: ee15 583e a953 933e f43d 6fbe a6f7 5dbe
00000210: 60dc e9bc 072b 913e 9ade 503e 9830 233e
00000220: fc8c a03d 34b0 61be 2eaa 60be 7017 c23c
00000230: 24f2 3a3e 62ac 7a3e a6df 8fbe 137a 0ebe
00000240: 20c4 7dbc b2f5 533e 287a 4cbd 100a 0d3e
00000250: 6003 303e 9faf 82be f5da 953e e031 d3bd
00000260: 75a9 8e3e 4069 613c bdcc 3bbe 8217 0e3e
00000270: 2055 303d 9848 073d 9c9f f73d 484f 043e
00000280: 1b1a 933e a0b0 5d3c fd13 2fbe dee0 0b3e
00000290: 3f91 993e 2c1b 083e f66a 313e 6f58 893e
000002a0: 8852 ad3d 4264 cdbd a096 763d 06e3 513e
000002b0: 2862 af3d 0c88 34be 6cf5 c73d c2ee 81be
000002c0: 7256 1abe 3855 bb3d 167f 213e 9e5e e2bd
000002d0: 779f 863e 2a08 1d3e 3003 bd3c b872 17bd
000002e0: 5fcf 803e 00c0 bb3b d037 803c f869 293e
000002f0: a27c 6c3e efe4 9dbe fe04 5b3e 7618 97be
00000300: 20a5 053d 422e 053e 006f c9ba d207 8ebe
00000310: d660 713e e411 0bbe 243b 2abe e0c8 49bc
00000320: 60dc 2e3d fa35 b1bd 807c 25bc d6eb 483e
00000330: 6e73 413e ce9b 443e d80a 49bd 2bda 3ebe
00000340: 3267 043e 961f 6e3e e0f8 a03c 6aed 6c3e
00000350: 1edf 453e 507b 513d e908 93be 3f7e 9d3e
00000360: 4a95 793e 445a 81be 2b8e 6abe 44ae a93d
00000370: a304 863e 1853 63bd 260d 223e 3081 b5bc
00000380: 50dd 823d e81a 033e a010 84bd 8e78 513e
00000390: 28a3 103e 1472 b13d db01 93be 6a2b 283e
000003a0: 8ad2 4f3e ed17 21be 15f6 82be b5a6 923e
000003b0: cd15 863e 7216 8fbe f134 3dbe d970 0bbe
000003c0: 6c9a 55be 0037 afba 56ea 5a3e bfd9 9abe
000003d0: cff5 3bbe 0095 80bb e007 073d 40c2 b93c
000003e0: d676 6dbe d910 49be 3b06 8f3e 255d 9e3e
000003f0: b328 80be 20d9 f6bc 8022 ca3d 3fbc a03e

components.1.net.linear.0.bias f4 [1, 10]
0.0 0.0 0.0 0.0 0.0 0.0 0.0 0.0
0.0 0.0
00000000: 0000 0000 0000 0000 0000 0000 0000 0000
00000010: 0000 0000 0000 0000 0000 0000 0000 0000
00000020: 0000 0000 0000 0000

components.1.net.linear.0.linear.weight f4 [10, 94]
0.28284377 -0.24963705 -0.28333178 -0.18905112 0.037892323 -0.09406014 0.07799031 -0.2584796
0.12182531 -0.16033173 0.01664599 0.17420807 -0.26744556 -0.16238962 0.19274473 0.12092107
-0.18834983 0.249516 -0.2030461 0.058549672 0.07044148 -0.03882539 -0.13527529 -0.12114661
0.052535444 -0.20945448 -0.015689233 0.080834314 0.10522449 0.039402686 0.015841879 0.0029556444
0.022584682 -0.008471136 -0.05752081 0.11017501 -0.007179502 -0.03648622 0.023917591 -0.029927794
-0.024694953 -0.08067908 0.009672086 0.027044808 -0.08122397 0.059683762 -0.06547391 -0.058800545
0.062041707 -0.052833088 0.046803333 0.060945593 -0.03993521 -0.04752162 0.10206448 -0.08452181
0.10894174 0.033494364 0.09595397 -0.0065837475 -0.06738067 -0.075537 0.01702815 -0.15885879
-0.10213464 -0.1526919 -0.13241151 -0.20036337 -0.013672209 -0.12921111 -0.12006549 -0.13337938
-0.14209585 -0.113268875 -0.14263286 -0.20156957 -0.11075438 -0.03009729 -0.12265228 0.030638125
-0.13463107 -6.8639354e-05 0.034080725 0.040282153 -0.0131770605 0.059939463 0.021576168 -0.09065028
-0.097187854 -0.05431654 -0.015163718 -0.087359 -0.09693876 -0.0834159 0.28229946 -0.16035637
-0.11767022 -0.16557479 0.15285185 -0.22620781 0.11992759 -0.20436434 0.049949393 -0.06333142
0.16023171 0.14621402 -0.25969288 -0.15052561 0.2074501 0.09651827 -0.12043719 0.24252683
-0.22366227 -0.0015561093 0.17210653 -0.17518993 -0.15693384 -0.14051035 0.18828332 -0.096772864
-0.009409176 0.1252019 0.079714075 0.1577954 -0.046180576 0.052120388 -0.021669013 0.05723753
0.010734533 0.026338575 0.056603245 -0.109666556 0.011326417 0.035950832 -0.035253316 0.06610294
0.0343796 -0.068699084 -0.028838834 -0.05497905 0.009376425 0.01664588 0.06266123 -0.068047024
0.017769584 -0.022561053 -0.0061538387 0.04868004 0.007005408 0.0038960935 -0.08445091 0.012150298
-0.015753703 -0.09759121 -0.10290808 0.038449 -0.1607903 -0.1580821 -0.1516493 -0.12785894
-0.16807447 -0.16278952 -0.0791148 -0.095956445 -0.023559656 -0.068958625 -0.20250547 -0.14128952
-0.14812535 -0.13220134 -0.049650073 -0.1719372 -0.07173155 -0.08372963 -0.037977412 0.028090777
-0.009699899 -0.008958331 -0.005545158 -0.023546578 0.06382599 0.041427307 -0.009307214 -0.100386664
0.010876699 0.023984388 -0.100377746 -0.08685884 -0.0310902 0.13057008 0.06839545 0.12798995
-0.008500513 0.0858791 -0.05318911 0.02706407 0.015878806 0.121236876 -0.025448339 -0.13740784
-0.009369588 0.032597944 -0.01790277 -0.15318727 -0.0065767565 -0.07743096 0.024849942 -0.1321809
-0.15541932 -0.026047295 0.04109482 -0.072016 -0.09677668 0.08957067 -0.2009207 0.014460208
-0.051623378 -0.07511416 0.15139976 0.07200296 0.15049104 0.057024136 0.061293095 -0.0035612958
0.14922026 0.13758726 0.14416812 0.11442136 0.13797788 0.14060298 0.117493324 0.039738737
0.06760042 0.15329728 -0.008878212 0.06866579 -0.018296778 0.02997092 -0.038085144 -0.035637558
0.021155769 -0.023498226 -0.024507439 0.093639515 0.11303843 0.10101367 0.044404194 0.01876558
0.09823659 0.033917695 0.015023209 0.06746547 0.018345634 -0.0007408501 0.12748511 0.10840153
00000000: e6d0 903e dba0 7fbe dd10 91be 9e96 41be
00000010: fb34 1b3d 9aa2 c0bd 62b9 9f3d 7057 84be
00000020: 8c7f f93d 002e 24be 2c5d 883c 9a63 323e
00000030: a0ee 88be 7749 26be e05e 453e 77a5 f73d
00000040: c7de 40be 1f81 7f3e 51eb 4fbe c8d1 6f3d
00000050: 9f43 903d 5f07 1fbd 9b85 0abe b71b f8bd
00000060: 682f 573d 3c7b 56be b586 80bc 768c a53d
00000070: f07f d73d b664 213d d4c6 813c 7cb3 413b
00000080: 8303 b93c 85ca 0abc f19a 6bbd 70a3 e13d
00000090: 0742 ebbb 9372 15bd d3ee c33c 222b f5bc
000000a0: 124d cabc 133b a5bd ab77 1e3c 138d dd3c
000000b0: c158 a6bd f676 743d 2f17 86bd d7d8 70bd
000000c0: 721f 7e3d 8267 58bd dab4 3f3d 16a2 793d
000000d0: 1a93 23bd 08a6 42bd 2f07 d13d c519 adbd
000000e0: d91c df3d 6331 093d 8483 c43d 7abc d7bb
000000f0: e0fe 89bd 25b3 9abd 9e7e 8b3c e1ab 22be
00000100: f72b d1bd 445b 1cbe e296 07be 0e2c 4dbe
00000110: 6701 60bc eb4f 04be e5e4 f5bd 9b94 08be
00000120: 9381 11be 83f9 e7bd 590e 12be 4168 4ebe
00000130: 31d3 e2bd 988e f6bc 1e31 fbbd cefc fa3c
00000140: badc 09be 79f2 8fb8 3b98 0b3d e6fe 243d
00000150: 99e4 57bc 1583 753d 81c0 b03c dba6 b9bd
00000160: 6d0a c7bd 057b 5ebd 3e71 78bc 47e9 b2bd
00000170: d487 c6bd f5d5 aabd 8e89 903e 7634 24be
00000180: 16fd f0bd 708c 29be 3285 1c3e 05a3 67be
00000190: 999c f53d e344 51be bc97 4c3d e7b3 81bd
000001a0: c813 243e 21b9 153e 77f6 84be 6323 1abe
000001b0: cd6d 543e 5fab c53d c6a7 f6bd f458 783e
000001c0: b907 65be 5df6 cbba b23c 303e fd64 33be
000001d0: 44b3 20be f2e1 0fbe 58cd 403e da30 c6bd
000001e0: f228 1abc ed34 003e 2241 a33d 1e95 213e
000001f0: d827 3dbd 307c 553d 3783 b1bc e671 6a3d
00000200: e5df 2f3c ffc3 d73c ced8 673d dc98 e0bd
00000210: 7092 393c 2e41 133d c865 10bd fa60 873d
00000220: a0d1 0c3d 1bb2 8cbd 6b3f ecbc b631 61bd
00000230: 949f 193c f15c 883c 8854 803d 3d5c 8bbd
00000240: 8591 913c f5d1 b8bc 24a6 c9bb b964 473d
00000250: 9f8d e53b 9a55 7f3b 99f4 acbd 0b12 473c
00000260: e90d 81bc e6dd c7bd 79c1 d2bd b37c 1d3d
00000270: 36a6 24be 46e0 21be f449 1bbe 74ed 02be
00000280: b71b 2cbe 4cb2 26be f106 a2bd d084 c4bd
00000290: 2e00 c1bc 2e3a 8dbd 985d 4fbe 33ae 10be
000002a0: 2cae 17be ca5f 07be e05d 4bbd 4e10 30be
000002b0: fee7 92bd 717a abbd 348e 1bbd a11e e63c
000002c0: 53ec 1ebc f7c5 12bc 28b4 b5bb c1e4 c0bc
000002d0: 33b7 823d aeaf 293d 497d 18bc 8697 cdbd
000002e0: 2f34 323c e87a c43c d992 cdbd 0ce3 b1bd
000002f0: e0b0 febc 2ab4 053e ea12 8c3d cc0f 033e
00000300: bc45 0bbc 62e1 af3d d3dc 59bd 78b5 dd3c
00000310: 4514 823c 0a4b f83d 0979 d0bc a4b4 0cbe
00000320: e782 19bc 6c85 053d d4a8 92bc 20dd 1cbe
00000330: d581 d7bb 2094 9ebd 1b92 cb3c 6e5a 07be
00000340: 3e26 1fbe 2361 d5bc 0b53 283d 207d 93bd
00000350: da32 c6bd d470 b73d 28be 4dbe 82ea 6c3c
00000360: 0973 53bd 74d5 99bd 8a08 1b3e 4a76 933d
00000370: 531a 1a3e 2492 693d 780e 7b3d a164 69bb
00000380: 32cd 183e ade3 0c3e cfa0 133e bf55 ea3d
00000390: 134a 0d3e 3afa 0f3e 57a0 f03d 16c5 223d
000003a0: 1772 8a3d f6f9 1c3e ec75 11bc a6a0 8c3d
000003b0: 20e3 95bc 9385 f53c 2bff 1bbd b0f8 11bd
000003c0: dd4e ad3c 5a7f c0bc d3c3 c8bc 13c6 bf3d
000003d0: b180 e73d 41e0 ce3d 2ce1 353d 46ba 993c
000003e0: 4430 c93d 48ed 0a3d e823 763c 562b 8a3d
000003f0: 9549 963c 9c35 42ba 758b 023e 9f01 de3d

components.1.net.linear.1.weight f4 [10, 10]
-0.03821686 0.043485224 -0.2527679 -0.21889102 -0.021429867 0.264577 0.12668979 0.27213833
-0.2856007 0.1654923 -0.052793205 -0.20717072 0.20483223 0.052297145 -0.18639284 0.2066392
-0.27030033 0.051540554 -0.2313307 -0.27800184 -0.09940915 -0.041712135 0.023184836 0.035030574
0.049842328 -0.105949804 -0.050477564 0.018732905 0.18466106 -0.30169618 0.27487764 0.013062537
0.028618455 0.12783372 -0.26732883 0.21580043 -0.052179724 -0.22000831 0.21955058 -0.10408613
-0.3137018 0.025633186 -0.015312105 0.21855792 -0.17836934 -0.070432335 -0.07136458 0.15225697
0.18143395 -0.071338266 -0.16183324 0.09424654 0.2632409 -0.14064157 -0.078067765 0.049484074
0.2228494 -0.12665206 0.16671094 0.25256708 0.053960174 -0.056049913 0.23548624 -0.28442138
0.063313305 -0.28330928 0.025645941 0.29327616 -0.2520984 -0.22144336 0.026091307 0.022116095
0.20015296 0.113143235 0.16410142 0.1557785 0.082149565 -0.07292944 0.2838765 -0.17520368
0.22927639 -0.09013881 0.21515766 -0.15047461 0.07959613 -0.28519002 -0.07532661 -0.3027828
0.081008315 -0.14932977 0.26527926 -0.04809621 -0.04765743 -0.11352195 -0.16616294 0.12037215
-0.1940225 0.31621227 0.3067856 0.19652995
00000000: 4889 1cbd 901d 323d cb6a 81be f824 60be
00000010: b08d afbc a376 873e f8ba 013e b755 8b3e
00000020: 413a 92be d076 293e b03d 58bd 9024 54be
00000030: 8abf 513e 8835 563d c4dd 3ebe 3a99 533e
00000040: ce64 8abe 301c 533d f4e1 6cbe 4256 8ebe
00000050: 0697 cbbd 58da 2abd 20ee bd3c 387c 0f3d
00000060: 7827 4c3d 36fc d8bd 90c1 4ebd c075 993c
00000070: ca17 3d3e ec77 9abe c3bc 8c3e 4004 563c
00000080: 4071 ea3c d8e6 023e 53df 88be cafa 5c3e
00000090: 68ba 55bd dc49 61be ded1 603e 1c2b d5bd
000000a0: 869d a0be b0fc d13c a0df 7abc a6cd 5f3e
000000b0: 74a6 36be d43e 90bd 9827 92bd 40e9 1b3e
000000c0: d2c9 393e cc19 92bd 9db7 25be 5404 c13d
000000d0: 83c7 863e 5804 10be fee1 9fbd d0af 4a3d
000000e0: a232 643e 14b1 01be 46b6 2a3e 7950 813e
000000f0: 5805 5d3d 9894 65bd 4e23 713e ae9f 91be
00000100: 68aa 813d ea0d 91be 7017 d23c 4b28 963e
00000110: 0b13 81be 0cc2 62be 70bd d53c d02c b53c
00000120: e6f4 4c3e a4b7 e73d 340a 283e 6684 1f3e
00000130: 083e a83d 085c 95bd 4358 913e 9868 33be
00000140: 6ec7 6a3e b29a b8bd 4a52 5c3e 0416 1abe
00000150: 4c03 a33d 6d04 92be d644 9abd 5906 9bbe
00000160: b0e7 a53d e7e9 18be afd2 873e 8800 45bd
00000170: 7034 43bd 327e e8bd 9e26 2abe ac85 f63d
00000180: d6ad 46be 93e6 a13e 0113 9d3e 263f 493e

components.1.net.linear.1.bias f4 [1, 10]
0.0 0.0 0.0 0.0 0.0 0.0 0.0 0.0
0.0 0.0
00000000: 0000 0000 0000 0000 0000 0000 0000 0000
00000010: 0000 0000 0000 0000 0000 0000 0000 0000
00000020: 0000 0000 0000 0000

components.1.net.linear.1.linear.weight f4 [10, 10]
-0.20263372 -0.12462413 0.050020788 0.41144648 0.1407074 0.045122184 -0.27825865 0.26788145
0.12599692 -0.16702558 0.32932988 -0.0057192086 -0.36881065 -0.06189062 0.26876125 0.095120795
0.0026042694 -0.094040215 0.24780841 -0.052311037 -0.33794272 -0.2961865 -0.046428464 -0.05375066
-0.3586073 0.041728027 -0.028859539 -0.082718275 -0.15351857 -0.18830146 -0.35962963 -0.3750389
0.03087592 -0.032865394 0.001987967 0.2442539 -0.25124934 0.1693031 -0.33910036 0.014375193
0.004147572 -0.013315666 -0.34234372 -0.1272062 0.11447585 -0.09085235 -0.15503375 0.15529892
0.35302272 -0.1393656 -0.3329884 -0.3220885 0.063624166 0.05240234 -0.3283709 0.3068638
-0.29183772 0.07960254 -0.10568888 0.30239168 -0.020416148 0.11070582 -0.20651796 -0.29979262
0.0642275 -0.23688808 0.070670135 0.22852327 0.26602247 -0.29928696 -0.09137245 -0.085931085
0.22083944 0.1812733 -0.37855607 -0.06905775 -0.37740827 0.34087965 0.07637099 0.28165507
0.23246321 0.24178717 -0.09440084 0.020108104 -0.06663463 -0.19074658 -0.09106576 -0.28585026
0.20145445 0.06576716 0.25871605 0.19189353 -0.068875395 -0.045845307 0.23043317 -0.2366858
0.19736567 -0.2140615 0.096975476 -0.17144503
00000000: 377f 4fbe f03a ffbd 99e2 4c3d 1da9 d23e
00000010: 9a15 103e 0ad2 383d eb77 8ebe c227 893e
00000020: 5605 013e c108 2bbe ed9d a83e 3368 bbbb
00000030: c0d4 bcbe 0581 7dbd 139b 893e b1ce c23d
00000040: 64ac 2a3b 2898 c0bd 7dc1 7d3e 1944 56bd
00000050: d406 adbe c2a5 97be c62b 3ebd a729 5cbd
00000060: 609b b7be 02eb 2a3d d76a ecbc 3368 a9bd
00000070: f933 1dbe 19d2 40be 6021 b8be 1905 c0be
00000080: 7fef fc3c dd9d 06bd 8d48 023b b21d 7a3e
00000090: c1a3 80be cb5d 2d3e 909e adbe ee85 6b3c
000000a0: 5be8 873b f329 5abc ad47 afbe 5842 02be
000000b0: 5072 ea3d cc10 babd 2bc1 1ebe ae06 1f3e
000000c0: 65bf b43e dbb5 0ebe 757d aabe c9e8 a4be
000000d0: 634d 823d d6a3 563d 3b20 a8be 411d 9d3e
000000e0: c16b 95be a806 a33d 6973 d8bd 15d3 9a3e
000000f0: c43f a7bc bcb9 e23d 7279 53be 6b7e 99be
00000100: b589 833d ca92 72be 81bb 903d 0102 6a3e
00000110: 1934 883e 243c 99be 7b21 bbbd a3fc afbd
00000120: bc23 623e b59f 393e 1ad2 c1be 266e 8dbd
00000130: a83b c1be c787 ae3e 6568 9c3d 1835 903e
00000140: d60a 6e3e 0e97 773e 3a55 c1bd c0b9 a43c
00000150: bd77 88bd 1253 43be af80 babd f75a 92be
00000160: 134a 4e3e efb0 863d 6e76 843e bd7f 443e
00000170: 8b0e 8dbd 4ac8 3bbd acf6 6b3e c35d 72be
00000180: 3a1a 4a3e f032 5bbe 149b c63d 498f 2fbe
