neuromancer/neuromancer/train_scripts/test_control/best_model_state_dict.pth (torch, 81727 bytes, 42 tensors)

components.0.net.linear.0.weight f4 [3, 30]
00000000: 2376 ccbd 8829 b2bd c221 c7bd aaf0 d33a
00000010: 7d80 b8bd 13b9 66bd 2159 31be e690 27bd
00000020: 3b86 4a3d a2c1 8a39 9c68 ae3c 1bfc 25be
00000030: e9f5 2bbe 6bbf 69bd 27b1 823d a8de 383e
00000040: 2f39 2cbe 520f 813d 8c17 013d 7e3d f73c
00000050: 5d37 acbd 4213 34be 3805 71bd 56f9 2abe
00000060: 0d36 10bc f6f3 9a3d 3689 313e 8600 30bd
00000070: b448 173e 5a9c 07be 0805 2dbe 3a1e 26bd
00000080: 489b c93d 1065 0fbe 1131 863c cca1 1839
00000090: 1664 cdbd fe73 18be 6ce1 903d 40d2 223e
000000a0: cb65 353e c555 37be cfd8 d73d 9390 c8bd
000000b0: 6964 a13d da76 263e 20e6 9f3d 0908 d1bd
000000c0: d883 e9bd 2433 cfbc 5a47 fa3c d9b5 83bd
000000d0: 444c 113e 9f1c 083e 6864 0e3e bab8 0fbe
000000e0: 0c76 bfbb bcea 5e3d 66ee d1bd 530a b0bd
000000f0: 7426 4c3d f46d b0bd 13f2 1cbd a012 313e
00000100: 27cf be3d e51a c2bc f1bd e4bd 06af d83d
00000110: cb17 11be 11ba b7bd caa7 dc3d e8ce a43d
00000120: 8d08 87bc 1d6a aa3d ca41 24be 23aa 32be
00000130: e32c 06be 2691 003e 7a2c 363d 7393 b33c
00000140: 870d 023e f741 37bd ea4b 3a3e 913c 8c3d
00000150: 9f0d b3bb 0bb2 973d 70b8 0cbe ecc4 3a3e
00000160: 161f 78bd 6e52 25bd
-0.0998347 -0.08699328 -0.09723236 0.0016169746 -0.09008882 -0.056328844 -0.17319156 -0.04090967
0.04944442 0.0002646568 0.021290116 -0.16209452 -0.16793026 -0.057067316 0.063814454 0.18053687
-0.16818689 0.0630175 0.031516597 0.030180689 -0.08408997 -0.17585471 -0.058842868 -0.16696677
-0.008801949 0.07566063 0.17337498 -0.04296925 0.14773828 -0.13243237 -0.1689645 -0.04055617
0.09844071 -0.14003396 0.016380819 0.00014556124 -0.100288555 -0.14887998 0.07074246 0.15900517
0.17714612 -0.17903812 0.105394 -0.097932 0.0788048 0.16256276 0.07807565 -0.10206611
-0.114021 -0.02529294 0.030551601 -0.06431169 0.1418925 0.13292168 0.1390549 -0.14035311
-0.0058429297 0.05442308 -0.10250549 -0.08595719 0.04984136 -0.08614722 -0.038316797 0.17292261
0.09316855 -0.023694465 -0.11169041 0.10580258 -0.14169233 -0.08971036 0.10774191 0.08047277
-0.01648357 0.08321021 -0.16040722 -0.17447715 -0.1310306 0.1255537 0.04447601 0.021920895
0.12700473 -0.044740643 0.18193021 0.068474896 -0.0054642702 0.07407006 -0.13742232 0.18239182
-0.06057652 -0.040361814

components.0.net.linear.0.bias f4 [1, 30]
00000000: 0000 0000 0000 0000 0000 0000 0000 0000
00000010: 0000 0000 0000 0000 0000 0000 0000 0000
00000020: 0000 0000 0000 0000 0000 0000 0000 0000
00000030: 0000 0000 0000 0000 0000 0000 0000 0000
00000040: 0000 0000 0000 0000 0000 0000 0000 0000
00000050: 0000 0000 0000 0000 0000 0000 0000 0000
00000060: 0000 0000 0000 0000 0000 0000 0000 0000
00000070: 0000 0000 0000 0000
0.0 0.0 0.0 0.0 0.0 0.0 0.0 0.0
0.0 0.0 0.0 0.0 0.0 0.0 0.0 0.0
0.0 0.0 0.0 0.0 0.0 0.0 0.0 0.0
0.0 0.0 0.0 0.0 0.0 0.0

components.0.net.linear.0.linear.weight f4 [30, 3]
00000000: b68d fd3e 6820 243d cbcc 1c3e 9466 a7be
00000010: 59fe c3be 897c b63e 2773 a1be 819e 61bd
00000020: e040 3ebf 9052 a5be 2213 033f a4d0 b73e
00000030: d64e d9be 5524 033f 80fd 9e3e 22df c1bd
00000040: a691 793e 338d c33e c8ec 1a3f c9f9 683d
00000050: 5fc1 78be e223 15bf fad3 58bf a2ec c9be
00000060: cf82 1bbf 08f4 133f c11b 4cbd edf9 a4be
00000070: 815f b7be 2be6 77be 8963 3c3e af04 31bf
00000080: 19c5 17bf fd69 7abe 9544 7f3e 96c4 adbe
00000090: 21e7 583e 5145 f83e e742 b93e 3e4e 80be
000000a0: 3b52 9dbe f652 42bf 3049 4a3c 6676 2dbe
000000b0: 26c5 5fbf aa8a a0ba 6819 6abf 678b 6ebe
000000c0: ed1a 84be 832c 883e d839 cd3e 1528 f73e
000000d0: 3522 98be 5af8 81be d8b1 4b3e 363b a63e
000000e0: b816 92be a1f3 a9be 9253 173e dda5 b7be
000000f0: ab03 253f c9c9 fabd 94bd afbd 3bef 7f3e
00000100: 108b 9c3e 0e34 47be 424d 84be 1d3b 36be
00000110: c4bc 1fbf 8bcc 133d 71d7 563e 6301 cf3e
00000120: 6d04 f13e 2f1b ba3e 40f6 c73e 9969 26bf
00000130: f06f ef3e 4ca5 5abe 08f9 adbe 5dd3 b83e
00000140: 1424 003f ea02 41bb d554 f6be 9da9 7abf
00000150: 39a0 003f 0b27 0f3d 4e0b 853e f093 bdbe
00000160: f212 61bf 9a04 2f3e
0.4952218 0.040069968 0.15312497 -0.32695448 -0.3827999 0.35641888 -0.31533167 -0.0550828
-0.7431774 -0.32289553 0.5120107 0.35901368 -0.4244296 0.51227313 0.3105278 -0.09466387
0.24371967 0.38193664 0.6051755 0.05687884 -0.24292515 -0.5825788 -0.8469845 -0.3943835
-0.60746473 0.5779424 -0.049831156 -0.32221928 -0.3581505 -0.24208896 0.18397345 -0.6914777
-0.5928512 -0.24454494 0.24928506 -0.33939046 0.21181919 0.48490384 0.36183855 -0.25059694
-0.307268 -0.7590784 0.012346551 -0.16939697 -0.874102 -0.0012248356 -0.91445017 -0.23295365
-0.25801793 0.2659646 0.40083194 0.48272768 -0.29713598 -0.2538479 0.19892061 0.3246705
-0.28532958 -0.33193687 0.14777973 -0.3586873 0.6445872 -0.12245519 -0.08581081 0.24993603
0.30574846 -0.19453451 -0.25840193 -0.17795987 -0.6239741 0.03608374 0.20980622 0.40430745
0.4707369 0.36348864 0.3905506 -0.6500488 0.4676509 -0.21352118 -0.33979058 0.36098757
0.5005505 -0.00294512 -0.48111597 -0.9791506 0.5024448 0.034949344 0.25985187 -0.3702693
-0.87919533 0.17091599

components.0.net.linear.1.weight f4 [30, 30]
00000000: a567 693d ef90 f13c 1deb c6bd d143 363e
00000010: 8809 0a3d bd28 5fbd 0296 c6bd 8cb7 18be
00000020: 2821 05be 4be3 863d d1cf 95bd 3554 02be
00000030: 2319 5e3d 50bd b6bd 3e8e f13c bedf 6bbd
00000040: ad83 8bbd 61a3 e43d 40f1 b8bd 996a 0abe
00000050: cb0c dfbd 4b0c ffbd b589 123e 7478 11be
00000060: 923c 063e 4d5d a0bd caad 65bd 22d8 bebd
00000070: 42e7 a7bb 5bba 203d f383 223e 839d 01bd
00000080: 910f f03b 9756 0dbe f50e 7abd ec1c 123e
00000090: 4f96 f83d eff2 01be 3344 9dbd 6214 1e3e
000000a0: 63e3 953c e18c 3b3d c898 5ebd 926c f53d
000000b0: 6529 f6bd 51a0 cbbd 6f98 883c 2ab2 bdbd
000000c0: c14f 20bc d33f 0a3d 5e91 7f3d 0744 393b
000000d0: d572 e0bd 05d5 9f3c 0969 5e3d 91ee d03d
000000e0: 9fa9 7d3c 7c84 c03d b9e5 73bd 166d ebbd
000000f0: fdc5 483d f57c 15be 62a4 283d 7a7f 88bd
00000100: d7aa 793c 59bc adbb fe6e 19be 0bb3 2dbe
00000110: 4738 bebd b363 8ebd 2410 a83d 92f8 383e
00000120: b6af 383e 28df 163d 1f99 17be 6e3f 33be
00000130: 8af3 16be c0fe edbd 72c6 ecbc 4c8a 103e
00000140: a5ab 51bd 988e ea3d b9c3 923d 411e 4a3c
00000150: c520 5abd 9508 d7bc d897 5e3d 192e a53d
00000160: 35f8 28bc d7d7 5b3d 70cb e73c dda1 903c
00000170: c0c8 613d 64a7 a33d 697e 30be d71a 0e3e
00000180: 6cb9 e03d ea50 a9bd f15b 2cbe c238 c6bd
00000190: b6d5 b3bd c349 9f3b 842f e5bd f4a4 28bb
000001a0: 6b8f 0f3e b52f a9bc 4c60 143e 2b5d 613d
000001b0: f0e5 ebbd 3f13 963d bd18 863d d3ec adbc
000001c0: 2c6d c7bd bb84 0bbe e390 f1bc 7659 14be
000001d0: 79ae febd f249 36be 672f 3bbd bfd9 8bbc
000001e0: 4238 fbbd 84f0 11be 2201 cabd 010b 003d
000001f0: 7913 18be aa7c f33d 8ef4 1ebe 96cd 4bbd
00000200: 013f bcbd 9ca0 b83d 8a67 01be 1052 babd
00000210: 8811 38be 615b 2bbe 0252 293e fbc9 903c
00000220: 0ec6 05be 7a5e 26be cef8 313e 094f 29be
00000230: a353 1dbe 464a 0f3e e60f d83c c9d0 c23d
00000240: a63e ea3d 12a7 39bc 5c0d 563d 1065 f2bd
00000250: 526c 453d 085b 813d 3e7b 233e a519 66bc
00000260: b535 babc 9934 963d 5eba b93d 1f9d 60bd
00000270: bfa6 c23c afc3 563d 9b3f e9bd 8c61 af3c
00000280: 8e3e 623c 2f3f d8bc b715 a9bd 54fb 743b
00000290: db0c 9abd 601e 97bc a38d 8fbd c936 8e3d
000002a0: 6a5e 16be 41d4 de3d 1c71 4ebc 3d42 ac3b
000002b0: 913a 11be 01ec 2abe b33b b7bd 9da3 04be
000002c0: ffb0 063e 3409 0b3e 842d 07be 14f2 3dbd
000002d0: dce7 34be baa7 2ebe 99ed 033d ba97 21bd
000002e0: ddc8 233e 9ef1 0b3d 827e 48bd 90fe ebbd
000002f0: 7534 f4bc 0065 113e e105 1a3e dd1e 0cbe
00000300: 9509 52bd ba58 28bd 7944 afbd 662c 093e
00000310: 0153 91bc abd1 f4bd 0c2a 643c a501 1c3c
00000320: 460c 85bd 4435 9fbd aa4a f0bd 9a70 763c
00000330: 8bc5 31be cfaf 08be 7bc6 debd d87c 03be
00000340: 186c c2bc 24dc 6dbb 8cfa debc 424e 1fbe
00000350: 832a d93d 6e7a 98bd 02fa 963d 614d 9f3d
00000360: 5617 e2bd ee23 21be 0adc 9c3d d021 3fbd
00000370: 2c6c 11be 465c a7bc 32b3 10be 2d91 23be
00000380: 597d 45bd 73ec bcbc fdec e4bc 2e77 003d
00000390: c5b4 00be b9dc ff3d 60b8 e5bd 2380 84bc
000003a0: 5e7d 643d a7ab 0bbe 6e3d 603c d59e b1bb
000003b0: def8 01be c15c 1dbe b3cf 2b3e b692 bfbd
000003c0: b756 12bd 8417 a9bc f45a 333e 097e 2fbe
000003d0: 87a3 ccbd 33e6 a53d 7569 dabd 5804 38be
000003e0: 2b3a 1c3e 8bfd 84bd a9fc 09bd 9db7 0dbd
000003f0: 11fb 06be 2b67 bcbd 11fc e2bc 24b2 ee3d
0.05698361 0.029488055 -0.09712813 0.17799307 0.033700496 -0.05448221 -0.096965805 -0.14913768
-0.1300093 0.065863214 -0.073150285 -0.12727435 0.05422319 -0.08922827 0.029486772 -0.057586424
-0.068122245 0.111639746 -0.0903039 -0.13517226 -0.10891112 -0.124535166 0.14310344 -0.14206105
0.13109043 -0.07830296 -0.05607394 -0.09318568 -0.0051240036 0.039240222 0.15870647 -0.031644356
0.0073260744 -0.13802563 -0.06104942 0.14268845 0.12138044 -0.12690328 -0.076790236 0.15437463
0.018296903 0.04578865 -0.054344922 0.11983599 -0.12019614 -0.09942687 0.016674249 -0.09262498
-0.00978464 0.033752274 0.062394492 0.0028269307 -0.109594025 0.019510755 0.054299388 0.10201753
0.015482335 0.094002694 -0.059545252 -0.11495416 0.04901694 -0.14598449 0.041172393 -0.06664939
0.015238485 -0.005301994 -0.14983746 -0.1696283 -0.09288078 -0.0695261 0.082062036 0.18063572
0.18035778 0.036833912 -0.14804505 -0.17504665 -0.1474134 -0.11620855 -0.02890322 0.14115256
-0.051189084 0.11452979 0.071662374 0.012336315 -0.053253908 -0.02624921 0.05434403 0.08065433
-0.010313083 0.053672638 0.028295249 0.017655307 0.05512309 0.079909116 -0.17235722 0.13877426
0.109728664 -0.08267386 -0.16831948 -0.096787944 -0.087809965 0.004861088 -0.111907035 -0.0025733085
0.14019553 -0.020652631 0.1448986 0.055020493 -0.115184665 0.0732789 0.06547687 -0.02123109
-0.0973762 -0.13624851 -0.029488033 -0.14487252 -0.12435622 -0.17801645 -0.045699503 -0.017071603
-0.1226659 -0.14251906 -0.09863497 0.031260494 -0.14851178 0.11889012 -0.15522978 -0.04975661
-0.091917045 0.09015009 -0.12637153 -0.090976834 -0.17975438 -0.16734077 0.1653519 0.017674437
-0.13063833 -0.16246977 0.17380068 -0.16534056 -0.15363936 0.13993177 0.026374768 0.09512479
0.114377305 -0.011331337 0.052258834 -0.118356824 0.048199005 0.06316191 0.15964982 -0.0140442
-0.022730688 0.07334251 0.0906875 -0.054837342 0.023761151 0.052432712 -0.11389085 0.021408819
0.0138088595 -0.026397316 -0.08256095 0.0037381249 -0.07521983 -0.018447101 -0.07009437 0.06944043
-0.14684454 0.10880328 -0.01260021 0.0052569197 -0.14182498 -0.16691591 -0.089469336 -0.12953039
0.13153456 0.1357773 -0.13200957 -0.04637344 -0.17666572 -0.1705617 0.032209013 -0.03945134
0.15994592 0.03416597 -0.048948772 -0.11523163 -0.02981017 0.14198685 0.15041305 -0.13683648
-0.05127867 -0.04110024 -0.08557982 0.13395843 -0.017739775 -0.119540535 0.01392604 0.009521876
-0.064964816 -0.077738315 -0.11732991 0.015041495 -0.17360513 -0.13348316 -0.10877701 -0.12840593
-0.023733184 -0.0036294544 -0.02721908 -0.15557197 0.106038116 -0.074452266 0.07371904 0.07778431
-0.11039607 -0.15736362 0.076591566 -0.046663105 -0.1420142 -0.020429742 -0.14130858 -0.15973349
-0.048215244 -0.023061967 -0.027945036 0.03136366 -0.12568958 0.124932714 -0.11216807 -0.016174382
0.055783622 -0.13639699 0.013686521 -0.0054205456 -0.12692592 -0.15367414 0.1677845 -0.09354155
-0.03572723 -0.020641096 0.17515165 -0.17137922 -0.09992128 0.08100548 -0.106646456 -0.17970407
0.15256564 -0.06493672 -0.03368822 -0.034598935 -0.13181712 -0.09199365 -0.027708085 0.116550714

components.0.net.linear.1.bias f4 [1, 30]
00000000: 0000 0000 0000 0000 0000 0000 0000 0000
00000010: 0000 0000 0000 0000 0000 0000 0000 0000
00000020: 0000 0000 0000 0000 0000 0000 0000 0000
00000030: 0000 0000 0000 0000 0000 0000 0000 0000
00000040: 0000 0000 0000 0000 0000 0000 0000 0000
00000050: 0000 0000 0000 0000 0000 0000 0000 0000
00000060: 0000 0000 0000 0000 0000 0000 0000 0000
00000070: 0000 0000 0000 0000
0.0 0.0 0.0 0.0 0.0 0.0 0.0 0.0
0.0 0.0 0.0 0.0 0.0 0.0 0.0 0.0
0.0 0.0 0.0 0.0 0.0 0.0 0.0 0.0
0.0 0.0 0.0 0.0 0.0 0.0

components.0.net.linear.1.linear.weight f4 [30, 30]
00000000: 8b6a 64bd 0d74 b6bd 86cf 5d3d 12ff 48be
00000010: 05e9 12be 0449 373d 280c 993d b398 983e
00000020: b9b4 95bd f4f1 a13d fa24 923d 4f37 a23d
00000030: 1622 4fbe 8629 703e 44fd 833d 0d19 743d
00000040: 0a9e 36be 8f77 bf3d 3c55 f93b cea4 1fbd
00000050: 01ca c2bd 9b42 e2bd c979 393e 083c d23c
00000060: 7d3b bc3b a4bf 51be 2665 5abe ef7a 923d
00000070: 6c0e 87bc 87a1 6a3e 6704 233c 0951 e9bd
00000080: b6bd 993d 1c76 983c 0037 693e 020d c53d
00000090: cdb5 22be 80fa b2ba 8563 2a3e 9f0e 1a3b
000000a0: 4262 3cbe 132c 44bc d25b 223e 2694 523c
000000b0: 15dd 793d 35bd 743d edf7 ebbd 4f96 35be
000000c0: 0475 8e3d 2b77 00be 8977 67bc b0ba c23d
000000d0: f47d 563d 7635 773d dbf2 f9bd 927d 8a3d
000000e0: 706b 01be 102a 4b3d 7ad3 fe3d c08d d53d
000000f0: 030b 2b3e 056f eabd a42b 203d 1243 11be
00000100: 0f77 84be 8f4d 31be a367 f63d cdf9 6c3e
00000110: d89d 473d b23f fd3d 65d6 1b3e 1deb 443e
00000120: 5b26 4abc cd02 523e 6de2 573e 58e5 00bd
00000130: 6f09 9abe 1e66 8a3e 0fa6 353e 4b0d 593d
00000140: 465f 833e 2c04 bfbd 8d99 813d 9b63 81bd
00000150: 6162 743d b3aa 493e 2467 b2bd ba49 373d
00000160: ae47 223c 8d07 d03a 28dc 95bd 929d a53d
00000170: 954c 2cbe 9504 9e3d 7411 f23d 034f 37bd
00000180: cf23 2c3e 8f43 2ebe 19f8 7dbc 3244 2dbd
00000190: a45b 82bd ba2e ec3d 9af4 a1bc b187 863d
000001a0: b4bc 02be 6fa0 3abe 9857 0cbe 2c32 94bd
000001b0: c0ea c4bd 7fea eebd 0e9f 2c3e 39c7 2c3e
000001c0: e348 0dbe 6bd4 9bbd d643 f0bd b309 86bd
000001d0: 488c 5fbd 4670 80be ae0e fbbd 8676 79be
000001e0: ced5 aabd 65e3 c3bd 53c1 c83d 5481 49be
000001f0: ee00 9c3c 7749 81bd f96c f8bd 03e8 e83d
00000200: 5f0e 83be 4ed3 d33d ae71 90bd d0ba 8e3d
00000210: dba4 18be d167 f63d 92d0 e93d e88f 573e
00000220: 1d5e 1a3d 3583 f43d 6034 823d 931f 0d3c
00000230: c8b3 1ebe e20a 0d3d ae47 783d 9a0d 6fbc
00000240: 0aca 30bd 034a 6abe 94bd e639 57c8 033e
00000250: caee 98bd dbc0 963c 0468 66bd c2ad 0f3d
00000260: 44c0 3fbe 8184 0a3d 7530 1b3d 22f0 8c3d
00000270: e5bb 353e 1c24 abbc 3314 dc3d f205 5abe
00000280: 37d1 86be 5931 123e 7423 363e c3e5 873d
00000290: 32a5 76be 0099 87bd a8fd 1c3e a88d fe3c
000002a0: 275c eabc 16ec 1abe 5ebb 043e 2c4e 6b3e
000002b0: 37c2 0ebe e750 113b e648 1c3e 371f f03c
000002c0: 123c 2a3d 72e4 4ebe 1245 0dbe 7cc8 41bc
000002d0: af59 46be d7c0 4a3e 7015 d6bd e42f 753d
000002e0: 8fa0 ae3d d7df 193d a306 0fbe 1340 bebc
000002f0: d5a4 5cbe a320 213d fba7 5b3e 52fb 893c
00000300: 83f2 f4bd c9bc a43d a4d3 3a3e dea3 a1bd
00000310: 027b 32bd 94f5 2c3e 077d 30be ae46 153d
00000320: c7e0 c5bd 4aa6 a2bd 9e85 95bc b193 25be
00000330: 7bc6 4ebe b0be 23be 7926 ffbd c062 4abd
00000340: 1a54 eb3d ecf3 133e 481f 243e 75c5 2ebe
00000350: ff23 54bd e483 11be edab 6b3e d186 2a3e
00000360: ce1c c23d 2a0c 22be 8dae be3d 1b40 4f3d
00000370: 4ff4 1dbe 1002 a23d 8ce3 5f3d 0bc9 dd3d
00000380: d024 f73c 7c66 82be 97ff 01bd 35a0 d4bd
00000390: 23aa b9bd dc1a f73d 1e28 cd3d 90e6 5f3e
000003a0: 9ab9 6f3d f0eb ae3d 08f6 c1bd d74d c73d
000003b0: 14d7 2e3e 1b9d 21bc 952f 4a3c a1c0 16be
000003c0: 87e7 a63c 0603 18be 63aa 303d 22d1 5fbd
000003d0: b84e a33d a511 cfbd 89d7 d93d 0243 9ebd
000003e0: 2fb3 fabd 7038 65be 2a7d aa3c b494 203d
000003f0: b3c9 ae3d b3eb b93d 64d0 93bd 956b 70be
-0.05576567 -0.08908854 0.054152988 -0.19628552 -0.14346702 0.044747368 0.07473022 0.29804
-0.07309861 0.07907477 0.07135959 0.079207055 -0.20227847 0.2345334 0.06444791 0.059594203
-0.17833725 0.09348976 0.0076090377 -0.03897553 -0.095111854 -0.1104786 0.18112864 0.02566339
0.0057443962 -0.20483261 -0.21327648 0.07152354 -0.01648637 0.2291318 0.00994978 -0.11392409
0.075068876 0.018611006 0.22774887 0.09621622 -0.15889664 -0.0013654977 0.16639526 0.002350725
-0.18396857 -0.011973399 0.15855339 0.012852704 0.061001856 0.059750754 -0.115218975 -0.1773312
0.06955913 -0.12545459 -0.0141276205 0.09508264 0.052366212 0.06035372 -0.12204524 0.06762232
-0.1263864 0.04960066 0.1244268 0.10427427 0.1670342 -0.114469565 0.03910412 -0.14185742
-0.25872084 -0.17314743 0.12031486 0.23142166 0.048734516 0.123656645 0.15218504 0.19230314
-0.012338246 0.20508881 0.21082468 -0.03146872 -0.30085322 0.27031034 0.17739128 0.052991193
0.25658625 -0.093269676 0.063281156 -0.06317826 0.059664134 0.19694023 -0.08711079 0.044748046
0.009904785 0.0015871391 -0.07317382 0.08086695 -0.16826089 0.07715718 0.11819735 -0.044753086
0.16810535 -0.17017959 -0.015501046 -0.042301364 -0.06365135 0.1153235 -0.019769955 0.0656885
-0.12767297 -0.18225263 -0.1370529 -0.07236132 -0.096150875 -0.1166582 0.1685755 0.16872872
-0.13797335 -0.07608875 -0.11731689 -0.06544819 -0.054577142 -0.25085658 -0.12258659 -0.2436162
-0.08341561 -0.095648564 0.09802499 -0.19678241 0.019043412 -0.063128404 -0.1213016 0.11372378
-0.25596902 0.103430375 -0.07052933 0.069692254 -0.14906637 0.1203152 0.11416735 0.2105099
0.03768741 0.11939088 0.06357646 0.008613485 -0.15498269 0.034434207 0.060615234 -0.014590645
-0.04316143 -0.22879796 0.00044010265 0.12869392 -0.074674204 0.018402508 -0.05625154 0.035077818
-0.18725687 0.03381777 0.03788801 0.06881739 0.17747457 -0.020891242 0.1074604 -0.2129133
-0.26331493 0.14276637 0.17786962 0.066356204 -0.24086455 -0.06620979 0.15331137 0.031073406
-0.028608395 -0.15129122 0.129621 0.22979039 -0.13941275 0.0022173466 0.15262184 0.02931176
0.041561194 -0.20204332 -0.1379588 -0.011827584 -0.19370149 0.19800125 -0.10453308 0.059860125
0.08526718 0.037566986 -0.13967375 -0.023223912 -0.21547253 0.039337765 0.21450798 0.016843472
-0.11960318 0.080438204 0.18244797 -0.07892583 -0.04357434 0.16890556 -0.17235194 0.03644436
-0.096620135 -0.07941873 -0.01825219 -0.16169621 -0.20192902 -0.1599071 -0.1245851 -0.04941058
0.114906505 0.14448518 0.16027558 -0.17067511 -0.05179214 -0.14210469 0.23014803 0.16652991
0.0947815 -0.15824953 0.09310637 0.050598245 -0.15425228 0.0791055 0.054660365 0.108293615
0.03016892 -0.25468814 -0.03173789 -0.103821196 -0.09065654 0.1206567 0.10017417 0.21865296
0.058526613 0.08541095 -0.09470755 0.09731644 0.17074233 -0.009864117 0.012340446 -0.1472192
0.020374073 -0.14844903 0.043131243 -0.054642804 0.07973999 -0.10110787 0.10636813 -0.077276245
-0.12241208 -0.2238481 0.020811636 0.039204314 0.08534565 0.09078159 -0.07217482 -0.2347854

components.0.net.linear.2.weight f4 [30, 30]
00000000: 4b38 8b3d 3d8a 213d 90b0 01be 728a 813d
00000010: be5f 8b3b f29a 7dbd 98db 38bb 7b2f 2f3e
00000020: a7d1 453d dd24 1b3e 0a84 2cbe ee34 1dbe
00000030: a910 0a3e 20fd 45bd e734 d7bc 99e5 77bd
00000040: 949c 31be f60f 31be 44f4 30be ce6c 34bd
00000050: c28a c93d 5218 213e ff6d 1fbe ff30 11be
00000060: 7c85 063e 2790 2cbe 4fa9 b2bd a6eb 3cbd
00000070: dacd dabc f045 0dbc eb9e 293d 428e 38be
00000080: 7f39 853c 8338 00be 4a2e 2a3e cf7d 71bb
00000090: 8f94 a63d e604 cdbd c4ff 2a3e 1865 92bc
000000a0: 7260 223e a323 bebd 5d57 9bbd bf72 8c3d
000000b0: fbc0 25bc 1ada c0bd d5bd bebc e6dc 24be
000000c0: 4e29 1c3e d275 a63c 3820 2bbc 6a25 d33d
000000d0: cf60 823d ae3c 0f3e 50e3 ee3d f4bc 37bc
000000e0: 6dcc 90bd 03dd 96bd f3b4 2b3e 4b32 633c
000000f0: e826 cfbd caed 85bd 2cfc 183e ec3b a7bd
00000100: e4fc 353d 0233 143c 0acb 523d 8bd1 2e3e
00000110: 85e3 1abe 8c72 25be 049d 83bd c228 d7bc
00000120: 503e 903d 866a e9bb 57fd 6eba 9b58 35be
00000130: 25e7 17be db0c 0b3e 09cc 103b c0ce 9e3d
00000140: e6de d7bd 451b cfbd 9be3 193d 3aa7 83bd
00000150: f2ca 03be 1960 1f3e 8167 fd3d c2fe 043e
00000160: 48b5 9ebd 3c27 0bbe 826e 10be bf89 7f3d
00000170: 0ede 233e 1b0d 193e 788e f4bc 6d70 35bd
00000180: d49b 183e 8363 f63d 2ce9 d8bd c08f cb3d
00000190: 7009 a9bd 6664 c7bd b95e bf3c f37a 9a3d
000001a0: cc2d 0e3e 3e97 7e3d 4da1 933d ac1c fdbb
000001b0: 24fd df3d 9182 983d 3c09 c6bd d799 223d
000001c0: e7c2 8ebd 3cc4 dbbb 27d4 b83c cc07 d13d
000001d0: 5c81 3dbd ce32 91bd 01f5 26be 6fd6 57bd
000001e0: 880f 1d3e 5597 943c 648e bd3c 6191 353d
000001f0: 13fe 30bc fdd1 f83d cef9 303e 5126 e13d
00000200: a71b 353e b454 2dbe 37ab 753d b71b 2fbd
00000210: dfe3 c1bd 2622 28be 61bd b13d 339e 0bbe
00000220: 0c4f 4abd 2edc dd3c 435f 193e fe5a 873d
00000230: 1aa4 debd d23b 093e 5b16 e6bc 406b 103d
00000240: 8553 dfbd 5e54 28be 4396 103e 7172 0a3d
00000250: f8b1 6a3d 3a54 a03c 7ee8 3a3c fb83 783c
00000260: 5caa d2bd f704 9bbd 16f4 c13d b6a7 263e
00000270: 88bb a4bc ae90 26bd 8de2 b03d 3140 7fbd
00000280: 39f6 393e a33b dfbc e046 febd 7582 fdbd
00000290: df79 f4bd bb87 efbc 4874 aa3c 6eaf 143b
000002a0: e02f 6b3d 9155 9ebc 05e5 43bd 784b 97bc
000002b0: c2ba eebd fdb5 13be 477e c3bc 8323 1c3e
000002c0: d5a3 ee3d 2b9b 9c3d 38f3 ba3d 3960 123e
000002d0: 023f 683d c637 cf3d 8277 a33c a0be d63d
000002e0: eb00 2c3e 7b9c aebd e052 cc3d 706c a2bd
000002f0: 71c5 c1bd 9d30 f1bd 2212 8a3d c11b 07be
00000300: 4b6b a4bd 9409 1b3e 2d7e af3d a907 ed3d
00000310: 37e0 bcba 4803 f9bc 8fdb 743c 43ef 733d
00000320: 5a5a 353e be52 ed3d 2490 573d c433 013e
00000330: 8f09 babd dfe6 96bd 88c6 883d f6ad 033e
00000340: 8e06 5fbd a3f7 4c3c 34e6 1f3d 2134 1cbc
00000350: 4ffe 1e3e 7c18 ccbd 87be 42bd 2415 e1ba
00000360: 889f b23c 4959 a83d e13a 04be 4fb6 8cbd
00000370: 2a6a 173d 622a 28be d484 bdbd a8ac 37bd
00000380: ff07 09be c9de fabd f6a7 1c3e 3faa 283c
00000390: 64b6 41bd 44e8 613d 2a0e f43d 12af d8bd
000003a0: a136 d93d 27b1 0d3d f1bc 113d bcb2 2d3e
000003b0: 9dab ca3c 00a8 61bd ff8c 02be 8f76 ac3d
000003c0: bde2 b13d f69d 913d 988e 02be 688a bf3d
000003d0: 84b0 2f3e a5af e13c 62c3 293e e12d 033e
000003e0: 2370 c23d 38b2 093e 7deb e93d 0372 84bd
000003f0: f8ef 93bd 6b23 093e 4357 e33d eae4 26be
0.067978464 0.039438475 -0.1266501 0.063252345 0.0042533567 -0.061915345 -0.002820706 0.17107956
0.048295643 0.15150781 -0.16847244 -0.15352222 0.13482918 -0.048337102 -0.026270343 -0.060521696
-0.17344886 -0.17291245 -0.1728068 -0.044049077 0.09840919 0.15731934 -0.15569304 -0.14178847
0.13136858 -0.16851865 -0.08723699 -0.04612317 -0.026709486 -0.008622631 0.04141132 -0.18023017
0.016262768 -0.12521558 0.1661922 -0.003684867 0.08133804 -0.100107 0.1669913 -0.01787047
0.15857103 -0.09284141 -0.075850226 0.068578236 -0.010116811 -0.094165996 -0.023283878 -0.16099891
0.15250131 0.020319853 -0.010444693 0.103098705 0.06366121 0.13987991 0.1166445 -0.0112144835
-0.07070241 -0.073663734 0.16768245 0.013866971 -0.10114843 -0.06539495 0.14939946 -0.08165726
0.04443063 0.009045364 0.051463164 0.17072122 -0.15125854 -0.16156977 -0.06426433 -0.026264552
0.07043135 -0.0071232943 -0.000911673 -0.17709582 -0.14834268 0.13579123 0.002209427 0.07754278
-0.105405614 -0.10112623 0.037570577 -0.0642838 -0.12870386 0.15564002 0.123732574 0.12987807
-0.077494204 -0.13589185 -0.14104655 0.062387224 0.16002676 0.14946406 -0.02985309 -0.04429667
0.14903194 0.12030699 -0.10591349 0.099395275 -0.08253753 -0.09735946 0.023360597 0.07542982
0.13884658 0.062155955 0.072085 -0.007724365 0.109369546 0.074467786 -0.0966973 0.039697494
-0.069707684 -0.0067067426 0.0225621 0.10206565 -0.046265945 -0.07089768 -0.16304399 -0.052694734
0.15337956 0.018138567 0.023139186 0.044328097 -0.0108027635 0.12149427 0.17282793 0.109936364
0.1768633 -0.16926843 0.059977736 -0.04275104 -0.09467291 -0.16419277 0.08678699 -0.13634567
-0.04939179 0.027082529 0.14977746 0.06609152 -0.10871144 0.13401726 -0.028086832 0.03525853
-0.10904602 -0.16438434 0.1411982 0.033800546 0.05729863 0.019571412 0.0114079695 0.015168185
-0.102864 -0.07569306 0.09470384 0.16274914 -0.020108953 -0.04066532 0.08636961 -0.062317077
0.18160333 -0.027250117 -0.12415862 -0.12378398 -0.119373076 -0.029239526 0.0208074 0.0022687572
0.057418704 -0.01932791 -0.047825832 -0.018468603 -0.11656715 -0.14424892 -0.023863925 0.15247922
0.11652342 0.076467834 0.091284215 0.14294519 0.056700714 0.1011806 0.019954447 0.104855776
0.16797225 -0.0852594 0.09976745 -0.07930839 -0.09461487 -0.117768504 0.0674174 -0.13194181
-0.08028277 0.15140373 0.08568988 0.11573727 -0.0014410083 -0.030397072 0.014944925 0.05955435
0.17710248 0.115880474 0.052627698 0.12617403 -0.090838544 -0.07368254 0.06678492 0.1285933
-0.05444961 0.012510213 0.0390379 -0.009533913 0.15526699 -0.099656075 -0.047544982 -0.0017172438
0.021804586 0.08220155 -0.12913086 -0.0687071 0.03696648 -0.16422418 -0.092538506 -0.044842392
-0.13381957 -0.12249524 0.15298447 0.010294496 -0.047293082 0.055153146 0.11916764 -0.10580267
0.10606123 0.034592774 0.03558058 0.16962713 0.024740035 -0.055091858 -0.12749098 0.08421051
0.08685825 0.07110207 -0.12749708 0.09352571 0.17157179 0.027549574 0.16578439 0.1281047
0.09494045 0.13446891 0.11421869 -0.064670585 -0.07223505 0.13392417 0.11100628 -0.16298261

components.0.net.linear.2.bias f4 [1, 30]
00000000: 0000 0000 0000 0000 0000 0000 0000 0000
00000010: 0000 0000 0000 0000 0000 0000 0000 0000
00000020: 0000 0000 0000 0000 0000 0000 0000 0000
00000030: 0000 0000 0000 0000 0000 0000 0000 0000
00000040: 0000 0000 0000 0000 0000 0000 0000 0000
00000050: 0000 0000 0000 0000 0000 0000 0000 0000
00000060: 0000 0000 0000 0000 0000 0000 0000 0000
00000070: 0000 0000 0000 0000
0.0 0.0 0.0 0.0 0.0 0.0 0.0 0.0
0.0 0.0 0.0 0.0 0.0 0.0 0.0 0.0
0.0 0.0 0.0 0.0 0.0 0.0 0.0 0.0
0.0 0.0 0.0 0.0 0.0 0.0

components.0.net.linear.2.linear.weight f4 [30, 30]
00000000: 6697 cdbd 3e7f 98bc 7f33 8ebe 500a 88bd
00000010: 61a3 f73d aba0 e63d 7436 d53d 6e76 a33c
00000020: 447a 7cbc 3efc 8f3e 76af 94bd 778d e63d
00000030: 6f5a 59bd ee98 a73c 4087 17bd c8d2 3c3d
00000040: 2a75 863c 3a63 be3d 09c0 9d3d f273 8c3d
00000050: 34c2 b7bc 3719 88bd b9a1 e8bd a304 40bd
00000060: 9ad9 53be b060 263e 62f5 423d 00aa 38bc
00000070: cbbb cabc 4a87 30be 303b 3dbe c8cc dd3d
00000080: f869 50bd 844e 3c3e 527b 6dbe a6ec be3c
00000090: 8deb 9d3d f936 263c 5c05 163e dcc6 a9bc
000000a0: 8cd6 873d 38e7 83be a1b7 39bd 69e8 a93d
000000b0: d6f8 023e af40 95bd 9b5c a83d b894 b73d
000000c0: 4d68 28bc ede9 d4bd 0000 2dbd a26c 873c
000000d0: e8ef 913e b016 8a3e 05c8 793d fa59 38be
000000e0: 65c8 7c3d 401c 4e3d efcc 47bc 8d75 6cbe
000000f0: 5aaf 853d bca3 38bc 0b10 1b3e 0b97 1cbe
00000100: 4d0a 24be 816d e63d b2d8 6e3d 75c9 c13d
00000110: bede 0dbe b7d2 0fbd 141e 093d 8035 9abd
00000120: bed7 bbbb 2c23 a33d 5ddc b8bd 7be3 ffbd
00000130: 57b9 da3d 36e1 ac3d 41de b13b 268f dfbd
00000140: abd0 c7bd b06d 10be 89f1 55be f72d fabd
00000150: 8289 c23d 4bcc 833d c82c 0cbe 9592 1dbe
00000160: f503 2b3e 075a 72be e3f0 c0be 7709 73bd
00000170: ec8f 16be 5038 e03d 8e9c 77bd fd2a a03e
00000180: 19af f3bb fec9 603c 1422 32bd 6b2c 8d3d
00000190: a98e 8fbe acca 23be d0ce 91be 7fcc b33e
000001a0: fe3b 493e 556e 93bd 30d8 263b 4f3d bf3e
000001b0: 9d19 333e b9b6 3ebd 6f95 75be ddb8 2f3e
000001c0: bbd3 a03e 0499 e93d 148b 683e 3ed9 fcbd
000001d0: dc47 9cbe 5d88 733e 144b 503e e155 c0be
000001e0: 28fd 82bd 10e3 80be e512 593e 7dc0 a63b
000001f0: f290 8abd a2d3 32be 946f bdbd ce09 c93d
00000200: f287 3c3e d442 823c c157 5a3d ba7d bcbd
00000210: c73f 1ebd 2163 8ebd 47ee 1dbe 495b 85bd
00000220: 2a3f 043e 73a3 ee3d bd93 17be b797 5cbd
00000230: ef46 30bd b1d7 89bd d63c e2bd 4634 0ebe
00000240: 6e3c 60be c9e2 0f3e 42c8 173e 7d49 8ebe
00000250: a8ac 833b 4329 8dbd 1966 46be 98ef 0e3e
00000260: 16f6 0cbd 624a 043d 7e3a 0bbe a123 47bd
00000270: f546 58bd 1829 3bbc 674a 443d fc78 c73d
00000280: 6d5f 573d f6dd 5cbd 9840 fd3d e3d4 343e
00000290: e5d7 c73c 12fd b73d 03e9 b4be ea4f 723e
000002a0: 77c1 233e d45d 5bbb 93dc 92bd 32ce 6bbe
000002b0: b4c2 493e 7275 9e3c 9f76 d1bc 1e4f a9be
000002c0: 0a2c b93d 68b7 e83e c00c abbd 510e 14be
000002d0: 20af 853d e162 ca3d 5aff 5fbd a026 bd3d
000002e0: c7a6 d83d f655 3dbe f883 193e 3d79 d3bd
000002f0: 131c f6bd c772 4e3e 8dcf 86bd fd0a e4bd
00000300: 07be a1bc cca3 0abd 2aae b4bd c730 193d
00000310: ed98 e4bd 71b9 8dbc 6f3f 4fbe 8e5c 80ba
00000320: e470 973d 73f6 173e af24 08be d569 2ebd
00000330: 81cf 363d c489 e83d 68b1 303e 6ae3 5e3e
00000340: ec80 b13c 5050 3e3d 33d2 063e b032 02be
00000350: 5085 d3bc 316a dbbd 8c64 31be 262c 653d
00000360: 0f51 11be a700 5a3b 2d71 67bd d246 ba3d
00000370: dde3 3abd ccb8 a1bd de3c 3abe bf91 bbbc
00000380: 44b5 88bd 685d 66bd 1ff0 a6bd 78cb 283e
00000390: 7a6e 93bd ff43 97bd 568a dbbc 8c46 a7bd
000003a0: 64ae f9bb 7cb5 9bbd 2de1 1c3e 20de 193e
000003b0: 9842 0b3d 0f89 aabb 57b2 5f3d c539 753e
000003c0: c311 463e b5de 2cbd 7d43 ef3c befe 7abd
000003d0: 2520 373e 8b4e 39bc 683d 6d3d 53b6 2ebe
000003e0: 2514 ddbd 6a65 503e ad31 583d 83d1 d7bd
000003f0: aeac fabb 140d 7abd 3667 363d d653 c53d
-0.100386426 -0.018615361 -0.27773663 -0.06642592 0.12091709 0.11261114 0.10410777 0.019953933
-0.01541001 0.28122133 -0.07260029 0.11257451 -0.05306476 0.020458665 -0.03699422 0.046099454
0.01641329 0.0929627 0.077026434 0.06858052 -0.02243147 -0.06645434 -0.11358971 -0.046879422
-0.20688477 0.16247821 0.047597297 -0.011271 -0.02474775 -0.17239109 -0.1847961 0.108300745
-0.05088231 0.18389326 -0.23191574 0.023306202 0.07710943 0.010144942 0.14650482 -0.020724706
0.066327184 -0.25762343 -0.045341138 0.08296282 0.12790236 -0.07287728 0.08220788 0.08963913
-0.0102787735 -0.1039618 -0.042236328 0.016531292 0.28503346 0.26970434 0.06098177 -0.18003073
0.06171455 0.05031991 -0.012194856 -0.23091717 0.06527586 -0.011269506 0.15142839 -0.15291993
-0.16019554 0.11251355 0.058312126 0.09462253 -0.138545 -0.035113063 0.03347595 -0.075297356
-0.0057325056 0.07965693 -0.09026406 -0.1249456 0.10679882 0.08441393 0.005428106 -0.10915975
-0.09756597 -0.14104342 -0.2089292 -0.12215798 0.09498884 0.0643545 -0.13688958 -0.15387948
0.16700728 -0.23667155 -0.37683782 -0.0593352 -0.1470334 0.10948241 -0.060452037 0.31282797
-0.0074366448 0.013720034 -0.04348953 0.06893238 -0.2803853 -0.15995282 -0.28478098 0.35116956
0.19651791 -0.071987785 0.0025458448 0.37351462 0.1749024 -0.046560977 -0.23982786 0.17160363
0.31411538 0.114061385 0.22709304 -0.12346123 -0.30523574 0.23782487 0.2034114 -0.3756552
-0.06395942 -0.25173235 0.21198614 0.0050888644 -0.067659274 -0.17463544 -0.092497975 0.09816323
0.18411234 0.015901007 0.053306345 -0.09203668 -0.03863504 -0.06952501 -0.15422927 -0.06511552
0.1291472 0.11652269 -0.14802451 -0.053855624 -0.043036398 -0.06730593 -0.1104676 -0.13887128
-0.21898052 0.14051355 0.14822486 -0.27790442 0.004018385 -0.06892636 -0.19374885 0.13958585
-0.034414373 0.0322975 -0.13596532 -0.048617963 -0.052802045 -0.011423372 0.047922518 0.09739873
0.05258124 -0.053922616 0.12365836 0.17659335 0.024394939 0.08983816 -0.35334024 0.23663297
0.1599177 -0.0033472674 -0.071709774 -0.23027876 0.1970318 0.019343112 -0.025569258 -0.33068174
0.09041603 0.45452428 -0.08352041 -0.14458586 0.06527543 0.09882141 -0.05468688 0.09235883
0.10578685 -0.18489823 0.14991748 -0.10325859 -0.120170735 0.20160972 -0.06582556 -0.11134908
-0.019743932 -0.033847615 -0.08822282 0.037400033 -0.11161981 -0.01730034 -0.20239042 -0.0009793208
0.07394579 0.14840107 -0.13295244 -0.042581398 0.044631485 0.11354402 0.17255175 0.21766439
0.02166792 0.04646331 0.13166122 -0.12714648 -0.025820404 -0.10713614 -0.17323512 0.055950306
-0.14191078 0.003326455 -0.056504417 0.09095539 -0.045627464 -0.07896575 -0.18187281 -0.022896646
-0.06675199 -0.056241423 -0.08151268 0.16483867 -0.07198806 -0.07386016 -0.026799362 -0.081677526
-0.007619666 -0.07602975 0.15320273 0.1502614 0.033999056 -0.005204327 0.054613438 0.23947819
0.19342713 -0.042204577 0.029206986 -0.061278097 0.17883356 -0.01131023 0.05791989 -0.17061739
-0.10794858 0.20351186 0.05278175 -0.10538008 -0.0076499796 -0.06104763 0.044532023 0.09635131

components.1.net.linear.0.weight f4 [94, 10]
00000000: 8556 7dbe 4102 9d3e e702 873e 9bc6 8e3e
00000010: 5090 d73d f050 fa3c d7c1 01be 4553 a03e
00000020: e614 683e 302e 80be 6460 33be 402b 333e
00000030: 375e 0abe b838 513d 9bd0 2dbe 6597 16be
00000040: 9023 4f3d 1883 b33d ba2d 5abe 0c29 f13d
00000050: 5e45 9cbe 74a6 ce3d 78bd 7dbe a007 753c
00000060: 0849 e13d 5e39 06be d856 a43d aadf 7c3e
00000070: c841 b8bd 79e6 43be de06 793e d06d fa3c
00000080: bcf5 9b3d 2af4 02be a4c8 893d 5612 a1be
00000090: d741 4fbe e062 64bc 39ce 8abe f0da 973c
000000a0: cad2 2dbe 10c1 cfbd fc62 e63d e418 ec3d
000000b0: 9a0c adbd e609 683e eae4 7abe 7821 95bd
000000c0: 5f3e 28be 825b 653e 18ed ec3d 33fd 97be
000000d0: 8034 e6bb e24b afbd accb d73d 43fc 943e
000000e0: 89c5 04be 66f3 773e 48e9 363e 4ca1 6bbe
000000f0: a2a9 b7bd 068b b5bd 68c4 5ebe cb5c 8d3e
00000100: c64c 783e a05d 95bd d295 15be 804a ccbd
00000110: ed4b 8abe 1232 32be 7079 1d3d ac6e b73d
00000120: c239 503e 4054 da3b 671e 84be ac85 943d
00000130: c4de f9bd 18ee 283d 7243 e6bd d823 853d
00000140: 7051 3a3d 4849 3bbd 08a6 5ebd 7cd0 6ebe
00000150: 0a53 ccbd 28b1 41be 0ca3 863d 7c24 7dbe
00000160: e015 d43d f6c4 4b3e 571c 803e 3b7b 9b3e
00000170: e87e b4bd 5c35 863d ce76 4ebe 4096 85bb
00000180: 7e07 543e 43d8 a1be 20da 2a3d bc8e d03d
00000190: f5e3 8cbe 1739 9b3e a62e 8fbe 7782 9e3e
000001a0: bce1 2c3e 9e48 d2bd ce51 11be 52cc 703e
000001b0: 600e e33d 0036 0b3d b023 e13d 24a5 31be
000001c0: de35 583e fa0d 373e 3c30 ca3d acab e73d
000001d0: 8c6a e03d 7246 453e 8733 8bbe 8eb6 1e3e
000001e0: 363c 8bbe 03b0 8b3e 7090 aebc a80c 513d
000001f0: 5ec2 95be e09b dc3d 48c9 813d 5c1f 03be
00000200: 0fec 8fbe c041 eb3d 186a 57bd 3c33 333e
00000210: 00b1 ad3d 70a9 babc 80b4 0bbe a099 c3bc
00000220: 1cb7 a63d 328c 6a3e 109b 8d3c c0c1 e83b
00000230: 804b 15bd 00cd f2bb 20ea fc3d 52f0 57be
00000240: 2069 5c3d d629 7e3e 88e3 303d 241f 86be
00000250: 7870 293e 1060 e73c 720a 07be d420 07be
00000260: 605c 8ebe 02e3 cabd e5b7 82be 40bc 95bc
00000270: b4df 68be d28c 553e d7ca 93be a48c b4bd
00000280: 0e4e 52be cc94 36be a6ad 4c3e 10f0 9dbe
00000290: 8afd 7e3e b0c9 ae3d 16f8 403e a0d2 373c
000002a0: 80b5 4abd d03e 053d 6202 563e 889b 583d
000002b0: a015 563c 13fb 1fbe 80ef 183b df71 41be
000002c0: 900f aebc fcaa d53d 10d5 9ebc cc8e 023e
000002d0: a012 303e 126a 4dbe 701f 1bbe 0048 2dbb
000002e0: e1b1 90be 9049 793d ceaa 2ebe db16 05be
000002f0: 5a3e 93bd 8b4c 2abe c493 88bd 680d eb3d
00000300: ef97 42be c418 53be de4a 6a3e c0a4 debc
00000310: 817b 12be 4091 153e a463 bcbd 4814 673d
00000320: c69e 22be c08c c1bc dca8 dd3d f0c9 b93c
00000330: c089 8d3d 570f a03e c0bd 5f3d 6a69 7d3e
00000340: 623b 343e f021 d63c f5d5 66be 9ed8 623e
00000350: 4054 a6bc 9ebd 6c3e 06fe 55be 0064 d93b
00000360: f80b 49be c08f ff3d a047 26bd 64c1 44be
00000370: 0629 fdbd 1caf 983d 7085 19be fe10 7abe
00000380: 8079 f83c 2039 7d3c 5e29 a8bd 9f13 993e
00000390: 20f8 cfbc 701b f2bc 7669 483e 8c9b cebd
000003a0: 6ac4 05be 7953 76be d801 7ebe d7b7 72be
000003b0: 23fd 2fbe f40d bbbd e767 a13e 804a 593c
000003c0: 4ceb bfbd e410 8dbe 84dd e03d 40b1 cdbc
000003d0: da7f 12be 66c6 2a3e 00b6 543a 2ec9 6f3e
000003e0: e0f4 533d 5c6c e3bd d00e 913c be14 573e
000003f0: 7659 88bd 3829 01be d8c8 03bd db81 93be
-0.24740036 0.30665782 0.26369402 0.278859 0.10525572 0.030556172 -0.126716 0.3131353
0.22664222 -0.25035238 -0.17517239 0.17496967 -0.13512503 0.05107948 -0.16974108 -0.1470619
0.050571024 0.087652385 -0.21306506 0.11775407 -0.30521673 0.10090342 -0.24779308 0.014955431
0.11000258 -0.13107821 0.08024377 0.24694696 -0.08996922 -0.19130887 0.24319026 0.03056994
0.076152295 -0.12788454 0.06727722 -0.31459302 -0.2023996 -0.013939589 -0.2711046 0.018537015
-0.16974941 -0.101442456 0.112493485 0.11528185 -0.08449669 0.22660026 -0.24501386 -0.07281774
-0.16430043 0.22398189 0.115686595 -0.29685363 -0.0070253015 -0.085593954 0.10536894 0.2909871
-0.12965979 0.24213943 0.17862427 -0.23010749 -0.08967902 -0.08864407 -0.2175461 0.27609858
0.24248037 -0.07293248 -0.14607933 -0.09975147 -0.27011052 -0.17401913 0.03844589 0.08956656
0.20334533 0.0066628754 -0.25804445 0.072520584 -0.12200692 0.04124269 -0.11243333 0.06500977
0.04548782 -0.045724183 -0.05435756 -0.23321718 -0.09976776 -0.18915236 0.065740675 -0.24720949
0.10355735 0.19899353 0.25021622 0.30367455 -0.08813268 0.06553146 -0.20162508 -0.004076749
0.20705983 -0.31610307 0.041711926 0.101834744 -0.27517667 0.30316994 -0.27965277 0.30958912
0.16882986 -0.10267757 -0.14191362 0.23515442 0.11086726 0.033987045 0.10993135 -0.17348152
0.21114299 0.17876425 0.09872481 0.11312041 0.10957822 0.19265154 -0.2718775 0.15499327
-0.27194375 0.27282724 -0.021309108 0.05103746 -0.29249853 0.10771918 0.063372195 -0.12804931
-0.28109786 0.1148715 -0.052591413 0.17500013 0.08481026 -0.022785872 -0.13643074 -0.023876965
0.08140394 0.22905043 0.017285854 0.007103175 -0.036448956 -0.007409692 0.12349343 -0.21087769
0.053811193 0.24820647 0.04318574 -0.26195633 0.1654681 0.028244048 -0.13187578 -0.13196117
-0.27804852 -0.099065796 -0.25530925 -0.018278241 -0.22741586 0.208545 -0.28865692 -0.088158876
-0.20537588 -0.17830199 0.19988117 -0.30847216 0.24901405 0.085345626 0.18844637 0.0112196505
-0.0494895 0.032530606 0.20899346 0.0528827 0.013066679 -0.15623121 0.0023336112 -0.18891095
-0.021247655 0.10433003 -0.019388705 0.12749785 0.17194605 -0.20059994 -0.15148711 -0.002644062
-0.2826071 0.06086117 -0.17057344 -0.12997 -0.07189627 -0.16630761 -0.06668809 0.114771664
-0.1900327 -0.20614916 0.22880122 -0.027178168 -0.14304926 0.1460619 -0.091986924 0.056415826
-0.1588088 -0.023626685 0.10823223 0.0226793 0.06911039 0.31261703 0.05462432 0.24747244
0.17600778 0.02613923 -0.22542556 0.22152945 -0.020303845 0.23119208 -0.20897684 0.0066342354
-0.19633472 0.1247859 -0.04059565 -0.19214398 -0.1236134 0.074552745 -0.14992309 -0.24420545
0.030331373 0.015455514 -0.08211015 0.29897782 -0.02538687 -0.029554099 0.1957148 -0.10088262
-0.13063207 -0.2405528 -0.24805391 -0.23702942 -0.17186408 -0.09133521 0.31524584 0.013262391
-0.09371051 -0.2755195 0.10979751 -0.025108933 -0.14306584 0.16677245 0.00081142783 0.23416588
0.051747203 -0.11104652 0.017707258 0.21004006 -0.06657688 -0.1261338 -0.03217396 -0.2881001

components.1.net.linear.0.bias f4 [1, 10]
00000000: 0000 0000 0000 0000 0000 0000 0000 0000
00000010: 0000 0000 0000 0000 0000 0000 0000 0000
00000020: 0000 0000 0000 0000
0.0 0.0 0.0 0.0 0.0 0.0 0.0 0.0
0.0 0.0

components.1.net.linear.0.linear.weight f4 [10, 94]
00000000: d54b 183d 5b89 68be e711 ecbd 4d88 c6bd
00000010: 040c ae3d 0dac 4ebd c0ce b13d b9d9 afbc
00000020: 8fc6 3f3e 5786 6abe d748 c13d 99d6 3e3e
00000030: 0b2d 54bd 0a80 3abe 8231 00be 5631 453e
00000040: 4695 47be af43 c13d bfbd 0ebe bfd7 003e
00000050: a6fb 003d 25f7 38bd 9ba1 b2bd f72a c6bd
00000060: 8038 f73c e0f4 54bd c899 aa3c 2ec3 3b3e
00000070: f516 c33d eba4 cd3d 4a0d 00be 52eb ccbb
00000080: fece 5e3c 1b0e 00bd bf2e 95bd ecd2 e9bd
00000090: f89e 89bc 525e 12bd 91fd cbbd c822 643d
000000a0: 22ab ddbd 069f c1bd e909 423d 8c2f 06be
000000b0: 16e6 dc3c fbd2 c8bd 6b1f a8bc a65b 613d
000000c0: c1e8 3abd 9f40 2a3d 6544 9bbd dfee c8bc
000000d0: 6c9b 6abd fa5e 0cbd 9f8a bfbd 14d8 d53c
000000e0: 8644 773d 32dd 2fbd f90d acbc 7a7b 88bd
000000f0: c1e9 443d 3322 1cbc a151 0cbe 5ffa 53bd
00000100: c76f eabd ac4b adbd 8df1 14be 92b9 5cbd
00000110: 9e63 22bd b130 47be f1e2 4fbe e2e7 37bd
00000120: 04fe 0ebe c2e5 debd d09b cabd 061a 9cbd
00000130: e5a8 e3bd c5b9 69bd c74b 95bb b66b a4bc
00000140: 7a20 75bb c618 8dbd 9f6f 1ebc f005 4bbd
00000150: d02a a9bd f4af e4bd 9865 3b3c 93ac b8bd
00000160: 2f17 75bd cb13 debd 7621 1cbd 6d2e bfbd
00000170: 0f56 83b9 f72b 883c d352 333e be6f 89be
00000180: 39d4 a83d 947c 82be d479 443e 8462 b3bd
00000190: 4431 3c3e f42f e1bd d443 663e 76ad 87be
000001a0: 2e04 493e f196 c93b 3908 f7bd 26e3 bebd
000001b0: bdd1 df3c 2735 793d 86ac cabd 68b8 823d
000001c0: 9fab 82be e5b8 533d 34a3 753e 6513 7cbe
000001d0: af5d 04be dca2 00be 8528 313e 5ff4 61be
000001e0: 32b8 433d 67c3 983d 32ff 843e 0faa 843e
000001f0: 2984 2bbd bd18 25bd 4119 bf3d 4274 09bd
00000200: 1d9d ec3b f2e0 1f3d 1bc8 493d d6b9 e23d
00000210: 0f45 8d3d fc4f 2b3d 60a6 eabc ae51 913d
00000220: 98fa 093e fbaf a13d 8584 3a3c 9f79 b7bc
00000230: 297a e83d 0a91 aa3d 78fa 6bbd 7bf3 50bd
00000240: 2525 60bd a899 be3d 7619 8b3d 4e5b fb3d
00000250: 0427 32bd 7b06 0d3e 3c6c ee3b 2e10 49bd
00000260: 52af 24bc 940d 4bbd 2f28 84bc 32fc 87bd
00000270: 57b6 e13c 6c04 65bd 6312 48bd 4af2 72bd
00000280: 64fb fabd a6d2 46bc 8cb2 44be 8827 eabd
00000290: 25d9 7dbb bc7a 26be e783 2fbe 3f9a 25be
000002a0: 5f30 08be c2a5 2bbe 85fe 2cbe 16a0 053d
000002b0: a4c1 083d d506 babd 616d 3abd dda8 68bc
000002c0: c09f 793c 62fa 2b3c d600 11bc 41a9 e23c
000002d0: 763b 48bc 1bf5 8abd 83e2 b33d c8d9 71bd
000002e0: 6f73 733c d66b 31bd da1b a63c 1061 a6bd
000002f0: de89 533e 622d 9cbe 80fa 8e3c 99c9 3dbe
00000300: dd11 023e 77fb f9bd b0e3 de3d 6507 64be
00000310: 1507 623e 18d1 75be b11d 623e 2320 4d3c
00000320: 4ca5 3fbe f6c4 98be 2450 89bd 7b2b e73d
00000330: 6df0 42be b575 8d3e e89e 64be 5c78 a23d
00000340: b3d0 263e dbdf 05be 8ebf 10be ee39 86be
00000350: 88d8 913e 40ca 53be 7fb2 793d 6cab 923e
00000360: 380a d93d e79c 8e3d 8b67 14bc 3163 98bd
00000370: 7061 7e3c 2ff0 863d 60dd 24bd e32a 9dbd
00000380: 993d 063c e8f0 f63c 5129 a6bd 6b42 b7bd
00000390: 9289 843c e816 89bd b843 9abd 032c b0bc
000003a0: 4020 d43c 2709 a93d f496 953d e690 02ba
000003b0: feb5 36bd dae4 803d 4594 3cbd d64c 193d
000003c0: 7ce5 193d e993 4b39 3382 6abc 9fa3 ae3d
000003d0: 256b 723d 116b 30bd 2928 433d 77a6 533d
000003e0: bebd 17bd 065c c6bd e590 15be 64f6 803c
000003f0: 22bc febd c38e 0bbe 54fc 2cbe fb8a d6bc
0.037181694 -0.22708647 -0.11526852 -0.09693966 0.084983855 -0.05045705 0.086820126 -0.021466123
0.18728088 -0.22902809 0.09437721 0.1863655 -0.05180077 -0.18212906 -0.12518886 0.19257101
-0.19490537 0.09436738 -0.1393957 0.125823 0.03148999 -0.04515757 -0.0872223 -0.09676164
0.030178308 -0.051991343 0.020825282 0.18336174 0.09525863 0.10041221 -0.1250507 -0.0062536383
0.0135991555 -0.031263452 -0.07284307 -0.11417183 -0.016799435 -0.035734482 -0.09960473 0.055697232
-0.108236566 -0.094541594 0.047372732 -0.13104075 0.026965182 -0.09805866 -0.020522794 0.055019043
-0.045632128 0.041565534 -0.075814046 -0.024527965 -0.057277128 -0.034270264 -0.09352612 0.02610401
0.060368083 -0.042935558 -0.021002756 -0.06664176 0.048074488 -0.009529638 -0.13703014 -0.051752444
-0.11447101 -0.08461699 -0.1454527 -0.05388791 -0.039645784 -0.19452168 -0.20301415 -0.044898875
-0.13964087 -0.108836666 -0.09893 -0.07622151 -0.111161985 -0.05706193 -0.0045561525 -0.020070892
-0.003740339 -0.06889491 -0.009670167 -0.04956621 -0.08260119 -0.11166373 0.011437796 -0.09017291
-0.059836563 -0.10843619 -0.03811785 -0.09335027 -0.00025050386 0.016622527 0.17512064 -0.26843065
0.08243603 -0.2548567 0.19187099 -0.08759025 0.18378168 -0.109954745 0.22486812 -0.26499528
0.196305 0.006152027 -0.12062115 -0.09320669 0.02732169 0.060841706 -0.098961875 0.06382829
-0.25521562 0.05169 0.23988038 -0.24616773 -0.12926362 -0.12562126 0.17300613 -0.22065876
0.047783084 0.07459145 0.2597595 0.25910994 -0.041874085 -0.040306795 0.09330989 -0.033558138
0.007220878 0.039032884 0.0492631 0.11070602 0.068979375 0.041824326 -0.028643787 0.07095657
0.134745 0.07894894 0.011384134 -0.02239686 0.11351425 0.08328445 -0.057611912 -0.05101345
-0.054722924 0.09306651 0.06791966 0.12273274 -0.04349424 0.13772003 0.007276086 -0.049087696
-0.010051565 -0.049573496 -0.016132442 -0.06639899 0.027552767 -0.05591242 -0.04884566 -0.059313096
-0.1225498 -0.012135183 -0.19208735 -0.11433321 -0.0038734165 -0.16257757 -0.1714016 -0.16172121
-0.13299702 -0.1676245 -0.16893966 0.032623373 0.033387795 -0.09083334 -0.045514468 -0.014200416
0.015235841 0.010496708 -0.008850297 0.027668597 -0.012221208 -0.067850314 0.08783438 -0.059045583
0.0148590645 -0.04331573 0.020276953 -0.08123982 0.20658061 -0.30503374 0.017453432 -0.18533935
0.12702127 -0.12206166 0.10883272 -0.22268446 0.22073014 -0.24005544 0.22081639 0.012519869
-0.187154 -0.2983777 -0.06704739 0.1128759 -0.19037028 0.27628866 -0.22326243 0.07933113
0.1629055 -0.13073675 -0.14135572 -0.26216072 0.28485513 -0.20682621 0.060961243 0.2864641
0.10597652 0.069635205 -0.00905789 -0.07440794 0.015526161 0.0658878 -0.040250182 -0.076741956
0.008193397 0.03014417 -0.08113349 -0.08948215 0.01617888 -0.06693822 -0.075324476 -0.021505361
0.025894284 0.08253699 0.07304183 -0.0004980698 -0.044607155 0.0629365 -0.04603984 0.037426792
0.03757237 0.0001941469 -0.0143132685 0.08527302 0.059184212 -0.043070856 0.04764572 0.051672425
-0.037046187 -0.09685521 -0.14606054 0.015742488 -0.12438227 -0.13628678 -0.1689313 -0.026189318

components.1.net.linear.1.weight f4 [10, 10]
00000000: da2e 1a3e 8723 9d3e e388 80be 9cd9 30be
00000010: d807 6fbd 6317 8ebe aefe 14be b28a 653e
00000020: e9c8 97be 6c8d ea3d f75a 17be 6edd 203e
00000030: 2a2b ebbd 70f5 22be 6532 32be 8605 4a3e
00000040: f798 87be d31b 15be 7c5e 6abe f449 12be
00000050: 4347 8dbe e8dc 79bd cea5 743e f8ff 133d
00000060: d260 80be e8a4 04bd 812d 883e 9283 543e
00000070: 60b7 6d3d aad9 98bd 8220 bdbd 396d 863e
00000080: 2ca9 4ebe 095b 3bbe 3857 ec3d f0d1 b13c
00000090: e855 96bd 9c3c 70be 925e 5a3e 1495 eabd
000000a0: d1dc 2ebe d0c0 183d 4890 6abe b9e4 91be
000000b0: 7ba9 a03e c77a 0ebe f838 583d 0084 8739
000000c0: 20b9 33be 3bba 9abe d57f 4cbe 5c33 a63d
000000d0: 8319 89be 702a a9bc e049 9a3c a8b9 b83d
000000e0: 00f6 333c e9a1 50be f093 13be 22bd 5bbe
000000f0: 9c12 49be 1bdd 35be 54c4 90be 1fb7 20be
00000100: c0ff 08bc 31c6 9dbe 8237 c9bd 15a2 9d3e
00000110: eeb3 dabd d173 9d3e 0396 38be 50dd 3dbd
00000120: badd 203e 9015 e93d 50ba 0e3e ba4e ecbd
00000130: 1633 593e 820d 4cbe db62 9e3e 73cc 993e
00000140: 4c5a cabd c091 e3bd 6075 943d 53f3 02be
00000150: f8fc 52bd 17bb 9b3e c499 ae3d be65 74be
00000160: 5777 a13e 1a60 85be 9616 7b3e 1238 6ebe
00000170: c091 2dbd 1d99 8dbe 52bf 4c3e dc64 b53d
00000180: a572 93be cee3 393e 3837 8dbd c81a 30bd
0.15056935 0.30691168 -0.25104436 -0.17270511 -0.05835709 -0.27752218 -0.14550278 0.2241619
-0.2964547 0.11452755 -0.14780794 0.15709469 -0.11482842 -0.1591394 -0.17402036 0.1972867
-0.2648389 -0.14561395 -0.22887605 -0.14286023 -0.2759343 -0.06100169 0.23891374 0.036132783
-0.25073868 -0.03238383 0.26597217 0.20753315 0.05803621 -0.07463391 -0.09234716 0.26255205
-0.20181721 -0.18296446 0.11540073 0.021706551 -0.07340604 -0.2346062 0.21325138 -0.11454216
-0.17076422 0.037293255 -0.22906601 -0.28494814 0.31379303 -0.13914023 0.052788705 0.00025847554
-0.17551088 -0.30220208 -0.19970639 0.08115265 -0.26777276 -0.020650119 0.018834054 0.09019786
0.010983944 -0.20374264 -0.14411902 -0.21458867 -0.19636005 -0.17760126 -0.28274786 -0.15694855
-0.008361757 -0.3081527 -0.098250404 0.3078772 -0.1067885 0.30752423 -0.18025975 -0.04635364
0.15709582 0.11381066 0.1393826 -0.115384534 0.21210894 -0.19927028 0.30934796 0.30038795
-0.09880504 -0.11111784 0.0724895 -0.12788133 -0.05151078 0.30416176 0.08525422 -0.23866937
0.31536362 -0.26049882 0.24520335 -0.23263577 -0.042375326 -0.2765588 0.19994858 0.08857128
-0.28798404 0.18153307 -0.06895298 -0.04299429

components.1.net.linear.1.bias f4 [1, 10]
00000000: 0000 0000 0000 0000 0000 0000 0000 0000
00000010: 0000 0000 0000 0000 0000 0000 0000 0000
00000020: 0000 0000 0000 0000
0.0 0.0 0.0 0.0 0.0 0.0 0.0 0.0
0.0 0.0

components.1.net.linear.1.linear.weight f4 [10, 10]
00000000: 0349 7e3e 54c1 8d3e 5044 b43d 7edf 793e
00000010: 98cc 34bd ab3d 6ebd 2f30 9c3e 7f4c b53e
00000020: 35d9 df3e 7c31 203e f202 e6be 1f68 92be
00000030: 945f e3bd d9e0 a73d 8a58 cfbe 3355 023e
00000040: b394 60be c169 083e a7f5 b1be 0c2b 85be
00000050: 05ae 263d b623 453c d4e7 2c3e 791d c1bc
00000060: b065 33be 0b06 8d3e 45fe 953e 82be a63c
00000070: 7409 8d3e 4966 64be 106d ca3d 9110 8abe
00000080: 8b4f 67be a569 a33e e48b b6be 6149 ba3e
00000090: f33f 9fbe 0175 72be bd01 a3be 1c86 56bd
000000a0: d0a1 163e 5c8a 8f3e c559 8c3e 2dbe 493e
000000b0: b03b 1e3e dad7 38be 7ea4 243e 7ae8 b9bc
000000c0: afd1 abbd bb48 88bc 8b02 d9bd 1cc6 6abe
000000d0: e80c cbbe 900b 473c 9f4d 88be be51 7a3e
000000e0: 1f31 133e b173 c7be a41c 15be 306b 073e
000000f0: d1b3 973e 47f0 973e 4a49 e73d 3e39 8abe
00000100: 5adf 383d 0a8e c6bd 9a11 20be 947e df3d
00000110: 4bde 8dbd 4273 b73e 65b5 bb3c 61be bbbe
00000120: 20f9 a1bd 0c8d 6c3e 110e 7ebd e37f 99bd
00000130: 5c64 70be 3f89 88bd 451d 80be d61b fcbc
00000140: 8de5 bbbe 0982 9fbd c528 debd 36c9 423d
00000150: 40c3 6dbe 12c5 fabc 1b74 673c 85a5 c2be
00000160: d011 90be fe35 1bbe 5d0f 2b3e 9660 abbe
00000170: 44a9 26be c95a ce3d 36ab 5dbd 877d b93e
00000180: cca7 4abe 0fea edbd d7ee b5bd 14ed 93be
0.2483254 0.2768656 0.08802092 0.24401662 -0.04414043 -0.05816428 0.3050551 0.35409924
0.43720403 0.15643877 -0.44924122 -0.28595063 -0.111022145 0.08197183 -0.40497237 0.12727813
-0.21931724 0.13321592 -0.3475773 -0.26009405 0.0406933 0.01203244 0.1688531 -0.023573624
-0.1751926 0.27543673 0.29295555 0.020354513 0.27546275 -0.22304644 0.09884083 -0.26965764
-0.22588937 0.31916538 -0.35653603 0.3638411 -0.31103477 -0.23677446 -0.31837264 -0.05237399
0.14710164 0.28035247 0.2741224 0.19701453 0.15452456 -0.18051091 0.16078374 -0.022693861
-0.08389603 -0.016636243 -0.10596188 -0.22927135 -0.39658284 0.012148753 -0.2662172 0.24445245
0.14374207 -0.38955453 -0.14561707 0.13224483 0.29629377 0.29675505 0.11293276 -0.26996797
0.04513488 -0.096950606 -0.15631714 0.10912815 -0.06927165 0.35830122 0.022913644 -0.36668685
-0.07908845 0.2310068 -0.062025134 -0.074950956 -0.23475784 -0.066668026 -0.2502233 -0.030774992
-0.3669857 -0.07788474 -0.1084762 0.04755517 -0.23219013 -0.030611549 0.014126803 -0.38016906
-0.2813859 -0.15157315 0.1670508 -0.33472127 -0.16275507 0.1007591 -0.054118358 0.36228582
-0.19790572 -0.11616909 -0.08883446 -0.28891814
